models/policy_net1.pth (torch, 75888 bytes, 6 tensors)

layer1.weight f4 [128, 9]
000000 78 4f 21 3d a5 24 4d 3d c0 a4 d0 bd a0 be 29 be
       0.039382428 0.050083775 -0.101876736 -0.16576624
000010 00 ba e4 ba 99 75 9f 3e 21 f5 a3 bc ca 8e 2a 3e
       -0.0017450452 0.31144407 -0.020014348 0.16656032
000020 0e 34 89 be 88 54 68 be 38 eb 21 3c c8 95 8d 3d
       -0.26797527 -0.22688496 0.009882741 0.06913334
000030 f3 62 54 be ec fc 8f 3d 50 cf 3d 3d 40 a0 9c bd
       -0.20740871 0.07030663 0.046340287 -0.07647753
000040 36 3e 73 3e 4e aa 6e 3e 43 7d 47 bc df 33 fb 3d
       0.237542 0.23307154 -0.012175861 0.12265753
000050 3c 74 a1 3e 9b 82 e2 bd 9a cb 72 3e ca d8 57 3e
       0.31533992 -0.11060067 0.2371048 0.21078792
000060 6e c8 6d 3e 38 07 62 be d6 56 17 3e 3b 13 e4 3d
       0.23220989 -0.22073066 0.14779219 0.111364804
000070 43 e4 01 3e cc ce 9c 3e 70 58 ac bd a8 ef a1 3c
       0.12684731 0.30626523 -0.084153056 0.019767597
000080 7f b2 a2 bd f8 87 95 3e 4c 46 a4 3e 8d 86 b4 3d
       -0.07944202 0.29205298 0.32084882 0.08814726
000090 46 77 11 be f5 11 8f 3e 74 f8 a8 bd 77 cc 29 3e
       -0.14205655 0.27943388 -0.08250514 0.16581903
0000a0 f8 fe 83 be 0a 27 4f be 48 8a 93 3e 73 ff 32 3e
       -0.25780463 -0.20229736 0.28816438 0.17480259
0000b0 c1 58 70 3d 71 a7 88 3e 7f 53 00 be fc 7c 74 bd
       0.058678392 0.26690248 -0.12531851 -0.059689507
0000c0 65 8b 8d 3e 59 df 00 3e a8 74 a8 3d 28 13 48 be
       0.27645412 0.125852 0.082253754 -0.19538558
0000d0 71 f9 13 be 2d bf a2 3d 6f eb 81 3e b0 78 3e bd
       -0.14450623 0.0794662 0.25374934 -0.046501815
0000e0 9b b5 a1 3e 7f c8 83 3c 24 14 8b 3e 0c 9e 5e bb
       0.31583866 0.016086815 0.27163804 -0.0033968715
0000f0 11 87 33 3e b0 5c a9 3e d7 9e 81 be 51 81 9c bd
       0.17531992 0.33078527 -0.25316498 -0.07641853
000100 13 23 cb 3d 50 03 77 be 5c 86 a9 3d fe 34 8f be
       0.09918799 -0.24122357 0.0827758 -0.27970117
000110 d3 26 d9 3b 36 2d 50 3e c9 87 a2 3e df 23 85 bd
       0.0066269427 0.20329747 0.3174422 -0.065009825
000120 bb b4 9d bc 1c fb a6 bd f1 26 0a 3e 2e b0 4a 3e
       -0.019251218 -0.08153364 0.13491417 0.1979377
000130 90 77 85 be 0d 48 2a 3e 27 bf 9f 3d f6 a4 0c 3e
       -0.2606778 0.16629048 0.07800131 0.13734803
000140 43 d5 19 3e 16 5b d3 bd a1 9b f7 bd 40 9d 4d be
       0.15022759 -0.10320108 -0.12090231 -0.20079517
000150 5b 3a 5e be 07 b7 9d be 07 cb a2 3e 5e e6 54 3e
       -0.21701948 -0.308037 0.31795523 0.20791003
000160 a8 d2 80 3b 70 9c ee 3c 50 55 67 3d fc c9 a5 be
       0.003931362 0.02912733 0.056477845 -0.32380664
000170 aa 36 0e 3e 3b 46 46 be 1b 21 93 3e c6 e0 91 be
       0.1388804 -0.19362728 0.28736195 -0.284918
000180 42 15 91 be 7c 4a ba 3d b8 1b c2 bc 8b 83 9d 3e
       -0.2833653 0.09096238 -0.023694858 0.30764422
000190 54 b6 fb bd 05 ac 90 3e a6 9e 88 be 8b 20 7c be
       -0.12290636 0.2825624 -0.2668354 -0.24621789
0001a0 ff 06 90 3e fe 40 34 be 4b a1 a2 be e8 a8 00 bd
       0.28130338 -0.17602918 -0.31763682 -0.03141108
0001b0 3b 81 44 3e 6f 5c 2d be 70 60 19 be 73 7c 94 3e
       0.19189923 -0.16929792 -0.14978194 0.29001197
0001c0 b2 bf c9 3d 4f ca e3 bd 03 d2 84 bd 8d 31 b6 bd
       0.09851016 -0.11122572 -0.06485369 -0.0889617
0001d0 53 42 8c bd f8 27 3d be 37 3a a8 be c6 ec 0d 3e
       -0.06848588 -0.18472278 -0.32856914 0.13859853
0001e0 50 d4 16 be 03 01 6c be 50 ca cf bd bc 68 a3 be
       -0.14729428 -0.23047261 -0.1014601 -0.31915843
0001f0 20 f6 5a be b6 81 5c 3e 92 e7 9f bd 08 05 fd 3d
       -0.21382952 0.21533856 -0.078078404 0.12354475
000200 94 00 04 3e 19 91 84 3e 56 e3 c2 bd a7 81 30 bc
       0.12890846 0.2589195 -0.09516017 -0.010773099
000210 98 de 04 be d1 e6 a7 3e 3e d8 9c 3d 3f 6e 8e 3e
       -0.12975538 0.32793286 0.076584324 0.27818486
000220 d8 98 66 3c 17 eb 88 3e d8 b1 5c 3b f3 0b 1d be
       0.014074527 0.2674186 0.003367534 -0.1533659
000230 b0 c2 1c bd a8 55 72 bd 6f a6 9d bb ac dc 87 be
       -0.038271606 -0.05916372 -0.0048111 -0.26535547
000240 fc c6 0e be 99 78 86 3e 31 32 4d be fb dd 3d 3d
       -0.13943094 0.26263884 -0.20038678 0.046354275
000250 82 76 a2 3e 7b c1 13 3e 61 fe 8d 3e 51 f7 f1 bd
       0.3173104 0.14429276 0.27733138 -0.1181475
000260 4c c5 5d be f9 71 7f 3e e2 25 94 bb 15 3b 74 bd
       -0.21657294 0.24945821 -0.0045211175 -0.059626658
000270 2f d9 a4 3e 2e 19 ae 3d 7e a8 6d be d8 47 81 3d
       0.32196948 0.085008964 -0.23208806 0.06312531
000280 3f c0 94 be 6a de 5d 3c cd be 9b be f8 de 57 3e
       -0.29052922 0.013541797 -0.30419007 0.2108115
000290 58 5b 2d 3e fd 0d 4a 3e 71 d1 7f bc 90 7f 8f 3e
       0.16929376 0.19731899 -0.0156139 0.2802701
0002a0 5f 76 6f bd 4d b5 81 3d 9e d6 03 be 88 2d e8 3d
       -0.058462497 0.063334085 -0.12874839 0.113368094
0002b0 1e 9b 76 be c8 f8 86 3d bc 38 9f bd 62 7c 8d be
       -0.2408261 0.0659042 -0.07774493 -0.2763396
0002c0 8d df 96 3e 7c db f8 3d 56 08 7a be 10 b9 7c 3d
       0.2946743 0.12151238 -0.24417242 0.061699927
0002d0 30 4b 4f 3e 01 4a 58 3e 9c 4d be bc cb 6b 64 be
       0.20243526 0.2112198 -0.023230366 -0.22306745
0002e0 e5 a8 25 3e 71 ec 99 3e 59 0a 89 3e 25 9c 86 bc
       0.1617771 0.30063203 0.26765707 -0.016431877
0002f0 1d 55 19 3e 08 3c 4c bd fc 63 8d bd 38 0d 9f bb
       0.14973874 -0.049861938 -0.06903836 -0.0048538707
000300 36 1f ff bd 98 8a 12 bd 98 03 15 be 00 fe ed bd
       -0.12457125 -0.035776705 -0.14552152 -0.11620712
000310 d8 95 22 3e e6 51 07 be f0 f8 27 3e 58 d9 5b bb
       0.15877473 -0.13214836 0.16403556 -0.0033546295
000320 4b cc 99 3e b6 a3 a9 be a0 55 74 3c 78 89 de 3d
       0.30038676 -0.33132714 0.014912993 0.10866064
000330 a7 ba 92 be a0 12 d0 bd d8 ff db bc 13 bf 68 be
       -0.2865803 -0.101598024 -0.026855394 -0.22729139
000340 b6 4b f5 bd 51 10 9b 3e e2 95 a1 be 3e 3d 26 3e
       -0.11977331 0.30285886 -0.31559664 0.162343
000350 29 6c 8f 3e f0 4a 00 3d 21 31 88 3e 68 fb 19 3d
       0.28012207 0.031321466 0.26599982 0.037593275
000360 59 1c 7c be 39 e0 8f 3e e3 08 85 3e 9a 3d 5e be
       -0.24620189 0.28100756 0.25983343 -0.21703187
000370 52 66 8a 3e 02 43 89 be 7a 82 d0 3d 14 16 47 3d
       0.2703119 -0.26808935 0.101811364 0.04860504
000380 bb 7d 02 be b1 f9 59 3e 96 be 25 be 27 65 8c 3e
       -0.12743275 0.21286656 -0.16185984 0.27420923
000390 30 77 92 bd 10 94 4e bd 33 6d 0e be 3e 08 23 be
       -0.071516395 -0.050434172 -0.13908844 -0.15921113
0003a0 9c 72 98 be e7 1a a7 3e 88 46 a7 be c8 b2 0b 3e
       -0.2977494 0.32637712 -0.32671 0.13642418
0003b0 08 08 3e bb bb 86 1d 3c 08 b3 c4 bc 88 58 4b be
       -0.0028996486 0.009614642 -0.02401115 -0.1985799
0003c0 b6 b0 15 3e a8 6f 71 bd 76 65 23 3e 36 46 19 3e
       0.14618191 -0.058944374 0.15956673 0.1496819
0003d0 84 94 9b bd 63 44 9f 3e 0a 10 99 be 4e 6b 04 3e
       -0.075966865 0.31106862 -0.2989505 0.12931558
0003e0 30 b2 4d be 1e fe 2f 3e f8 ca a2 bc be 86 21 3e
       -0.20087504 0.17186782 -0.019872174 0.15774056
0003f0 72 59 4d 3e 90 51 0d bd 12 93 01 3e d8 02 85 3c
       0.20053652 -0.034501612 0.12653759 0.016236708

layer1.bias f4 [128]
000000 60 74 88 3d d6 c4 61 3e 85 6f 52 3e c7 d7 e3 3d
       0.06662822 0.22047743 0.20550354 0.11125141
000010 05 7d 81 3e fb ff 90 be 9c 5e 72 3e 6a 2f 4f be
       0.25290695 -0.28320298 0.23668903 -0.20232931
000020 dd 04 a4 3e e1 fb a7 3e f2 12 a3 be b2 81 06 3e
       0.3203496 0.32809356 -0.31850392 0.13135412
000030 92 64 de 3c 02 ca 20 3e d0 84 90 be b5 c0 a1 3e
       0.027147565 0.1570206 -0.28226328 0.31592336
000040 3a ba 40 3e 91 4a 4c be 67 ba 7d be df 51 69 3e
       0.1882104 -0.1995032 -0.24778138 0.22785138
000050 16 2c 5b bd c0 0d f5 bb 42 d5 43 3e 80 6f 93 be
       -0.05350884 -0.007478446 0.1912432 -0.28796005
000060 d8 e4 f7 bc 2f ac 8b be 40 0d 97 bd 02 30 a3 be
       -0.030260488 -0.27279803 -0.07375574 -0.31872565
000070 6c 4a f8 3d 2d 68 68 3e 3e d5 97 be b0 5b b5 bc
       0.1212357 0.2269599 -0.29654878 -0.022138447
000080 9c e1 bc 3d 33 84 6f 3e 98 34 47 be d8 8a 4e be
       0.09222719 0.23390274 -0.19453657 -0.20170152
000090 e1 96 ee 3d 20 78 16 be 76 93 6d bd ee 14 6c 3d
       0.116498716 -0.14694262 -0.058001958 0.057637148
0000a0 41 d9 8b 3e d8 86 1b be 86 b0 50 be 0b 7c e6 3d
       0.2731419 -0.15188158 -0.20379838 0.11254128
0000b0 48 ec 14 3d cb 95 eb bd d1 3c a0 3e f7 32 c9 3d
       0.036358148 -0.1150318 0.312964 0.09824174
0000c0 f1 a4 91 3e 64 81 f6 3d c8 b4 a1 3e d0 42 08 bd
       0.28446153 0.12036398 0.31583238 -0.033266842
0000d0 77 d4 41 3e 79 5b 8c be 18 9d 7b be 78 b9 43 be
       0.18928705 -0.27413538 -0.24571645 -0.1911372
0000e0 08 87 08 3e cd 89 ae bc ca 97 1d be 67 e9 12 3d
       0.1333276 -0.021305943 -0.15389934 0.03586712
0000f0 78 d7 45 be b4 81 8f 3e c8 9c 04 3e 00 bd 0f bd
       -0.19320476 0.28028643 0.12950432 -0.035092354
000100 4e 0b 8b be 76 48 58 be 1d ac 48 3e db 21 03 be
       -0.27157062 -0.21121392 0.19596906 -0.12805884
000110 1c 6a c8 3d 4c 6c 80 bd 87 6b a2 3e d1 64 a3 3e
       0.09785864 -0.06270656 0.31722662 0.31912854
000120 e0 c2 05 bd 20 4a ef 3d c9 a7 99 bd 1b ac 24 3e
       -0.03265655 0.1168406 -0.075027056 0.16081278
000130 d0 4d d7 bd 6a ee b7 3d 58 27 4c be 66 18 69 be
       -0.105128884 0.08981021 -0.19936883 -0.22763214
000140 35 ec 88 bd e0 8f 6b 3d e9 6a 63 3e 10 00 24 3e
       -0.06685678 0.057510257 0.22208752 0.16015649
000150 81 b0 88 3e 0b 04 3d 3e cc 20 82 bd 74 8e be bd
       0.26697162 0.18458574 -0.06353912 -0.093045145
000160 c8 9c 2b bd 2a b5 5a 3e c5 f6 5d be 08 2c 43 3d
       -0.041897565 0.21358171 -0.21676166 0.047649413
000170 61 ba 8c be 20 77 67 be 8d 52 57 be 9e 0b 16 be
       -0.27485946 -0.22604036 -0.21027584 -0.14652869
000180 ab d2 87 be 1c 53 60 3e f0 ad b5 bc 8c 5b a4 bd
       -0.26527914 0.21906704 -0.022177666 -0.08025274
000190 d3 46 b6 bd ea b5 23 be 57 96 01 3c 51 7b 92 3e
       -0.089002274 -0.15987363 0.007909379 0.28609708
0001a0 fc fe 39 bd e0 c6 b7 bc e7 57 95 3e 44 3d 82 bd
       -0.045409188 -0.022433698 0.29168627 -0.06359342
0001b0 5d 67 88 3e 33 00 1e be 9a 88 49 3e 4d 9f fb 3c
       0.2664136 -0.15429763 0.19681016 0.030715609
0001c0 96 0a 96 3e 6c 2c 8b 3e 1c 58 a5 bd 90 7c 84 bd
       0.2930495 0.2718233 -0.08073446 -0.06469071
0001d0 c3 5a 23 be 6c 29 e6 3d ea dc 1f 3e 68 90 47 3d
       -0.15952592 0.11238369 0.15611616 0.0487217
0001e0 89 ba 44 3e 47 df de 3d 42 af 97 be b8 77 c1 bc
       0.19211783 0.108824305 -0.296259 -0.023616657
0001f0 c4 70 85 3d fc 2f 2a be 97 a5 f1 bc 70 85 51 be
       0.06515649 -0.16619867 -0.029497905 -0.20461059

layer2.weight f4 [128, 128]
000000 75 06 91 3d 88 b5 c7 3b 1c 66 c3 3c f1 79 a3 3d
       0.0708131 0.0060946383 0.0238524 0.07982243
000010 91 27 0d bd d0 2d b5 bc 8e a2 16 3d dc 03 9d 3c
       -0.03446156 -0.022116572 0.036776118 0.01916688
000020 d8 48 b0 bd ec 94 8f bd 90 d9 f5 bc b2 e0 1f bd
       -0.08607644 -0.070108265 -0.030010968 -0.039032646
000030 6a 6f 8b bd e3 6e ad 3d 28 7c be 3b 80 6e ab bd
       -0.0680836 0.084684156 0.0058131404 -0.083706856
000040 78 3f b6 bc 84 68 87 bc dd ce ac 3d 30 eb 58 ba
       -0.022247061 -0.01652933 0.084378935 -0.0008274792
000050 1e 52 1d 3d 62 94 a4 bd b0 13 05 3d d9 a1 a4 3d
       0.03840839 -0.08036114 0.03248948 0.080386825
000060 48 7e bc ba 98 43 e4 3c d0 ba 26 3c c1 6c 8f 3d
       -0.0014380896 0.027864262 0.0101763755 0.07003165
000070 20 f7 83 3c 67 10 9a bd da e7 3d 3d ea d3 34 bd
       0.01610905 -0.0752266 0.04636369 -0.04414741
000080 86 56 f5 bc 9e 82 01 3d d8 a5 f0 3c 98 ce e9 3c
       -0.029948484 0.031618707 0.029375955 0.028540894
000090 25 47 88 3d e0 fb 8a 3c 8c a3 cd bc f5 a0 98 3d
       0.06654195 0.016965806 -0.0251024 0.07452575
0000a0 6a d1 ac bd ac a1 d0 bc 40 38 10 3c e4 27 9e bd
       -0.0843838 -0.025467716 0.008802474 -0.07722452
0000b0 64 fb 81 3c be 96 63 bd 2c 42 c7 bc f4 f3 c2 bc
       0.015866943 -0.05556368 -0.024323545 -0.023797967
0000c0 96 ad 77 3b 68 d8 23 bc ca 08 18 3d 7e 37 73 3d
       0.0037792674 -0.010000326 0.037117757 0.059379093
0000d0 ff 41 a3 3d 60 73 69 bc 24 8d cb bc ae cf 32 3d
       0.07971572 -0.014248699 -0.024847575 0.04365509
0000e0 a8 1c 8d 3b 78 15 50 bc f5 93 0c bd 7f 35 a9 3d
       0.0043063946 -0.012700431 -0.03432079 0.08262157
0000f0 e8 80 59 bd ef 00 a0 bd a6 2e fa bc bf 85 87 3d
       -0.05310145 -0.07812678 -0.030539822 0.06617307
000100 ae 1f 16 3d 67 1d a3 3d 2a 09 79 3d 0b f0 8b bd
       0.036651306 0.079645924 0.060799755 -0.06832894
000110 0e 53 52 3d bc 35 d2 bc 4f e8 1c bd 78 0e 17 bc
       0.05134874 -0.025660388 -0.038307484 -0.009219758
000120 b3 37 9f 3d e0 93 c3 3c 66 82 4f 3d d2 d1 9b bd
       0.07774296 0.023874223 0.050661467 -0.076083794
000130 78 1f a3 bd 6a a1 f8 bc a8 a3 83 bc 7f 60 84 bd
       -0.079649866 -0.030350406 -0.016069248 -0.06463718
000140 16 97 26 3d 50 d5 64 bc 35 53 ad 3d 32 0e 45 3d
       0.04067143 -0.013966873 0.08463136 0.04810924
000150 b4 98 1f bd d1 6d 99 3d 1f 33 a9 bd a8 5c 85 3c
       -0.03896399 0.07491649 -0.08261704 0.016279534
000160 7e 83 0d 3d bf 23 84 3d fc e9 f0 bc 96 a6 7e 3d
       0.03454923 0.064521305 -0.029408447 0.062170587
000170 fa 42 70 bd f3 2d 9c bd 43 60 85 3d 00 47 71 ba
       -0.058657624 -0.076259516 0.06512501 -0.0009204
000180 7c 99 a1 3c ad f0 89 bd 2a 2f 24 3d 08 35 bf ba
       0.019726507 -0.067353584 0.04008404 -0.0014587948
000190 f0 c5 b8 bc 48 b1 4a bc e3 b0 85 3d d8 e8 c9 3c
       -0.022555321 -0.012371369 0.06527879 0.024647161
0001a0 e0 0e 73 bc 67 8e 4d bd 7c af c7 bc 22 52 7c 3d
       -0.014835089 -0.050184634 -0.02437567 0.061601765
0001b0 6e 18 0b 3d f8 01 98 bc d0 f5 94 ba 48 c0 17 bc
       0.033958845 -0.018555626 -0.0011364762 -0.009262152
0001c0 ae ba 2b bd c0 61 b4 3b 80 80 ef bc 26 1a f3 bc
       -0.04192608 0.005504817 -0.029236078 -0.029675554
0001d0 f5 8c 7f 3b 99 56 88 bd f9 c8 9b 3d 00 bc 21 3c
       0.003899393 -0.06657142 0.07606692 0.009871483
0001e0 00 17 c8 bc 36 6d 28 bd aa 31 10 3d 5f 3e 9f 3d
       -0.02442503 -0.041119777 0.035203613 0.07775568
0001f0 89 19 a0 3d 77 bc 05 bd 5e e8 a2 bd 1c 8e 59 3d
       0.078173704 -0.032650437 -0.07954477 0.05311404
000200 ed 7f 81 3d cc 39 c9 3c 77 aa 1b bd ae 80 90 bd
       0.06323228 0.024563693 -0.038004365 -0.07055794
000210 06 76 49 3d e5 86 92 3d 19 71 88 3d a2 55 a0 bd
       0.04918482 0.07154635 0.06662197 -0.07828833
000220 fa ef 3c 3d 32 46 ed bc b2 7a 18 bd 98 7e 0e 3d
       0.046127297 -0.028964136 -0.037226386 0.034788698
000230 32 07 48 bd c0 07 39 3b 12 cf 39 bd f6 80 3e 3d
       -0.048834987 0.002823338 -0.045363493 0.046509705
000240 22 b1 26 3d 52 36 a1 bd 26 70 3f bd f4 2e f5 3c
       0.04069627 -0.07871689 -0.046737812 0.029929616
000250 21 45 a1 3d 79 20 10 bd 54 e3 04 3d 39 d6 48 bd
       0.078745134 -0.03518722 0.03244336 -0.049032424
000260 e8 41 8e bb 88 63 18 bc aa 7b 59 3d 65 c7 97 3d
       -0.0043413527 -0.009301074 0.05309645 0.07411078
000270 c3 7f 5d bd 2e 23 14 3d 5a 9f 98 bd b0 37 f3 bc
       -0.05407692 0.036166362 -0.07452269 -0.02968964
000280 05 93 9e bd f4 8c 88 bd 60 e7 12 bc 64 11 14 bd
       -0.077428855 -0.0666751 -0.008966297 -0.036149397
000290 40 39 8b 3c 26 77 2d 3d 08 6c 8d bb 56 b8 8b bd
       0.016995072 0.042349957 -0.004315857 -0.06822269
0002a0 60 71 6e bc 70 d2 28 bd 51 38 85 3d f4 16 ec bc
       -0.014553398 -0.041216314 0.06504882 -0.028819539
0002b0 c7 05 84 3d e0 3e d9 bb 0b 99 89 3d 33 d0 a4 3d
       0.064464144 -0.0066298097 0.06718644 0.08047523
0002c0 ea 8a 42 bd 96 70 12 bd f8 2d ac 3b 0c 73 c3 bc
       -0.04749576 -0.0357519 0.0052545033 -0.02385857
0002d0 85 c3 9e bd e5 ed 9b 3d 14 ab 8c 3c f0 34 64 3c
       -0.07752136 0.07613734 0.01717142 0.013928637
0002e0 57 91 95 bd f2 b0 e9 bc 30 ad 7e 3c 88 d7 0a 3b
       -0.07303112 -0.028526757 0.015544221 0.0021185596
0002f0 5c 1b 08 3d 84 b4 90 bc b8 26 9c bd 4c 26 99 bd
       0.033229217 -0.017664202 -0.076245725 -0.07478008
000300 98 be e4 3c 04 29 4c bd 52 6f 98 bd 0d 4c 34 bd
       0.027922913 -0.049843803 -0.07443108 -0.04401784
000310 07 a0 9c 3d 66 8f 69 3d 28 5c 46 3c 0c 11 d7 3c
       0.0764771 0.05702152 0.012106933 0.026253246
000320 ce 0c 05 bd 57 6d af bd f4 8f c3 3c 70 51 86 bc
       -0.032482915 -0.08565777 0.023872353 -0.016396254
000330 7f 10 a5 3d e5 59 a6 3d 4a 11 6a bd 76 3b 76 3d
       0.08059787 0.08122615 -0.057145394 0.0601153
000340 d8 05 1d 3c c8 3a 1d 3c 22 b0 1c 3d c8 bd 23 3c
       0.009583913 0.009596534 0.03825391 0.009993978
000350 18 62 64 bb 8b b4 0e bd 52 85 73 3d 27 a2 64 bd
       -0.0034848507 -0.034840148 0.059453316 -0.055818703
000360 81 24 aa bd 34 05 e7 bc 6e 26 44 3d c6 a2 30 3d
       -0.08307744 -0.028200723 0.047888212 0.043123983
000370 90 7e 58 3c 16 9c 8b bd 2f 28 51 bd 93 27 95 3d
       0.013213769 -0.068168804 -0.051063713 0.07282939
000380 d8 c2 2d 3c 32 33 67 bd c9 57 90 3d 48 ac 3e bc
       0.010605536 -0.056445308 0.07047994 -0.011637755
000390 f6 e2 0d bd 43 75 8b 3d aa 65 5a 3d f5 e3 94 3d
       -0.034640275 0.06809475 0.05331961 0.07270042
0003a0 b0 54 d1 ba 14 a3 ac 3d 4a bd 3b 3d 80 cf 8f bb
       -0.0015970673 0.08429542 0.045834817 -0.0043887496
0003b0 dc a4 1a bd a5 ad 41 bd 10 22 7b 3c 05 25 0e bd
       -0.03775488 -0.04728474 0.015327945 -0.034703273
0003c0 e8 3a 5e bc f7 dc 41 bd 40 32 64 3c e0 eb 0b bd
       -0.013563849 -0.04732987 0.013927996 -0.034160495
0003d0 00 79 33 bd 20 86 73 bb 20 dd 67 bc d9 17 95 3d
       -0.043816566 -0.0037158802 -0.014151841 0.07279939
0003e0 4a 55 53 3d fe 64 0a 3d ea 6b 3c 3d 90 51 b5 bb
       0.05159501 0.03378772 0.046001352 -0.0055334046
0003f0 3f e1 ab bd b8 1f 64 bc 13 53 a2 3d 66 a7 3a 3d
       -0.08392572 -0.013923578 0.079260014 0.0455698

layer2.bias f4 [128]
000000 dc cd ad bd 44 cb e6 3c 10 1e 1b 3b 9f 54 ae 3d
       -0.0848653 0.028173096 0.0023669042 0.08512234
000010 a3 98 20 3d 9e 79 20 3d a8 9a d5 bc e2 06 b3 3d
       0.039208066 0.039178483 -0.026074722 0.08741547
000020 5c a2 88 3d 84 56 be 3d 42 e5 24 3d d1 de 97 bd
       0.066715926 0.09293845 0.0402577 -0.07415546
000030 47 03 92 3a 00 6c 79 bc a9 c6 2f bd 64 b6 a4 bb
       0.0011139893 -0.015223503 -0.042914066 -0.0050266255
000040 43 fa 92 3d b9 3b 19 bd 3b b4 a2 bc 55 39 99 3d
       0.0717664 -0.03741047 -0.019861331 0.07481638
000050 12 e1 29 3d 61 14 05 bd 9c 8f 24 bd 1e b7 75 3d
       0.04147441 -0.032490138 -0.04017602 0.059989087
000060 52 8b df 3c df 22 b4 3d d1 b2 a5 bc 7c e7 66 3d
       0.027288113 0.08795714 -0.020226868 0.056373104
000070 68 fd c1 3c 5f 86 94 3d ba 93 07 3d d6 fd af bd
       0.023680404 0.07252192 0.033099867 -0.08593337
000080 15 73 a9 3d 81 70 dc 3d 07 8e 75 bd 61 e7 7f bd
       0.08273903 0.10763646 -0.0599499 -0.06247652
000090 ff 16 1a bd e2 df 8f bd 80 97 ba 3b 50 10 f8 bc
       -0.037619587 -0.07025124 0.0056943297 -0.030281216
0000a0 d3 e5 85 3b 16 5c 32 3d a2 c7 e7 bc 5c 81 81 bd
       0.004086235 0.04354485 -0.028293435 -0.063235015
0000b0 cf 8e 7f 3d 9b a1 54 3c e2 09 bc 3c e3 30 9f 3d
       0.062392052 0.012977983 0.022953931 0.07772996
0000c0 fa c2 5b 3d 87 4f 88 3d dc 68 78 bd 2c 15 aa 3d
       0.05365274 0.06655794 -0.060646877 0.083048195
0000d0 d7 6f 4d bd fb c7 45 bd 60 b2 b6 3c 29 7e 93 bd
       -0.050155487 -0.04828642 0.022301853 -0.072017975
0000e0 97 ec fa bc 8c c6 5d bd 6c 54 95 bd f6 6e 76 bd
       -0.030630393 -0.054144427 -0.07291493 -0.060164414
0000f0 9d e2 05 bd ed db 19 bb fa c6 63 3d fd 40 42 bd
       -0.03268682 -0.0023477033 0.05560968 -0.04742526
000100 8b 2e 8e 3d 2c ad 99 bd b5 ff e9 bc e4 df 38 bd
       0.06942471 -0.07503733 -0.028564313 -0.045135394
000110 12 c8 65 3d 20 32 65 bc b9 8c 81 bd 36 f6 95 bd
       0.056099005 -0.0139890015 -0.06325669 -0.07322352
000120 2e b1 8d 3d 0a 67 85 bd ea 21 c3 bc dc ba f7 3b
       0.0691856 -0.06513794 -0.023819882 0.007560117
000130 47 81 47 3c 90 29 73 bc 10 89 27 3c 70 d8 93 bd
       0.012176818 -0.014841452 0.010225549 -0.072190166
000140 34 ee 07 3d 97 57 c4 bc 10 92 cb bb 26 40 3a 3d
       0.033186153 -0.023967547 -0.0062124804 0.045471333
000150 82 1b 7c 3d e5 90 b6 3d c5 cf 1c bd bf a6 c9 bc
       0.06154967 0.08914355 -0.038284082 -0.024615644
000160 b9 3c 09 bd d4 cc 67 bd f2 5e 70 3d 55 78 66 3d
       -0.033505175 -0.056591824 0.058684297 0.0562671
000170 9d 72 ba 3d f4 df 9f bd 79 52 b6 bd d8 ee 81 bc
       0.09103892 -0.078063875 -0.08902449 -0.01586096
000180 8a 1b 39 bd 98 a5 62 bc ff 78 16 3a a6 5c b8 3d
       -0.04519228 -0.013833426 0.0005740076 0.09002046
000190 a1 f2 68 bd f9 90 41 bd 36 e7 77 3d 61 94 e4 bc
       -0.056872014 -0.047257397 0.060523234 -0.027902784
0001a0 b2 de 8f bd 0a fe af 3d e5 a0 62 bc cd c8 a0 3d
       -0.07024898 0.08593376 -0.013832306 0.078508
0001b0 ee af 84 bd 03 4a 20 bd f2 e4 22 3d 54 ed 29 3d
       -0.064788684 -0.039133083 0.03976912 0.0414861
0001c0 3d 4d b3 3d b7 2f 5d bd ac 1d 79 bd 26 2e 3e 3d
       0.087549664 -0.054000583 -0.060819313 0.04643073
0001d0 9c ab d7 3c e1 99 9e 3d 51 45 e2 3d 46 5f b1 bd
       0.026326947 0.07744194 0.11048377 -0.0866075
0001e0 4c 31 13 bd ef ee 0e bd fa c8 1d bd b5 11 00 bd
       -0.035935685 -0.034895834 -0.038521744 -0.031266887
0001f0 6b a1 a0 3d b4 65 dd 3c 1c c9 af 3c 4f 3b af 3d
       0.07843288 0.027026035 0.021458201 0.08556234

layer3.weight f4 [4, 128]
000000 2c 92 6e bd a6 7f 44 3d 78 e2 9a bd 40 c8 39 bb
       -0.05824487 0.047973298 -0.07562727 -0.0028348118
000010 37 b0 3e 3d eb b1 1a bd 31 4c 94 3d 4a 82 cb 3d
       0.04655477 -0.037767332 0.07241095 0.0993696
000020 4f 01 83 3d d9 16 16 bd bf e5 92 3d b2 db 9f 3d
       0.06396734 -0.036642883 0.07172727 0.078055754
000030 68 59 19 3c ca 3a 79 bd 36 09 0e bd 75 d8 96 bc
       0.009359695 -0.06084708 -0.034676753 -0.018413762
000040 75 47 e9 3c 10 f4 85 bd 87 f6 ef 3c 65 c0 c8 3d
       0.028476456 -0.06540692 0.029292358 0.09802321
000050 e5 9a ac 3d ae 81 c7 3d ae 1d 0d bc c2 da 27 3d
       0.08427981 0.09741531 -0.008613033 0.040980108
000060 19 4b 7b 3d 9a 99 60 3d 63 75 19 3c 1e c1 c1 3c
       0.061350916 0.054833986 0.009366366 0.023651656
000070 09 39 48 bd a0 7d be bc 2c 1f 3a bd 38 cb 1e b9
       -0.048882518 -0.023253262 -0.045439884 -0.00015143759
000080 9e 23 2c 3d c2 24 d1 3d 39 82 02 3d ab 4b a4 3d
       0.042026155 0.10212089 0.03186247 0.08022245
000090 ad 79 8a 3d e0 62 7b 3c f6 ea 8f bd 70 9b 47 bd
       0.06761489 0.015343398 -0.07027237 -0.04873222
0000a0 78 3d 2f 3d da 06 7b 3d 60 e1 ed 3c a8 b9 b0 bd
       0.04278323 0.06128583 0.029038131 -0.08629161
0000b0 2d 80 ab 3d 04 52 85 3d 9f 05 82 3d 6c 73 f7 bc
       0.08374057 0.06509784 0.063487284 -0.030206405
0000c0 70 6b 91 3b 81 b7 14 bd ab 9e 08 3d c2 2a e8 3c
       0.0044378564 -0.036307815 0.033354443 0.028340701
0000d0 6e 29 80 bd 83 84 4e bd 88 3d bd ba f0 eb a2 3d
       -0.06257902 -0.05041934 -0.0014437893 0.07955158
0000e0 7f 95 23 3b f2 10 95 bd 42 fb a8 bd 97 20 a8 3d
       0.0024960933 -0.07278623 -0.082510486 0.08209341
0000f0 ff 0a bc 3d ce 2d fc 3b 7f a0 82 3d 3d 00 17 bd
       0.09181785 0.00769589 0.063782685 -0.03686546
000100 68 2f 3e bd 5e 10 34 bd 6b ce 87 bd ad bb 95 3d
       -0.04643193 -0.04396092 -0.06631168 0.07311187
000110 e3 a6 9f 3d 45 97 4e bd b3 82 10 3d 32 a2 21 3d
       0.07795503 -0.05043723 0.035280894 0.039461322
000120 d4 8f b4 3c 1d f3 db 3c 18 dc 07 bc 4f 2f 3e 3d
       0.022041239 0.026849324 -0.0082922205 0.046431836
000130 10 5b ed bb 75 2d f8 bc ae 1c 85 bd 74 6d 92 bd
       -0.0072435215 -0.030295113 -0.06499611 -0.07149783
000140 25 ba 05 bd 52 d0 95 bd 94 f8 a2 bc 38 f3 58 bd
       -0.032648224 -0.073151246 -0.019893922 -0.052966326
000150 4e f7 52 bd 53 fb 9b 3d e4 a5 ff bc 1a 5b 7b bc
       -0.05150538 0.07616296 -0.031207033 -0.0153415445
000160 f4 1e 01 3d 00 a6 f2 3c 68 60 3b bd e7 67 35 3d
       0.03152366 0.02962017 -0.045746237 0.044288542
000170 e0 fb f8 3c 6e 0c 5c bd 30 26 f4 3c 38 bd 2c bd
       0.03039354 -0.05372279 0.029803365 -0.04217264
000180 6a 57 d3 3c 40 7e ca 3d 0b 3c 00 bd 50 f5 ac 3d
       0.025798518 0.098873615 -0.03130726 0.08445227
000190 a0 08 6a bc 7f 6d f5 3c 77 fd a8 3d 2d cd 6c 3d
       -0.014284283 0.029959438 0.082514696 0.05781286
0001a0 e4 eb 9f 3c 36 01 85 bd 29 1f 5b 3d 3f 18 43 bd
       0.019521661 -0.064943716 0.053496514 -0.047630545
0001b0 f1 61 3c bd 76 18 43 3d e8 e4 fa 3b 20 25 d3 3c
       -0.04599184 0.04763075 0.0076566823 0.025774539
0001c0 70 69 14 bc 9e ef 23 3d 2a bd 0b bd 06 4d 34 bd
       -0.009058341 0.04002344 -0.034115948 -0.044018768
0001d0 5e 8e b8 3d d9 a3 4d bd 4b 6a 8f 3d 9d c4 aa 3d
       0.090115294 -0.050205085 0.07002696 0.08338282
0001e0 e7 0e 92 3d 3c 34 79 bd e1 97 9a 3d 05 e0 e8 3b
       0.07131749 -0.06084083 0.075485 0.0071067833
0001f0 6a ca 7b 3d 62 2c 18 3d 49 75 81 3d f5 36 1f bd
       0.061472334 0.0371517 0.063211985 -0.03887077
000200 c4 54 02 3d 63 8c 95 3d 56 e5 57 bd 84 cb f3 bc
       0.03181912 0.07302167 -0.052708946 -0.02976013
000210 7b f6 c2 3c d8 36 90 bd 49 35 88 3d b1 19 12 bb
       0.023799172 -0.070417106 0.06650788 -0.0022293145
000220 14 1b 7f 3d b7 0e 93 3d 5e 17 3b bd d1 39 52 bd
       0.062281683 0.07180541 -0.04567658 -0.05132467
000230 91 d4 89 3d 5c f3 da 3c 68 e4 c6 3c 20 c2 58 3c
       0.06729997 0.02672737 0.024278834 0.013229877
000240 1e 94 ef bc 95 9d b4 3d be 97 67 3d 1d d1 86 bd
       -0.029245432 0.08819119 0.056541197 -0.06582854
000250 4c 8a d0 bc 81 35 82 bd 5c aa 0a 3c 3c d2 b3 bd
       -0.02545657 -0.06357861 0.008463468 -0.087803334
000260 07 05 5e 3c 90 28 af 3b e8 3c 28 3d a3 81 6a bd
       0.013551003 0.0053454116 0.04107371 -0.057252537
000270 ea ad 3e bd 94 a3 ec bc 28 76 81 bc a2 cb 8a bd
       -0.046552576 -0.028886594 -0.015803412 -0.06777121
000280 70 ab 16 bc 47 20 6d 3c 22 d7 8d bb d0 af 5e 3d
       -0.009196147 0.014473028 -0.0043286243 0.054366887
000290 e8 bd 06 bc 58 da 24 3c 6a 2b 2c 3d 78 ca 1a bd
       -0.008223988 0.010061823 0.04203359 -0.037790745
0002a0 91 b2 3c 3c 88 38 9e bb 7e ef 99 bd 88 94 46 3c
       0.011517183 -0.0048285164 -0.07516383 0.012120374
0002b0 7c 0f d2 3c ec b8 21 3d 0b 69 b3 3d e1 ac c1 3d
       0.02564215 0.039482996 0.0876027 0.09456802
0002c0 52 25 4f 3d bd b2 87 bd 6e f5 f1 3c a3 df 40 bd
       0.0505727 -0.066258885 0.029535975 -0.047088277
0002d0 76 1b 16 bd b8 a3 95 bd 8b e7 8c 3d 0f 81 85 3d
       -0.036647283 -0.073066175 0.06880101 0.065187566
0002e0 66 54 a1 3d 18 5d 7f bd d0 ba 34 bd d0 13 cb bc
       0.07877426 -0.06234464 -0.04412347 -0.02478972
0002f0 7a 12 3a 3a 8c d5 95 3c d3 68 83 3d 39 9b ac 3d
       0.000709809 0.018290304 0.06416478 0.08428044
000300 a8 34 af 3d 60 53 4e bc 35 81 37 bd 42 d6 ee bc
       0.08554965 -0.01259312 -0.044800956 -0.0291549
000310 6c 96 04 3d 17 43 92 3d 80 f8 60 3d 8f 5a 20 bd
       0.032370016 0.071417026 0.054924488 -0.039148863
000320 33 75 62 3d 70 c1 24 bd 51 97 1c 3d c8 15 fa 3c
       0.05528755 -0.04022354 0.038230244 0.030527964
000330 6f 38 b3 3d 38 b8 39 3d 5e bb 68 bd f2 14 b1 3d
       0.08750998 0.0453417 -0.056819312 0.08646573
000340 f8 74 af bd cf e4 4d 3d 3c 54 eb 3c 02 44 1f 3c
       -0.08567232 0.050267037 0.02872669 0.009720804
000350 2d b3 af bd 27 45 93 3d b5 ef 85 3d 9a aa 1a bd
       -0.08579097 0.07190924 0.06539861 -0.037760355
000360 5d 30 82 bd 86 27 6d bd af f3 ac 3c 21 13 c3 3d
       -0.06356881 -0.05789902 0.021112291 0.09525133
000370 86 f1 30 3d 88 1c bf 39 77 ba 40 3d 7c a5 79 bd
       0.043199085 0.00036451616 0.047052827 -0.060948834
000380 02 2b 43 3d 8a cc 15 3d d6 8a 8a 3d a9 10 87 bc
       0.047648437 0.036572017 0.06764762 -0.016487436
000390 60 28 b0 bd e2 ea 1f 3b 69 52 3e bd 13 9d de bc
       -0.08601451 0.0024401476 -0.04646531 -0.027174508
0003a0 86 41 7c bd d1 d0 46 bd b4 80 a8 3d 2a 13 39 3d
       -0.061585926 -0.048538987 0.08227673 0.045184292
0003b0 34 7a d9 bc fe 89 32 3d 02 97 9a bd 88 14 bd 3d
       -0.026547529 0.04358863 -0.07548334 0.09232432
0003c0 78 e5 b0 bd 37 cf 67 bd 38 fd 73 3c fc fd 90 3c
       -0.08637518 -0.0565941 0.014891915 0.017699234
0003d0 79 fd 7b bc eb d2 80 3d aa 50 ba 3d f1 c9 c7 bc
       -0.015380257 0.062902294 0.09097417 -0.024388285
0003e0 8a d0 9e 3d d9 c0 8e 3d 7d 79 ac bd f5 0f 1e 3c
       0.077546194 0.069703765 -0.084216096 0.009647359
0003f0 fb e9 9e 3d 8c 76 a4 bc e2 72 73 3d b4 2f a0 bc
       0.07759472 -0.020076059 0.059435733 -0.019553997

layer3.bias f4 [4]
000000 c7 36 92 3c bd 69 18 3d 19 a6 de 3c d2 63 d2 3d
       0.017848385 0.037210215 0.02717881 0.102729455
