models/policy_net6.pth (torch, 75888 bytes, 6 tensors)

layer1.weight f4 [128, 9]
00000000: 3160 5ebd b2b5 a43e 7b65 3bbe fc43 36be
00000010: 872e 0e3d 5702 66be 2f17 adbd 18fe a1be
00000020: 04de f13d 7a4e 3b3d d0c8 8b3e ac49 533e
00000030: 5204 aa3d f2a9 49bd 9191 913a 594e 88bd
00000040: 1053 12be 3a93 5a3c cc1f 2fbd b5d2 e13d
00000050: 2205 513c 834a 6fbe 555c 4dbe 786b 97be
00000060: a43e 5dbe 553e 2bbd dded 3f3e e791 8abe
00000070: fe73 1cbd a269 a53e 63d7 85bd 3280 6b3e
00000080: a863 843e 7829 163e 55cf 0dbe 5f72 7cbe
00000090: f5f3 2ebe 33b7 8a3e 2c8f d93d 7951 b1bd
000000a0: 8d5a 883d 2c5a 9c3e dabd 9f3e 6901 2bbe
000000b0: e5ee 1b3e adac 173e d756 5b3e 0a1c 54be
000000c0: 36ea e43d 091c 92be 6c6e 93be 3b88 9dbd
000000d0: d5c3 a03e c5c2 35be fd03 913d c34b 723e
000000e0: fd5e 8abe 1cfe 9b3e 9f12 6f3c edc6 1abe
000000f0: 16f8 0abe ff77 6fbe e300 283e 4ba2 c7bb
00000100: ebe8 44bc 6011 863e a50c 3e3e b1f2 8fbe
00000110: df9f 823c dd9e 283c 3ad1 77bc 210d 7d3e
00000120: e8b8 67be 9dcd cbbd dd4a 14be fac9 493e
00000130: 60fb 90bc d072 9b3d 0115 4c3e 5743 8e3c
00000140: 5f5b 4abe ccbc a23e 0be3 9b3e b4dc 8f3e
00000150: 34f6 22bd 2e61 333e a5da 453e 3425 0a3e
00000160: e7d9 6abd 0c31 123e 72dc 973e 966c c23d
00000170: e921 db3d 585d 86be 44cf 7c3e eb64 9f3e
00000180: 5f6b 163e 96f5 fc3d 4f6c 2fbe 6ff9 7d3c
00000190: 996a 013e 2ef9 aa3d f335 053e 2dbd 973e
000001a0: 0201 28be e60c a7be b1df 75bd 7bda 7a3e
000001b0: 19a3 54bc 4db9 123e d0a0 c6bd eebd 383e
000001c0: 4205 733e 1052 183e 02ab 9fbc b246 a33e
000001d0: 223b 9dbe 0587 483d cdfe e5bd b258 23be
000001e0: ef46 3b3c 4c46 a83e 3d17 5abe 24f1 96be
000001f0: 544d 8f3e dd9e 1b3e 06cb 7f3e fff8 233e
00000200: ed63 03be 31d5 1cbe 974a c4bd 5256 893e
00000210: ba55 4fbe dc8d 383d d635 5a3e c8f5 473e
00000220: 54d0 5b3e 4142 94be d90d 523e 8f57 16be
00000230: 6749 e33b f414 af3d 8f27 113e 63d1 88bd
00000240: cfd5 63bc 06f9 0bbe 5ae7 9a3e 2d57 ab3e
00000250: 1dd9 b33d 18cd 923e d4e3 603e 5fed ed3c
00000260: 3c8b 6d3d 3669 5d3e 86b6 023e 06be 6fbb
00000270: 961d 243b e99e db3c 626c 643e 9ee3 27be
00000280: 0865 863e f16b 733e a2ba 87be fdb3 a0be
00000290: b562 8fbe 328f 7cbe aa78 983d 7c34 a0be
000002a0: 3678 103e fb11 bfbc d959 87be 8c54 433e
000002b0: 8c41 4dbe 9583 dabd f24e 893e b147 983c
000002c0: d86a 0abe 1f4c 54be f21a 3f3d d370 5abe
000002d0: 7822 b03d 6408 1a3e 2a98 9b3e 1aec b9bd
000002e0: a8e7 c83d feeb 6b3d 0449 a3bd c012 403e
000002f0: b3e2 3ebd d2c4 6b3e 62ff 97be 9f7f 963e
00000300: 22fc 303e 2e90 1a3d 8e60 303e e1ac a2be
00000310: f5b3 db3d 7af0 2f3e 909b b5bd 6055 20be
00000320: f1a0 86be b0e0 55be ffe5 c73d f372 21be
00000330: 6162 c9bd 36de a03e f6b7 45be 9dc3 9d3e
00000340: ba15 6abe d0fa ca3d 0814 18be d88e cc3d
00000350: 5736 71be 58d3 4a3e 9191 353e a59d b93d
00000360: d547 8dbe d531 53be 58c1 cfbd 4e42 1c3d
00000370: abfc 44be 0b2b 48be 7aad adbd 0298 d3bc
00000380: 0213 d63c 6bc8 84be 1d02 473e 3857 723d
00000390: 9186 3d3e 2b32 86be 635c 82be e8c8 91be
000003a0: b545 29bd c05f 9cbe 8920 563e 4a88 14be
000003b0: 3231 0e3e baa1 8f3e 94ae 16be 5f12 943d
000003c0: c9a2 433e 4959 40be 0a07 05bd 7665 6c3e
000003d0: 709a 943e 78e6 ffbd ce2e a63e 9dd8 79be
000003e0: 04d7 f5bd 73ef 4abe 4eb7 52be 165e f1bd
000003f0: cb82 20be 0676 0a3e 0797 b13d 1973 97bd
-0.054290954 0.32169873 -0.1830043 -0.17799371 0.03471234 -0.2246183 -0.084516875 -0.3163917
0.11809924 0.045729138 0.27301645 0.20633572 0.08301605 -0.049234338 0.0011106004 -0.06655569
-0.14289498 0.013340766 -0.042754933 0.11026517 0.012757571 -0.23368268 -0.20054753 -0.2957418
-0.21605927 -0.04180749 0.18743081 -0.2706444 -0.038196556 0.32307154 -0.065352224 0.22998121
0.25857282 0.14664257 -0.13848622 -0.24653004 -0.1708525 0.27092895 0.10623011 -0.08658118
0.06657896 0.30537546 0.31199533 -0.16699757 0.1522785 0.14811964 0.21419846 -0.20713821
0.11177485 -0.28537014 -0.28795183 -0.076919995 0.31399408 -0.1775008 0.07080839 0.23661713
-0.27025595 0.30467308 0.014591842 -0.15114947 -0.135712 -0.23385619 0.16406588 -0.006092345
-0.012018423 0.2618513 0.18559511 -0.28114846 0.015945373 0.010291782 -0.015125567 0.2471204
-0.2262913 -0.09951327 -0.14481683 0.19705954 -0.01769799 0.07590258 0.19929887 0.017366095
-0.19761418 0.31784666 0.30446658 0.2809807 -0.03978558 0.1751754 0.19321688 0.13490754
-0.057336714 0.14276522 0.29660374 0.094933674 0.10699827 -0.2624309 0.2468844 0.31131682
0.14689396 0.12351529 -0.1713116 0.015501364 0.1263832 0.083483085 0.13008861 0.29636517
-0.16406634 -0.32627028 -0.060027782 0.24497406 -0.012978339 0.14328499 -0.09698641 0.18041202
0.23732474 0.14875054 -0.019490723 0.31889874 -0.30709177 0.04895689 -0.1123024 -0.15951803
0.011430486 0.32866132 -0.21297927 -0.2948085 0.27988684 0.1519732 0.24979791 0.16012953
-0.12831087 -0.15315701 -0.095845394 0.2682367 -0.20247546 0.045057163 0.213096 0.19527352
0.2146619 -0.28956798 0.20513095 -0.14681838 0.0069362405 0.08548918 0.14175247 -0.06680562
-0.013905956 -0.13669214 0.30254632 0.33464947 0.087816454 0.286721 0.2196191 0.029043851
0.057994112 0.21622166 0.1276494 -0.0036581769 0.0025042049 0.026809173 0.2230697 -0.16395423
0.26248956 0.23771645 -0.26509577 -0.3138732 -0.28004995 -0.24664 0.0744489 -0.31290042
0.14108357 -0.023324003 -0.26435736 0.19075221 -0.20044535 -0.106696285 0.26818043 0.018588873
-0.1351732 -0.20732163 0.046656556 -0.21332102 0.086003244 0.15042263 0.3038953 -0.09078236
0.0980981 0.057598107 -0.07972911 0.18757153 -0.046602916 0.230243 -0.2968703 0.29394242
0.17283681 0.037735157 0.17224333 -0.3177252 0.107276835 0.17181578 -0.08867562 -0.15657568
-0.26294664 -0.20886493 0.09760665 -0.15766506 -0.098332174 0.31419533 -0.19308457 0.30813304
-0.2285985 0.0991112 -0.14851391 0.09988183 -0.23555885 0.19807184 0.1773131 0.090632714
-0.27593866 -0.20624478 -0.10144299 0.03814917 -0.1923701 -0.1954767 -0.08480354 -0.025829319
0.02613211 -0.25934157 0.194344 0.05916521 0.18508364 -0.2621015 -0.2546111 -0.28473592
-0.041326243 -0.305418 0.20910849 -0.14505115 0.13885954 0.28053075 -0.14715034 0.072300665
0.19105066 -0.1878406 -0.032477416 0.2308558 0.29024076 -0.1249513 0.32457584 -0.24399038
-0.120039016 -0.19817905 -0.20577738 -0.117855236 -0.15674894 0.13521585 0.08671384 -0.07395

layer1.bias f4 [128]
00000000: db3a 5d3e cf35 72bd 0200 d03d 2b3d 73be
00000010: cdfc 1c3e 15f9 7fbe 29ba 743e bd97 52be
00000020: e0b9 e0bc 6619 9a3e b385 62be 489d 073e
00000030: d129 7abe a16f a73e 6fe0 8a3c f7bc 73bd
00000040: 881c 50be 8de9 84be de7f 15be bfe5 c1bd
00000050: fb0e 1abe e808 a03e 2c43 2dbd b7ac 153e
00000060: 3cbe 823e 2ee4 8c3e 60e8 983e 31b5 973d
00000070: c7ce 533d dd96 a2be 3240 cf3d 704e 6a3c
00000080: 79c8 04bd 86cd 91be 14ec 913e fa91 32be
00000090: 0317 84bd fb98 a73e 721f 8bbe 68cb d0bd
000000a0: 060f 98be 83f6 443d 1e4b 813e fada abbe
000000b0: 458d 043e d9cd 5ebd 7043 2f3e 0671 86be
000000c0: 53da aabd 5232 b1ba 67f6 553e 001a 123e
000000d0: ae69 1c3e 1d18 823e 58d3 523e 9649 62be
000000e0: ddf2 67be ceab ae3e 6b12 9c3e 3e17 a53e
000000f0: d0fb 773d e7e6 9c3e 2c88 943b 5ced 7bbe
00000100: e5ba 0ebe a3d2 9abe 5063 813e b000 a6be
00000110: 26dd 8c3e 1331 a7bc 79a3 12be ae01 75be
00000120: 3338 253e 1fda 7fbe f2d3 9f3e c664 5439
00000130: 2dba 85be 6a2a 4fbe 74c7 32bd 5ac6 0ebd
00000140: 5e98 9bbe a8d1 353d 5c6e 65be 3d9d 9abe
00000150: 7e22 703e 5c55 313d 2332 603e f67c 68be
00000160: da4b a6bd e115 64be 17ac c03d 5218 903e
00000170: 5678 98be cda4 eb3d b99b 433e 74de 17be
00000180: 64a0 dabd a05a 843e a3fc 9d3d 2f3a 4cbe
00000190: c1d1 3bbe a57b e03d a028 7f3d d392 71be
000001a0: 174e 88be 739c 99be 0ac9 6bbe 53a1 2b3e
000001b0: 51e7 3f3e 0056 81be 53eb 3ebe ae34 b63d
000001c0: 70e3 efbd 3600 27bd 7dbd fdbd 8d8b f8bd
000001d0: 9ec6 07be 9ba9 163d 7d98 243e af33 173d
000001e0: ab0f 60be 193a 5dbd 365d 78be 65fb 3f3e
000001f0: 1ce8 203d 7cc0 ec3d 0d9b a7be c2c6 d5bb
0.21604483 -0.059133347 0.101562515 -0.23753802 0.15330811 -0.24997361 0.2389914 -0.20565696
-0.027432382 0.30097502 -0.22121315 0.13243592 -0.24430014 0.32702354 0.016952721 -0.059506383
-0.20323384 -0.25959435 -0.14599559 -0.09467649 -0.15044777 0.31256795 -0.04230039 0.14616667
0.25535762 0.27517837 0.29864788 0.074076064 0.05171087 -0.31755725 0.10119666 0.0143009275
-0.032417748 -0.28477114 0.28500426 -0.17438498 -0.06449702 0.32733902 -0.27172428 -0.10195047
-0.29698962 0.048086654 0.25252622 -0.33565503 0.12944515 -0.05439553 0.17115569 -0.26258105
-0.08342423 -0.0013519025 0.20894776 0.1426773 0.15274689 0.25409022 0.20588434 -0.22098383
-0.22651239 0.34115452 0.30482802 0.32244295 0.06054288 0.30644915 0.0045328345 -0.24602264
-0.13938482 -0.30238828 0.25271082 -0.324224 0.27512473 -0.020409143 -0.14320172 -0.23926422
0.1613472 -0.2498555 0.3121639 0.00020255437 -0.26118603 -0.20231023 -0.043647245 -0.03485713
-0.30389684 0.044389397 -0.2240538 -0.30198088 0.23450658 0.043294296 0.21894126 -0.22703919
-0.08119936 -0.22273971 0.094078235 0.28143555 -0.2977931 0.11506043 0.19102372 -0.14830953
-0.10675123 0.2585039 0.07714202 -0.1994407 -0.18341734 0.10961083 0.062294602 -0.23591165
-0.26622078 -0.30002174 -0.23025909 0.16760759 0.18740584 -0.25260925 -0.18644457 0.088967666
-0.11713302 -0.040771686 -0.12389658 -0.12135992 -0.1325936 0.036782842 0.16073795 0.036914524
-0.21880977 -0.054010484 -0.24254307 0.18748243 0.039283857 0.11560151 -0.32735482 -0.006523938

layer2.weight f4 [128, 128]
00000000: 0b0d 7dbd ffc8 38bb c8bc b53c 50c5 3dbd
00000010: 496a 7bbd f987 6e3d f61c 71bd 36b0 73bd
00000020: e038 f4bc d9a7 b1bd eae3 80bd 542e f03c
00000030: 51a4 92bd eab5 80bc d9ca 7cbd cadb d73b
00000040: 1871 8e3d 6c68 993d be6d ac3d 550f b2bd
00000050: f40f 2dbd 2804 aabd af84 4cbd 3429 f23c
00000060: 17fc 91bd e083 113d 1149 a4bc b9cf 8e3c
00000070: 788b 063d f4ae 2fbb cf27 963d 2764 fc38
00000080: 4a17 8dbd b5cb 263c cde5 853c 426a cc3a
00000090: a2db b3bd 09e3 47bd ee5c 103d 7351 b13d
000000a0: 4e44 213d c0ee a8bd 6901 a3bc b730 403d
000000b0: fe2d 9e3d f255 943d 515f 5fbd d555 acbd
000000c0: 3e43 9bbc 6242 2a3d 0b5e 32bb 8712 75bd
000000d0: 0afd 4fbc eb4b 193d 7853 97bd 9fd3 95bd
000000e0: b387 e73b e2f3 21bd ece9 8b3d e67f 74bd
000000f0: 2bb6 96bd c554 30bd 39be fb3c 73fd af3d
00000100: f49b 183d 3e88 323d 6fd7 063d 4c33 a83d
00000110: 4646 71bd cc69 e13c 35f6 e1bc 4908 7cbd
00000120: 7b10 4abc 5d12 4a3d 6210 68bd 83a4 adbb
00000130: e1f5 51bb 35d1 a43c 04f5 62bd 2dbf e13c
00000140: 1487 b1bb 2246 43bd 3736 ac3d bab6 a43d
00000150: a192 a4bc f387 3b3d 522e a83d 9b75 07bd
00000160: 5797 3a3d 9177 963d 94b9 313c 42e4 d9bc
00000170: d38d 86bd e733 21bd 361b 53bd 40ff 893d
00000180: edcc 5ebd ad98 423d bb63 90bd 392c 8b3c
00000190: 9f2a 32bc 63d1 1e3d a523 97bd 6427 9bbd
000001a0: 363f 283d 7548 ec3b b47e 35bd 244a 69bd
000001b0: dbd1 bfbb b534 9c3d 8a39 1abd bf43 323d
000001c0: 5b4e ae3d cd03 863d bc10 de3c 4345 663d
000001d0: 2bdc 483d c421 b4bd 1522 69bd 48be 983d
000001e0: e208 0cbd e98a 483d 94a3 a83d a015 7dbd
000001f0: 5182 c23c 8a80 2cbd fc7a 4c3d a9f4 25bd
00000200: 9458 03bd 1e45 9ebd 0c09 553d 30b1 72bc
00000210: 1bda 1b3d 325c 15bd 1578 b53c 2c46 9e3d
00000220: 5b5b 8dbc 7869 cebc 31c9 853c 7182 e83c
00000230: 568a 123b 3466 b0bd 89b2 673c b372 bc3c
00000240: dede 723d 8b63 923d eb59 44bb cad4 70bd
00000250: 195a 76bb b0c9 16bd 1de2 7fbd 7702 843c
00000260: 0df5 483d e311 41bd 0f00 073c 7270 32bc
00000270: 85f3 7c3d 823f a03d 23a8 5d3d 3964 5a3a
00000280: d8a6 b4bd 225b cfbc 12f1 46bd 599d 3e3d
00000290: 46e8 3bbd df0c 89bd 9f32 0fbd d1f6 64bd
000002a0: 50db 85bb 50e5 47bb b733 98bd 667c 1bbc
000002b0: b364 253d 24cc 103d 9810 b3bd 1480 ac3d
000002c0: 6adb 8dbd a32c 88bd d846 57bc db6d 0f3d
000002d0: 4ccd 88bd cd6e 033d 2a6e 523c 35c3 933d
000002e0: eee0 95bd cbdd a6bd 4ed4 9e3d cf22 843c
000002f0: 66e7 403d 2643 353d 049f 82bd 61fb a5bc
00000300: 4571 6ebd beaa 933d e903 65bd 1d7f 21bc
00000310: ec9a a4bd 9088 913d 1e3c 3a3d e3ba 08bd
00000320: 4b7f c63b 643f ee3c 3754 3fbd d19f a3bc
00000330: 5d47 9fbd eea6 343d 2577 083d 2f18 06bd
00000340: 2413 a83d 4d6a 803d d3f3 513d 2780 763d
00000350: 806c ab3d 1b69 fb3c 850a 3e3d 489d 103d
00000360: 2e87 483d f48a b73b e6df 163b aaaf 413c
00000370: c1ef 3e3d d503 1e3b 66d9 cb3c 5dfe 29ba
00000380: 33a8 5f3d f612 a8bd d106 3ebd cd4d 50bd
00000390: 5b7e 943c e3ed 073d 932c 16bc 43c7 abbd
000003a0: 924c 1fbd 2ca8 d13c 8a81 143d edc0 e43c
000003b0: c5b9 1cbd e2cc 873c 220a 9bbc c67c 9d3d
000003c0: d2c0 af3c 3bac 723c f2ba 31bd 1082 b6bc
000003d0: 7617 823d ecf0 0e3b fda0 423d 45d5 84bc
000003e0: 34db 193d 6999 7d3d 49f1 acbc 3212 47bd
000003f0: f032 62bd 0218 0abc 836c 5d3d 7c3b 7ebd
-0.061780017 -0.0028195975 0.022184744 -0.04633075 -0.06138066 0.058235142 -0.05886551 -0.05949422
-0.029812276 -0.086745925 -0.06293471 0.029318966 -0.07160247 -0.015711743 -0.061716888 0.00658748
0.06955165 0.0749062 0.08419369 -0.086943306 -0.042251542 -0.08301574 -0.049931224 0.029560663
-0.071281604 0.035526156 -0.020054372 0.017433034 0.03284785 -0.002680716 0.07331812 0.00012034951
-0.06889208 0.0101804035 0.01634493 0.0015595632 -0.08782126 -0.048800502 0.035244875 0.08658113
0.03937178 -0.08248663 -0.019898133 0.046921458 0.07723616 0.07242955 -0.05453426 -0.08414809
-0.018952962 0.041567214 -0.0027216699 -0.059832122 -0.012694607 0.037425917 -0.07388967 -0.07315754
0.007065737 -0.039539225 0.068317264 -0.059692286 -0.073589645 -0.043049593 0.030730354 0.085932635
0.037258103 0.043586962 0.032920297 0.08212909 -0.05890491 0.027516268 -0.027583221 -0.06153134
-0.012333031 0.04933392 -0.05665625 -0.0052991523 -0.0032037424 0.020119289 -0.055409446 0.02755698
-0.005417714 -0.047674306 0.08408778 0.08042665 -0.02008945 0.04578395 0.0821196 -0.03307114
0.045554485 0.07347024 0.010847468 -0.0265981 -0.065700196 -0.03935614 -0.051539622 0.06738138
-0.05439465 0.047508884 -0.07050272 0.01698886 -0.0108744195 0.038773905 -0.073798455 -0.075758725
0.041075908 0.007210786 -0.044310287 -0.05695547 -0.005853874 0.076272406 -0.03765253 0.04352164
0.08511039 0.06543694 0.027107589 0.056218397 0.049038094 -0.08795503 -0.05691727 0.07458168
-0.03418816 0.0489606 0.08234325 -0.0617882 0.02374378 -0.042114772 0.049921975 -0.04051653
-0.032066897 -0.07728027 0.05201058 -0.014812753 0.0380498 -0.036464877 0.022151986 0.07728228
-0.017255476 -0.025196776 0.016331287 0.028382512 0.0022360287 -0.08613244 0.014141687 0.023003912
0.059294574 0.071478926 -0.0029960822 -0.05879668 -0.0037590323 -0.036813438 -0.062471498 0.016114457
0.049061824 -0.0471362 0.00823976 -0.010891067 0.061755676 0.07824613 0.054115426 0.00083309744
-0.088208854 -0.02531201 -0.048569746 0.046536777 -0.04587581 -0.06691908 -0.034960385 -0.055899445
-0.004084982 -0.003050167 -0.07431739 -0.009490108 0.040379237 0.035350934 -0.087433994 0.084228665
-0.069266155 -0.06649139 -0.013139449 0.035016876 -0.06679782 0.03208809 0.012843648 0.07214967
-0.073182926 -0.081477724 0.07755338 0.01612988 0.04709568 0.04425349 -0.06377986 -0.020261468
-0.05821349 0.07210301 -0.055911932 -0.009856966 -0.080373615 0.07106125 0.04546749 -0.033381354
0.006057655 0.029082961 -0.046711173 -0.019973667 -0.07777283 0.04410451 0.03331675 -0.032737907
0.08206776 0.06270275 0.05125792 0.06018081 0.08370304 0.030689767 0.04639675 0.035306245
0.048957042 0.0056012813 0.0023021637 0.011821667 0.046615366 0.002411117 0.024883937 -0.00064847415
0.054603767 -0.082067415 -0.04639322 -0.050855447 0.018126657 0.03318585 -0.009165901 -0.083876155
-0.038891383 0.025592886 0.03625635 0.027924025 -0.0382631 0.016577188 -0.01892573 0.07689814
0.021454249 0.014811571 -0.043391176 -0.022278816 0.06352131 0.002181108 0.04751681 -0.016214976
0.037562564 0.06191388 -0.021111147 -0.048601337 -0.05522436 -0.0084285755 0.054058563 -0.062068447

layer2.bias f4 [128]
00000000: 5a42 333d a983 67bd 51c4 60bd ea59 913c
00000010: becd b43c fd50 b13d 1264 d33c c1df 1d3c
00000020: ad6a 923d 7c98 bb3c 67ad 9d3d 728f 05bd
00000030: 00c7 89bd 03ea 653d 096c 1bbc 2b9c 41bc
00000040: 06b9 1cbb a18d 8fbc 0981 a43c 6415 d1bc
00000050: 10a5 03bd 787b a1bd 3d66 4bbd e612 ebbc
00000060: 8909 453d 5287 cd3c bdbd 86bd 4f2a 013d
00000070: 2e6f 953c 7a1a 36bd f1ee cb3d a51d 343d
00000080: c04b b2bd ad23 b93d 37b4 a03d b589 b03d
00000090: 78bf f13c 2eb7 193d 478c f83b c440 85bd
000000a0: 8c45 adbd 7d74 01bd fac9 763c 9d5b adbd
000000b0: fd44 2b3c 67c9 99bc 96d1 973d d713 963d
000000c0: 40c0 05bd 2026 b33d a5e3 843d 1b59 653d
000000d0: b396 8dbd de43 26bd e6e4 18bc e7c7 a9bd
000000e0: 1a9d a8bd 33a0 673d ed9f 96bd bd6c ad3d
000000f0: 0d50 4c3c b3ff 493d 0321 413d f08e d8bc
00000100: 9e03 85bd 85a9 01bd 5d84 d83c 2bdf 283d
00000110: d5df a53c cf75 893c 08eb c7bc 5c03 3b3c
00000120: fa15 b8bd b11f 80bd 7bd5 b23c e269 33bd
00000130: ccbe aa3d d3d3 613d cfed 27bd 1409 753d
00000140: df97 a5bd c996 b5bd b613 ac3d 344d f5bc
00000150: 6674 2d3d c28f 583d 471d 8d3d 9d73 15bd
00000160: 1a1a e9bc 7bf5 97bd 3a63 04bd 5594 923d
00000170: 5a09 8cbd 9817 f43c a046 993d 4ae8 1dbd
00000180: c5fd 30bd 8be8 adbd 04bc 243d 11bc 45bd
00000190: 3ffe 96bd 264f a93d 2c35 353d b772 88bd
000001a0: 28d8 80bd 91d9 a4bc dcdd 98bd e92b 7c3d
000001b0: 9a20 6d3d ea20 183c 0af3 78bd aa13 49bd
000001c0: a4c3 853d 447a 0f3d 38dc 9dbd b733 5e3d
000001d0: ff06 54bc d07a 003d d384 193d 6037 11bd
000001e0: 80f9 aabd efe0 8cbc e3d0 dd3b ef62 83bd
000001f0: ca27 9dbd 861a 9bbd 8a14 8d3d 8cec a33d
0.04376445 -0.056522045 -0.054874722 0.01774307 0.022070762 0.086580254 0.025804553 0.009635867
0.07149253 0.022899859 0.076990895 -0.032607503 -0.06727409 0.056131374 -0.009486207 -0.0118170185
-0.0023913994 -0.017523589 0.02008106 -0.025522895 -0.032139838 -0.07884878 -0.04965805 -0.028695535
0.048104797 0.02508894 -0.065791585 0.03153449 0.018241491 -0.044458844 0.09957684 0.043973584
-0.087058544 0.09040008 0.07846873 0.086200155 0.029510245 0.03752821 0.0075850817 -0.06506494
-0.08460531 -0.031605233 0.015062803 -0.084647395 0.01045346 -0.018772794 0.07413022 0.07328003
-0.032654047 0.08747506 0.06488732 0.05599318 -0.06913509 -0.040592067 -0.009331917 -0.082900815
-0.0823309 0.056549262 -0.07354722 0.08468006 0.0124702575 0.04931612 0.047150623 -0.026435345
-0.064948305 -0.031655807 0.026430303 0.041228455 0.020248333 0.016779808 -0.024404064 0.011414375
-0.08988567 -0.06256045 0.021830311 -0.04380215 0.08337173 0.055133652 -0.040998276 0.05982311
-0.08085608 -0.088666506 0.08402197 -0.02994404 0.042347334 0.052871473 0.0689035 -0.03648721
-0.028454829 -0.074198686 -0.032321192 0.07157198 -0.06837721 0.029796407 0.07484174 -0.038551606
-0.043210763 -0.0849162 0.04021837 -0.048275057 -0.07372712 0.082670495 0.04424016 -0.06662505
-0.062912285 -0.020123275 -0.07464191 0.061565313 0.05789242 0.009285191 -0.060778655 -0.04909102
0.06531456 0.03502871 -0.07708019 0.054248538 -0.012941121 0.031367123 0.037480187 -0.0354532
-0.083483696 -0.0171971 0.006769286 -0.064153545 -0.07673605 -0.07573418 0.06888683 0.08004102

layer3.weight f4 [4, 128]
00000000: 3ae8 993d 561e 90bd 98fc c2bc a28c 4b3d
00000010: 9d91 503d 97c9 8d3c bc8f 1ebd 9c20 b1bd
00000020: 96ff 323d 11e2 61bc 7269 563d 7fb4 623d
00000030: 3622 87bd d89b 553d e23d c83d b5ed 0abd
00000040: 993f 5bbc 2b0e d43c 19e7 653b eed6 983c
00000050: c811 4b3d 4932 613c c0a7 753c 6de0 ad3d
00000060: 738c 493c 39a5 fdbc 5254 5c3d d0a2 9f3d
00000070: 3d7e 3bbd 46da 9cbc ee6d d93c 9329 3f3d
00000080: f201 373d 4bae a43d ef18 293d dd30 1fbc
00000090: 30e3 b8bc 36e8 80bd 4237 373d 5fe1 af3d
000000a0: d031 39bc 0af3 8a3d 5b11 96bc 39eb 7ebd
000000b0: 7657 a23d c307 833c e1d6 433b 0d2d 833d
000000c0: 6a08 d6bc a598 4b3d 5d70 733d 1adf 233d
000000d0: 4acc 13bd 7b59 273d 64f8 173d 429b 7f3d
000000e0: 9187 86bd ea7d a1bd 67b7 883c b7fc 5e3d
000000f0: 4c48 b13d 545a d0bc f515 67bd 5012 ca3d
00000100: 98c8 073d 595d 14bd 37b8 8c3d bbae b83c
00000110: 36e9 53bc 7b0d 57bd 24cb 81bd 07cd 873c
00000120: 42c6 e33c 80c1 f63b 6237 0d3d d318 043d
00000130: 350a 86bd 5d35 e63c b5e3 51bd b7d2 333d
00000140: ddc5 28bb 714f 7fbd 28bf aa3d 5793 7d3c
00000150: e720 b13d 9fda 983c 4ed1 d2bc 0429 2dbc
00000160: 29c7 503d 0d77 0a3d cce3 8ebc 44f7 31bc
00000170: 19ea 663c d246 b53d 105b 4abd 7734 b93c
00000180: 20c3 cebc 9d6f 91bd 816d 8ebc 8e29 9fbd
00000190: 502f 553d df52 a5bd 15ae 3b3d b403 de3c
000001a0: 6757 043d 9e22 6dbd 3547 a6bd a6de 8d3d
000001b0: 78ec 02bd 54d9 4abc 530d 7fbc 8dcb 7dbd
000001c0: ff81 903d af93 c63d d297 febc 73a4 8bbc
000001d0: d0f0 86bd a6ec 40bd 145d 92bd d1ae 51bd
000001e0: 6799 ddbc 3c13 803b c3bd 443c d38b de3c
000001f0: 8738 293d fd6a 433d a8f3 883d 3994 a13c
00000200: 7722 75bd d91f a63c 5e82 c3bc dec3 80bd
00000210: 4c6e 6dbc c5a0 3ebd 0d92 70bd fbf9 12bd
00000220: 3f25 95bd b989 42bd 49d1 683d 7001 f5ba
00000230: a433 08bd 4f8d 00bb 8bf8 a23d bcdc 543d
00000240: a87c b5bc 5bc5 7cbd d65f 173c f0a4 24bc
00000250: 21d0 bdbc d4a2 b73a 5cee 0f3d a7bd 80bc
00000260: 442b 3bbc 1802 5a3d a1d0 6b3d cfd6 243d
00000270: 8720 0cbd af4c 7d3d b59b 683d c3e9 b23d
00000280: 8cba 07bd 5dad 57bd 23c6 7dbb 96c2 333d
00000290: d267 f2bc 9910 323d b8ad 11bd 4ad4 99bd
000002a0: 1e7d fabc 2706 973d 5ebd 3abb 0c8f fabc
000002b0: c86a 1c3d 46b4 9bbd b489 be3d be51 b43b
000002c0: 2e9f 87bd 1cf5 823d 7a40 873b 20c4 723d
000002d0: 02df 58bb f17c 32bd da16 4d3c 9578 e43c
000002e0: 8cb1 3abb 5d41 29bc 5434 b7bb a6f7 333d
000002f0: d2e8 1b3d c70d 90bd 4768 fabb 3b7f 29bc
00000300: cb88 e23c a99a 7a3d b866 a73c 3704 66bd
00000310: 2ff8 09bc fa37 95bd 0082 bb3d 2b09 57bd
00000320: 3b43 aabd c20e 8fbd 04d8 40bd 242c bc3d
00000330: 974c 5bbd 0411 b2bb 306c a83d 3ea7 a73d
00000340: e9af e73c c7bb ad3d 9d92 b13d b23d 6abd
00000350: 0673 823d 3a52 c4bc f07b 73bd 7be9 adbd
00000360: 369a 433d 1f5f 8b3b 0671 9e3d f845 8e3d
00000370: 19ba a4bc 058b 963d 8628 a93c 9607 873d
00000380: c918 8b3d 0541 a1bc 3968 473c 62af 8b3d
00000390: 3337 4abc 078b 973d f0f5 a03d ad1c 033d
000003a0: 8fa3 5a3d 8c12 ab3d f70f 423d 988c 883d
000003b0: d6e3 13bd f76b 003d fcd5 ecbb 6a9b bb3d
000003c0: 8d9c 273c ba16 bd3d d610 00bd ff3b a1bd
000003d0: a31b 9cbd 47f6 753c a704 85bb a7bf 7c3c
000003e0: 43ad 53bd a0aa 30bd 10f2 323d d6b8 b73d
000003f0: b944 23bd 8506 113d 7cbb 3ebd b373 8cbc
0.07514997 -0.07037036 -0.023802087 0.049694665 0.050920118 0.01730804 -0.038711295 -0.08648798
0.043700777 -0.013786809 0.052346654 0.055347916 -0.06598322 0.052150577 0.09777428 -0.0339181
-0.013381862 0.025885662 0.0035080372 0.018657174 0.049577504 0.013744899 0.014993608 0.084900714
0.012301552 -0.030962573 0.05379135 0.07794726 -0.045774687 -0.01914705 0.026541676 0.046670508
0.04467959 0.08041056 0.041283544 -0.00971624 -0.022569269 -0.06294291 0.044730432 0.08587908
-0.01130338 0.06784637 -0.018318823 -0.062236045 0.07926838 0.015994912 0.0029882716 0.06405077
-0.026127059 0.04970612 0.05943333 0.040007688 -0.036083497 0.04085682 0.037102118 0.062403925
-0.06568826 -0.07885344 0.016689016 0.054440226 0.08656368 -0.025433697 -0.056417424 0.09866774
0.033150285 -0.036221836 0.06871074 0.022544255 -0.01293402 -0.05250309 -0.06337574 0.016577257
0.027804498 0.007530391 0.034476645 0.032250237 -0.065449156 0.028101617 -0.05124255 0.043902125
-0.0025752701 -0.06233162 0.083372414 0.015477023 0.08648854 0.018658934 -0.02573457 -0.010568861
0.050971184 0.033804942 -0.017442606 -0.010862175 0.014093899 0.088513985 -0.04940325 0.022608025
-0.025239527 -0.07101367 -0.0173862 -0.07771598 0.052047074 -0.08072447 0.045820314 0.027101375
0.032309916 -0.05789434 -0.081190504 0.069272324 -0.031963795 -0.012380917 -0.015567142 -0.0619617
0.07056045 0.09696137 -0.031078253 -0.017046189 -0.065889 -0.047100686 -0.071466595 -0.05119211
-0.027050687 0.003908543 0.012008133 0.027166283 0.041313674 0.047709454 0.06687099 0.019723998
-0.05984732 0.020278858 -0.023865875 -0.06287359 -0.014491629 -0.04654004 -0.058733035 -0.03588293
-0.07282495 -0.047494624 0.056840215 -0.0018692445 -0.033252373 -0.0019615476 0.07957562 0.05196832
-0.022154167 -0.06171165 0.009239158 -0.01004909 -0.023170533 0.0014010319 0.035139427 -0.015715433
-0.01142389 0.053224653 0.05757201 0.04024392 -0.034210708 0.06184071 0.05678912 0.08735993
-0.03313689 -0.052655566 -0.0038722835 0.043886743 -0.029590521 0.04347286 -0.03556606 -0.07511194
-0.030577239 0.0737422 -0.002849422 -0.030585788 0.038187772 -0.07602744 0.093036085 0.0055029085
-0.06622158 0.06394407 0.0041275593 0.05926907 -0.0033091907 -0.043576185 0.012517655 0.02788953
-0.0028487174 -0.010330525 -0.005590955 0.043937348 0.03806383 -0.07033878 -0.0076418254 -0.0103452755
0.027653119 0.06118265 0.020434722 -0.056156363 -0.008420988 -0.07286067 0.09155655 -0.052498978
-0.083136044 -0.06985237 -0.04708101 0.09188107 -0.05353984 -0.0054341573 0.0822376 0.08186196
0.028282123 0.08483081 0.086705424 -0.057187743 0.06369595 -0.02396499 -0.059444368 -0.084917985
0.04775449 0.0042532827 0.07736401 0.06946939 -0.02010827 0.073507346 0.020649206 0.06593244
0.06791837 -0.019684324 0.012170845 0.06820561 -0.012342262 0.07399564 0.07859409 0.03200977
0.053378638 0.08353147 0.047378507 0.06667441 -0.036105953 0.031352963 -0.0072276574 0.09160502
0.010230196 0.092328504 -0.031266056 -0.078727715 -0.07622459 0.01501233 -0.0040593925 0.015426553
-0.051678907 -0.04313147 0.04368788 0.089708015 -0.03986046 0.035406608 -0.046565518 -0.017145013

layer3.bias f4 [4]
00000000: b8f2 82bd 916c 5f3c ee31 a63b c655 c23d
-0.06393951 0.013636724 0.00507187 0.09489016
