models/policy_net2.pth (torch, 75888 bytes, 6 tensors)

layer1.weight f4 [128, 9]
0.23971534 0.1615683 0.012278219 0.17723125 0.2700649 0.120990366 0.15580726 -0.1233608
-0.2660282 0.10546557 -0.14769626 0.22306326 0.3105324 0.09931967 0.24568872 -0.1660622
0.029966071 -0.1813818 0.29361787 -0.18503371 -0.0039690933 -0.028349126 0.0016442847 0.29801467
0.07497026 -0.3093431 -0.19101103 0.0013727059 0.24458808 -0.14086273 0.31865567 0.18662235
-0.02989695 0.07606728 0.17828292 -0.09660008 -0.20072916 -0.0013854471 0.26764023 -0.03305913
-0.2535517 0.19716974 -0.20469101 0.3267966 -0.22849683 0.25978732 0.23323658 -0.3249569
-0.07835723 -0.22955303 -0.06383788 -0.025860716 -0.19497703 0.25697196 0.29129755 0.31799486
-0.28260496 0.0029731933 -0.21737923 -0.08867763 -0.08741706 0.29171684 -0.090302564 -0.20532176
0.09491306 0.29808128 0.16892815 0.16430303 0.34681296 -0.1143094 0.34863004 0.22262704
0.3056865 0.33569708 0.33634418 0.13879031 0.012902719 0.15093285 -0.18307026 -0.11453452
-0.27335253 -0.3276421 0.059713632 -0.23349611 0.105020985 -0.26471338 -0.10754246 0.094863914
-0.24314548 -0.27638966 0.1975617 0.22079246 0.24031813 -0.12301282 0.19604619 0.3120963
0.092158385 0.12774606 0.26655248 0.11782244 0.21198732 0.1458495 0.18933962 0.093498155
0.2983597 -0.10722454 0.056552794 -0.04928499 0.02127376 0.22071074 0.147585 0.28955698
-0.1713429 0.0056461142 0.20980921 -0.22137457 0.1323643 0.2826657 0.24278066 0.051988106
0.21449329 -0.29626527 0.0059792898 -0.010712208 0.08424757 0.10282821 -0.15045792 -0.3296493
0.24046627 -0.2028133 0.010018812 0.055394907 -0.3259795 0.10722018 -0.25379488 -0.32607833
0.034570616 0.33095622 -0.279257 0.0016144824 -0.23789704 -0.283329 0.19949067 0.23925814
0.039318774 -0.113878585 -0.22477973 -0.1803932 0.11299688 -0.25989202 -0.13196406 -0.15730351
0.01001759 -0.03555941 0.06449672 -0.16609687 -0.050764628 -0.1555456 -0.14506055 -0.2628693
-0.16872868 -0.25866422 0.17945199 0.0033359795 0.069516614 -0.016608695 -0.07768576 0.07266142
0.10532195 0.3028729 -0.115340315 0.014847323 -0.087499574 -0.29730386 -0.30024904 0.1362677
0.23296645 -0.25154406 -0.12526561 -0.32084218 0.015782118 0.31703392 -0.30371305 0.35216057
0.25517473 -0.106145196 0.17605868 0.14081039 0.2824516 0.35434046 0.08570786 0.19463074
-0.26419583 0.27808902 -0.005517023 0.007856252 0.282689 0.15591928 -0.13100025 -0.2033937
-0.31736752 -0.32340297 0.2684908 -0.28031635 0.07175623 -0.31017625 0.2433212 -0.29512954
-0.32757655 -0.042693183 -0.23055279 -0.24664406 0.16343524 0.0025829861 0.07602568 -0.2946233
-0.1524445 0.16204652 0.14920975 0.23009382 0.08388707 0.07047449 -0.24014358 -0.12658723
-0.030957974 -0.23559985 -0.20557971 0.04793757 0.31903666 -0.29655328 -0.13542625 0.021057379
-0.27069727 0.25666845 -0.07751427 0.20039284 -0.21495335 -0.30833775 -0.10355914 -0.15024632
-0.0037864118 0.12340545 -0.090085536 -0.31096128 0.32090858 -0.1863698 0.112733826 -0.16032445
-0.05018669 0.18100737 0.08952866 0.33852533 0.16814058 -0.04651823 0.108456254 -0.12382331
00000000: f077 753e 2972 253e 952a 493c 1c7c 353e
00000010: f245 8a3e ccc9 f73d f08b 1f3e 96a4 fcbd
00000020: d934 88be 55fe d73d b03d 17be b26a 643e
00000030: 1afe 9e3e 1c68 cb3d d395 7b3e 360c 2abe
00000040: 687b f53c 27bc 39be 1555 963e 7a79 3dbe
00000050: 2b0f 82bb 6d3c e8bc 0a85 d73a 6195 983e
00000060: 028a 993d 3862 9ebe 6598 43be 5eec b33a
00000070: 4c75 7a3e 523e 10be d626 a33e ee19 3f3e
00000080: 73ea f4bc 29c9 9b3d cc8f 363e 43d6 c5bd
00000090: f28b 4dbe e497 b5ba 2408 893e 0369 07bd
000000a0: 87d1 81be dde6 493e 859a 51be e251 a73e
000000b0: 13fb 69be d802 853e 92d5 6e3e c060 a6be
000000c0: c179 a0bd f30f 6bbe 6fbd 82bd dad9 d3bc
000000d0: 0fa8 47be d491 833e f424 953e 39d0 a23e
000000e0: 99b1 90be e8d9 423b a998 5ebe 9e9c b5bd
000000f0: b707 b3bd e95b 953e 8df0 b8bd de3f 52be
00000100: c761 c23d 1c9e 983e 80fb 2c3e 0e3f 283e
00000110: 7891 b13e 0c1b eabd a37f b23e 58f8 633e
00000120: f182 9c3e 7de0 ab3e 4e35 ac3e 0c1f 0e3e
00000130: ed65 533c 248e 1a3e c576 3bbe 1391 eabd
00000140: ddf4 8bbe b5c0 a7be 4896 743d 9b19 6fbe
00000150: 3e15 d73d 8388 87be 393f dcbd 0348 c23d
00000160: 21fb 78be f282 8dbe 9d4d 4a3e 6b17 623e
00000170: f515 763e 25ee fbbd 55c0 483e 16cb 9f3e
00000180: 89bd bc3d ddcf 023e 9179 883e e44c f13d
00000190: 3413 593e 9259 153e 3fe2 413e f67b bf3d
000001a0: 9ac2 983e 8a98 dbbd e7a3 673d 0fdf 49bd
000001b0: 4f46 ae3c ff01 623e 8620 173e d040 943e
000001c0: 8374 2fbe 0a03 b93b 3ad8 563e 04b0 62be
000001d0: 828a 073e 8fb9 903e 7e9b 783e 7bf1 543d
000001e0: 21a4 5b3e 15b0 97be ebed c33b 4282 2fbc
000001f0: fd89 ac3d 9997 d23d a411 1abe cbc7 a8be
00000200: ca3c 763e 4aae 4fbe f125 243c c5e5 623d
00000210: c9e6 a6be 4196 db3d 67f1 81be bdf3 a6be
00000220: eb99 0d3d 1873 a93e c6fa 8ebe 0a9d d33a
00000230: 489b 73be 8010 91be 4847 4c3e 1600 753e
00000240: b90c 213d 2d39 e9bd a82c 66be ffb8 38be
00000250: e96a e73d 9110 85be 9621 07be 2c14 21be
00000260: d120 243c bea6 11bd db16 843d 4c15 2abe
00000270: 92ee 4fbd 5947 1fbe c18a 14be ce96 86be
00000280: 36c7 2cbe a36f 84be 43c2 373e 73a0 5a3b
00000290: ba5e 8e3d f50e 88bc b619 9fbd 83cf 943d
000002a0: 09b3 d73d 2812 9b3e 8b37 ecbd 3042 733c
000002b0: fa32 b3bd 3638 98be 3eba 99be c389 0b3e
000002c0: c28e 6e3e 62ca 80be a145 00be 6d45 a4be
000002d0: 8049 813c 4552 a23e 4780 9bbe 644e b43e
000002e0: 43a6 823e a762 d9bd ba48 343e 9930 103e
000002f0: 7f9d 903e 1d6c b53e 9a87 af3d 484d 473e
00000300: ad44 87be af61 8e3e 25c8 b4bb 82b7 003c
00000310: 9dbc 903e 4ea9 1f3e ee24 06be 7046 50be
00000320: ff7d a2be 1395 a5be a077 893e a085 8fbe
00000330: eef4 923d 6ccf 9ebe 3129 793e 381b 97be
00000340: 1db8 a7be 0cdf 2ebd 0816 6cbe 4390 7cbe
00000350: 915b 273e 5147 293b 5ab3 9b3d ddd8 96be
00000360: 691a 1cbe 86ef 253e 71ca 183e b79d 6b3e
00000370: fccc ab3d ee54 903d 33e8 75be 15a0 01be
00000380: 949b fdbc 1641 71be 7d83 52be 2f5a 443d
00000390: c658 a33e d5d5 97be 2ead 0abe 8680 ac3c
000003a0: d598 8abe 0c6a 833e cdbf 9ebd c833 4d3e
000003b0: bb1c 5cbe 72de 9dbe d016 d4bd 2cda 19be
000003c0: 7325 78bb ffbb fc3d c47e b8bd 5136 9fbe
000003d0: 214e a43e bad7 3ebe fee0 e63d 182c 24be
000003e0: 8f90 4dbd ff59 393e cd5a b73d 3153 ad3e
000003f0: 0b2d 2c3e e689 3ebd 501e de3d 1397 fdbd

layer1.bias f4 [128]
-0.05470486 -0.11189916 -0.3093827 0.2017068 -0.0024792443 -0.31612256 -0.2776072 0.23636848
-0.2174628 -0.21444078 0.18980421 0.19237305 0.14578925 0.18515463 -0.24328677 0.21204966
0.22334205 -0.27057144 0.1294514 0.18281612 -0.09915633 -0.2803547 -0.10739615 0.18115363
-0.11155637 -0.14180404 -0.24631056 0.2729803 0.035681345 -0.29253912 0.018338542 -0.24833371
-0.25089684 -0.06303375 0.26540047 -0.06419223 -0.1800576 0.010294503 0.2634318 0.14908773
-0.22058862 -0.24759333 0.005634736 -0.0019640333 0.2538308 -0.22624461 0.14773475 0.0035668425
0.020835808 -0.11306244 -0.016224494 0.2014893 0.23711005 -0.045753237 -0.21994801 -0.10337615
-0.023821816 0.17653991 -0.3225668 -0.05051271 -0.052717634 0.0047418764 0.11714124 -0.3262895
-0.17025383 -0.2978083 0.16952345 -0.13753653 0.08408094 0.305544 0.015600532 0.04959691
0.007833402 0.26819336 -0.07337774 -0.13098785 -0.22749211 0.31964663 -0.015067445 -0.15754935
-0.23289081 -0.24913795 0.27620983 -0.15206379 0.26363945 -0.08777729 0.019473912 -0.105902
0.027003432 -0.115932845 -0.034765646 -0.12520504 0.19135715 -0.05787215 -0.030676728 0.020994645
-0.07186476 0.14822486 0.062106322 -0.21451244 0.028603166 -0.01807594 0.18074515 0.028655335
0.051726587 0.02692231 0.27727446 -0.1981082 -0.16647099 -0.23535936 -0.28051186 0.05460616
0.10170705 0.049780928 0.22597711 -0.16363493 0.24578992 -0.09600597 0.17400262 0.23336777
0.049649604 -0.14769277 0.2275774 -0.12258707 -0.2831079 0.16138278 0.17165606 0.043457784
00000000: 3412 60bd 632b e5bd 6967 9ebe 3a8c 4e3e
00000010: d17a 22bb d1da a1be 8822 8ebe 940a 723e
00000020: 91ae 5ebe 5d96 5bbe 095c 423e 71fd 443e
00000030: c749 153e 2d99 3d3e 2b20 79be 8c23 593e
00000040: c7b3 643e 5788 8abe e88e 043e 2634 3b3e
00000050: 7912 cbbd a78a 8fbe 83f2 dbbd 5680 393e
00000060: ab77 e4bd 1435 11be d638 7cbe 13c4 8b3e
00000070: 9a26 123d b0c7 95be b63a 963c 314b 7ebe
00000080: 8d75 80be d717 81bd 92e2 873e 3777 83bd
00000090: 0561 38be 46aa 283c 88e0 863e 74aa 183e
000000a0: fce1 61be 1b89 7dbe 97a3 b83b 03b7 00bb
000000b0: 1cf6 813e abac 67be c747 173e b0c1 693b
000000c0: dbaf aa3c 488d e7bd 3be9 84bc 3653 4e3e
000000d0: facc 723e bf67 3bbd 0d3a 61be e0b6 d3bd
000000e0: f825 c3bc e1c6 343e 7a27 a5be 6ae6 4ebd
000000f0: 72ee 57bd be61 9b3b bfe7 ef3d 6b0f a7be
00000100: 0557 2ebe 547a 98be 8e97 2d3e 60d6 0cbe
00000110: a132 ac3d 4370 9c3e 6099 7f3c 2126 4b3d
00000120: ab57 003c a450 893e 1247 96bd ae21 06be
00000130: b1f3 68be b9a8 a33e 72dd 76bc 9e54 21be
00000140: ee7a 6ebe 051e 7fbe 606b 8d3e 9cb6 1bbe
00000150: c0fb 863e 94c4 b3bd c187 9f3c 26e3 d8bd
00000160: 4d36 dd3c 336e edbd 6c66 0ebd c035 00be
00000170: 21f3 433e 590b 6dbd c34d fbbc f6fc ab3c
00000180: d52d 93bd 42c8 173e 3363 7e3d 26a9 5bbe
00000190: 3051 ea3c fe13 94bc 4215 393e 98be ea3c
000001a0: 42df 533d 2d8c dc3c ebf6 8d3e e0dc 4abe
000001b0: 5f77 2abe 0b02 71be 409f 8fbe b5aa 5f3d
000001c0: c94b d03d 16e7 4b3d 8b66 673e ea8f 27be
000001d0: 5ab0 7b3e c79e c4bd be2d 323e f6f7 6e3e
000001e0: 625d 4b3d c63c 17be 0d0a 693e ee0e fbbd
000001f0: 85f3 90be 8741 253e 9bc6 2f3e ca00 323d

layer2.weight f4 [128, 128]
0.068717614 0.039662626 0.028910331 -0.03220296 -0.0019679393 0.036246344 0.06592406 0.020357678
0.016511163 0.074531786 -0.08152026 -0.07388557 0.043547444 0.008144329 -0.00833224 0.014256723
0.034236033 0.08539354 0.004751011 -0.017765347 0.02539153 0.004962065 0.039214548 0.013652598
0.0034500875 -0.02303019 -0.08704137 -0.06945991 0.06370053 -0.06673989 0.035423324 -0.017843623
0.04378847 0.0051191826 0.06522925 0.011431914 -0.050622802 -0.061011735 -0.018931169 -0.009398488
0.017422276 0.071064524 0.08198443 0.0005397747 0.0001102716 -0.009735287 0.0536001 -0.087460235
-0.035286848 0.017410735 -0.024006164 -0.062261183 0.006602873 0.04000477 -0.009975926 0.00094838085
-0.0012057647 -0.06756061 -0.0046689278 0.02091905 -0.07347753 0.036089957 0.028654687 0.037668765
0.04124288 -0.082357354 0.039226066 -0.001239488 0.008314173 0.08492849 0.07272669 0.021259509
-0.005579071 0.025947269 0.07359246 -0.04984566 -0.05593669 0.05685149 -0.08694244 -0.0255736
-0.047749247 0.086742066 0.0695336 0.084635295 0.07050016 0.0668965 -0.07394825 -0.035591476
0.064925805 0.07838258 0.0007915577 -0.08587101 0.038269937 -0.011678799 -0.07650587 -0.06067152
0.017067818 -0.065472975 0.00026990598 0.010179327 0.040972035 0.06144469 0.035442315 0.0133102685
-0.08150295 -0.05559446 0.08799874 0.009415543 -0.07889562 -0.066764124 0.020027542 -0.016272983
0.009530289 -0.08662164 0.0739819 -0.0027954439 0.0848813 -0.065497674 -0.07781663 -0.008653167
0.046978537 -0.055735502 0.012629034 0.05355295 -0.0766507 -0.038407907 0.057407953 0.00018281663
-0.031643555 -0.07074669 -0.08279309 -0.046595912 0.021203853 0.051856503 0.008841379 -0.06655189
0.03404774 0.085745014 -0.025545392 0.00019676998 0.0069114626 -0.0808248 0.060188778 -0.00694467
0.07077748 -0.086007 -0.029887524 0.017365588 0.04601455 0.02893798 0.058697067 -0.046155717
-0.03821714 -0.017002894 -0.06183357 -0.028658219 -0.008402514 0.07302136 0.08474941 -0.011023801
0.003066247 0.061412353 -0.08399574 -0.003544531 -0.030714968 -0.044904154 0.0778503 -0.029601455
0.08432938 0.07114863 -0.08083544 0.07093205 -0.02980043 0.025054175 0.030063085 0.067822635
0.01741923 -0.0061755064 0.036796898 -0.052164376 -0.053719968 -0.07445803 0.06312424 0.018764835
-0.039262533 0.013556388 0.04523339 0.049397085 -0.06713102 0.022531189 -0.044107653 0.07317578
0.051389754 0.049340773 0.0015181069 0.04314349 -0.033592954 -0.046161745 -0.0427561 -0.061505962
-0.04246719 0.05416126 0.0478199 -0.062914714 0.033744965 -0.031669613 0.050054163 0.061462197
-0.028605536 -0.03305717 -0.048260912 -0.013841097 -0.08080171 -0.040183283 -0.07346031 -0.01733688
-0.051732562 -0.03736214 0.063746795 0.062278725 -0.03526545 0.07353709 -0.01510223 0.0027847597
0.0053470675 -0.0054179523 -0.06372993 -0.071913585 -0.06267613 0.08366196 -0.04183681 -0.057679478
0.064464405 0.08045134 -0.006322001 0.022133008 -0.043741923 -0.012191421 -0.007168755 0.060079895
0.050554395 0.02511667 0.0413119 0.06233975 -0.005064391 -0.050190724 0.06669259 -0.03820755
-0.043208577 -0.06470657 0.057297908 -0.0751186 -0.003864125 0.026890786 0.082282364 0.054997783
00000000: d2bb 8c3d 4775 223d 5cd5 ec3c 40e7 03bd
00000010: 8bf8 00bb 0c77 143d 3203 873d 25c5 a63c
00000020: 6b42 873c 1fa4 983d 18f4 a6bd 5151 97bd
00000030: ce5e 323d cb6f 053c f383 08bc 0895 693c
00000040: 153b 0c3d cfe2 ae3d 5eae 9b3b a288 91bc
00000050: e601 d03c d198 a23b 6f9f 203d 25af 5f3c
00000060: dd1a 623b cfa9 bcbc bf42 b2bd ff40 8ebd
00000070: 6c75 823d ecae 88bd 0c18 113d ca2c 92bc
00000080: 8a5b 333d d1be a73b ea96 853d ec4c 3b3c
00000090: db59 4fbd 71e7 79bd 8a15 9bbc 1efc 19bc
000000a0: 29b9 8e3c 478a 913d 74e7 a73d ab7f 0d3a
000000b0: 9d41 e738 c180 1fbc c78b 5b3d 5a1e b3bd
000000c0: f188 10bd f5a0 8e3c 93a8 c4bc 9505 7fbd
000000d0: ea5c d83b 0bdc 233d 1172 23bc c39c 783a
000000e0: c00a 9eba 385d 8abd cefd 98bb 6d5e ab3c
000000f0: 637b 96bd 10d3 133d 3cbd ea3c 904a 1a3d
00000100: 4bee 283d f9aa a8bd 83ab 203d 5176 a2ba
00000110: 2b38 083c fdee ad3d bbf1 943d 6c28 ae3c
00000120: a4d0 b6bb 5e8f d43c a5b7 963d f62a 4cbd
00000130: df1d 65bd 1cdd 683d e10e b2bd ba7f d1bc
00000140: b794 43bd d3a5 b13d a267 8e3d 4555 ad3d
00000150: 6362 903d 0801 893d 2e72 97bd 5ec8 11bd
00000160: d2f7 843d 0c87 a03d 8a80 4f3a 24dd afbd
00000170: f0c0 1c3d 6f58 3fbc 1caf 9cbd b382 78bd
00000180: cfd1 8b3c b216 86bd 2b82 8d39 31c7 263c
00000190: 4bd2 273d 6dad 7b3d f62b 113d 5013 5a3c
000001a0: 05eb a6bd 04b7 63bd af38 b43d a643 1a3c
000001b0: 0794 a1bd a1bb 88bd cd10 a43c eb4e 85bc
000001c0: ee24 1c3c b066 b1bd d383 973d c433 37bb
000001d0: 3fd6 ad3d a523 86bd 535e 9fbd 03c6 0dbc
000001e0: 916c 403d e94a 64bd 02ea 4e3c 575a 5b3d
000001f0: 0bfb 9cbd 9c51 1dbd 9a24 6b3d 77b2 3f39
00000200: ac9c 01bd a4e3 90bd 6c8f a9bd 5bdb 3ebd
00000210: b4b3 ad3c 7c67 543d 6edb 103c 5b4c 88bd
00000220: a575 0b3d 159b af3d 9244 d1bc 0a54 4e39
00000230: 8d79 e23b 7987 a5bd 8288 763d 1d90 e3bb
00000240: c9f3 903d 7024 b0bd aed6 f4bc 4742 8e3c
00000250: c179 3c3d 580f ed3c 566c 703d c70d 3dbd
00000260: 9389 1cbd a749 8bbc 3345 7dbd a4c4 eabc
00000270: b3aa 09bc 398c 953d 1991 ad3d 2c9d 34bc
00000280: 17f3 483b 858b 7b3d f505 acbd 5d4b 68bb
00000290: f59d fbbc 6bed 37bd fa6f 9f3d c07e f2bc
000002a0: e2b4 ac3d 5fb6 913d 0d8d a5bd d344 913d
000002b0: 0820 f4bc 6a3e cd3c dc46 f63c 98e6 8a3d
000002c0: c6b2 8e3c e75b cabb 58b8 163d 50aa 55bd
000002d0: 7809 5cbd 747d 98bd 4847 813d b6b8 993c
000002e0: c0d1 20bd 9d1b 5e3c a646 393d 9954 4a3d
000002f0: fd7b 89bd 5493 b83c 3aaa 34bd 2fdd 953d
00000300: 107e 523d 8d19 4a3d 37fb c63a 3ab7 303d
00000310: c498 09bd 1914 3dbd 0521 2fbd aded 7bbd
00000320: 14f2 2dbd 33d8 5d3d cdde 433d 6ed9 80bd
00000330: 2938 0a3d ffb7 01bd 9805 4d3d c9bf 7b3d
00000340: 2856 eabc f566 07bd 3cad 45bd c5c5 62bc
00000350: 5e7b a5bd 3a97 24bd 5c72 96bd 1306 8ebc
00000360: 86e5 53bd 0b09 19bd ae8d 823d fa17 7f3d
00000370: 8172 10bd 9d9a 963d 586f 77bc 8480 363b
00000380: 7436 af3b 1489 b1bb d684 82bd 6e47 93bd
00000390: 585c 80bd f656 ab3d 135d 2bbd 5141 6cbd
000003a0: ea05 843d acc3 a43d ca28 cfbb 4850 b53c
000003b0: bb2a 33bd 87be 47bc e0e7 eabb 5616 763d
000003c0: 2012 4f3d 7ac1 cd3c ab36 293d f757 7f3d
000003d0: 31f3 a5bb ca94 4dbd 2096 883d 857f 1cbd
000003e0: 7afb 30bd e184 84bd 36b1 6a3d c8d7 99bd
000003f0: 433d 7dbb 114a dc3c a883 a83d 5b45 613d

layer2.bias f4 [128]
-0.019277355 0.06720324 -0.072957695 0.06294243 -0.08948608 -0.0010727136 -0.06793744 0.013021716
-0.07360164 -0.0051653017 0.022699729 0.047732744 0.09981584 0.025897581 0.037940085 -0.039514624
0.060403563 -0.014792965 0.029104557 -0.07968523 0.07552222 -0.044880733 0.077681005 -0.06771649
-0.024668848 0.048377547 -0.0705405 0.051208954 -0.06971456 0.016453272 -0.03529512 0.04037963
-0.019804152 -0.07946938 -0.03541168 0.06655513 -0.019939328 0.10534825 -0.0032408172 0.032511912
-0.0028623564 -0.030519484 0.056518313 -0.008071644 0.03581926 0.051537905 0.042262405 0.0054792403
-0.0038157783 0.019047592 0.062065307 -0.043155666 -0.06689456 -0.03832258 0.042681374 -0.037388217
-0.0047589457 0.02523574 0.10317192 0.042281963 -0.05283447 0.08784147 -0.05382953 0.08391169
-0.07451606 -0.027277417 0.07473276 -0.0050529316 -0.04777888 -0.0545461 -0.056077473 -0.059211295
0.008220929 0.040442165 0.06796433 0.035984978 -0.07377872 -0.03987479 0.053283107 -0.011786117
-0.015700176 0.08453018 -0.04737957 -0.0010117119 -0.034697726 0.023378743 -0.05102799 -0.053812638
-0.080408394 0.016048556 -0.072374664 -0.042565115 -0.008057105 0.07193098 -0.031604927 -0.012652824
0.08167886 0.0059805023 -0.01664265 -0.006518279 -0.018045416 -0.013277981 0.010316127 -0.0048043644
-0.03031257 -0.01790068 0.08303031 0.07132476 -0.08880662 -0.010031135 0.032281492 0.056952816
-0.0038335223 -0.058993153 0.07388874 0.03288354 -0.08172052 0.057880662 -0.0044313744 0.03157485
0.018134145 -0.05207926 0.076235436 0.086739995 0.04145662 -0.060586847 -0.0557296 -0.05550669
00000000: 8beb 9dbc daa1 893d d86a 95bd f6e7 803d
00000010: 7a44 b7bd 4c9a 8cba c922 8bbd 0959 553c
00000020: 75bc 96bd b141 a9bb c8f4 b93c 6983 433d
00000030: 3f6c cc3d 2a27 d43c 1067 1b3d 16da 21bd
00000040: ba69 773d 315e 72bc ae6c ee3c 0332 a3bd
00000050: 65ab 9a3d dcd4 37bd 3817 9f3d f1ae 8abd
00000060: 5316 cabc 8927 463d 8a77 90bd 7bc0 513d
00000070: 82c6 8ebd 03c9 863c 9e91 10bd 1c65 253d
00000080: 513c a2bc d8c0 a2bd d60b 11bd 0e4e 883d
00000090: cd57 a3bc d3c0 d73d e463 54bb 362b 053d
000000a0: 5f96 3bbb ff03 fabc bf7f 673d ee3e 04bc
000000b0: 37b7 123d 6919 533d 581b 2d3d 338b b33b
000000c0: 2312 7abb b209 9c3c 3138 7e3d ffc3 30bd
000000d0: 0400 89bd 23f8 1cbd aad2 2e3d 6324 19bd
000000e0: eef0 9bbb 2fbb ce3c cd4b d33d da2f 2d3d
000000f0: f568 58bd 3be6 b33d 5a7c 5cbd e4d9 ab3d
00000100: e09b 98bd e474 dfbc 7d0d 993d 1093 a5bb
00000110: c9b3 43bd bb6b 5fbd 7eb1 65bd 8b87 72bd
00000120: 13b1 063c afa6 253d e230 8b3d fc64 133d
00000130: 4c19 97bd bf53 23bd 633f 5a3d 8f1a 41bc
00000140: a89d 80bc 291e ad3d 1411 42bd 6b9b 84ba
00000150: 341f 0ebd c784 bf3c ba02 51bd a46a 5cbd
00000160: 28ad a4bd 4378 833c 2b39 94bd c258 2ebd
00000170: f301 04bc 8d50 933d 2b74 01bd ca4d 4fbc
00000180: 3f47 a73d 17f8 c33b 2b56 88bc 4a97 d5bb
00000190: fbd3 93bc e48b 59bc f904 293c ee6d 9dbb
000001a0: 1152 f8bc 72a4 92bc cc0b aa3d b712 923d
000001b0: 3fe0 b5bd a159 24bc 9939 043d 5b47 693d
000001c0: d53b 7bbb cea2 71bd fb52 973d e4b0 063d
000001d0: 175d a7bd 4614 6d3d 1035 91bb a154 013d
000001e0: 0f8e 943c 1051 55bd 5321 9c3d bda4 b13d
000001f0: 6bce 293d ea29 78bd b944 64bd fc5a 63bd

layer3.weight f4 [4, 128]
-0.011007089 -0.08267873 -0.07975243 0.07488499 -0.029941948 0.04331604 0.017381867 0.087869614
-0.08732294 -0.06194171 0.05202067 -0.026947172 -0.04205184 0.037030492 -0.017205585 -0.006934038
-0.062176 0.08300239 0.04147767 -0.070218906 -0.062478483 -0.00839113 -0.057224218 0.04991831
-0.045622125 -0.04714404 -0.050659865 0.056180883 -0.054682 0.04624412 0.058491863 -0.06774311
-0.00022163098 0.10333975 -0.08749901 0.018621812 0.022681199 0.04476395 -0.06337751 0.08844254
0.016926222 0.03625399 -0.024851803 0.09757909 -0.06707021 0.013191005 0.01897047 0.04389628
-0.012817146 -0.051658783 0.02227138 0.0702771 -0.062207874 0.06096569 -0.00034761347 0.056359254
-0.04563026 0.042140007 0.09115316 0.01020711 0.017335428 0.087630235 0.019241484 0.098607175
0.06529909 0.059266318 -0.08355708 -0.0394723 -0.0052915756 0.09186077 0.05864892 -0.036657695
0.030389523 0.0076364814 -0.045913454 -0.07177044 0.036475852 -0.036239136 -0.04988109 0.026385088
0.079390034 0.056342058 0.04381966 0.0801999 0.02381116 0.038413122 0.0151275 -0.06688584
-0.074424535 0.076848805 -0.037388712 -0.055564094 0.04192334 0.07707165 -0.059249133 0.06954451
-0.0020949466 -0.03915801 -0.05163262 0.03221065 -0.048795994 -0.0053687487 -0.038089383 0.062340803
-0.05497031 0.08552567 -0.0323459 -0.031032873 0.06571635 0.08334769 -0.018911768 -0.067887954
0.06874975 -0.06287285 -0.08741288 0.062730715 -0.0442947 0.081324905 -0.0073805167 -0.061897356
-0.039544065 0.069766276 -0.039883714 -0.07466717 0.06560664 0.0601997 -0.027884224 -0.0025471875
0.00084147026 -0.012974041 -0.04206336 0.042525478 -0.009480611 0.029142853 0.000734664 0.09490093
0.04473301 0.018239032 0.06810799 0.006041434 0.09158339 0.04089309 -0.018375397 0.0069354684
0.08279976 -0.051982556 -0.043323737 0.061801303 -0.08375563 0.02434547 -0.07605818 -0.04062447
0.040171396 -0.04427018 -0.07987415 -0.0063385195 -0.035933696 -0.07677091 0.08499972 -0.020754924
-0.027880138 -0.0516439 -0.008526201 -0.074696735 -0.045371596 0.08615722 -0.04635656 0.009792751
-0.015009413 -0.08039008 0.020365888 -0.035643205 0.10417923 0.029761098 -0.05856251 0.08285015
-0.07764382 -0.068482794 -0.030693715 -0.030140985 0.09098209 -0.040524863 -0.068460815 -0.009474626
0.037074015 -0.006649954 0.029866444 -0.0079585565 0.08757614 -0.006147976 -0.021490969 -0.021258641
-0.068636745 -0.033120617 -0.01820122 0.021783188 -0.052873068 0.06419612 -0.05214083 -0.011636855
-0.069269486 -0.0132216755 -0.0049391245 -0.07676435 -0.08567793 -0.052320275 0.07976757 -0.076221466
0.019390913 -0.03563798 -0.033580802 0.030585853 0.035110734 -0.027332144 0.044095583 -0.045602478
0.086828284 0.084261164 -0.07024449 0.05646082 -0.0018308368 0.012654398 -0.052693795 0.03614617
-0.043646492 0.046522383 0.027959423 -0.036565553 -0.0677293 -0.06935521 0.031650435 0.014713436
-0.06988913 0.053042606 -0.0011654979 -0.037651446 -0.0469497 0.020398 -0.0675119 -0.061916113
-0.035897464 0.07275582 0.051852778 0.008021117 -0.03725402 0.040266197 0.044964626 -0.07173114
0.08804508 0.016153572 0.056347933 0.005621547 0.027066292 0.014999215 0.013171772 -0.074438035
00000000: 1457 34bc 7753 a9bd 3e55 a3bd 4d5d 993d
00000010: d148 f5bc 296c 313d 6b64 8e3c fcf4 b33d
00000020: 5fd6 b2bd 97b6 7dbd a013 553d 51c0 dcbc
00000030: 8d3e 2cbd 49ad 173d baf2 8cbc ed36 e3bb
00000040: 43ac 7ebd 28fd a93d 7de4 293d eece 8fbd
00000050: 70e9 7fbd f37a 09bc f163 6abd 2477 4c3d
00000060: 44de 3abd 1c1a 41bd b880 4fbd ed1d 663d
00000070: 3cfa 5fbd 796a 3d3d 2a95 6f3d e6bc 8abd
00000080: 9d65 68b9 caa3 d33d ae32 b3bd c58c 983c
00000090: eccd b93c 675a 373d 11cc 81bd 5d21 b53d
000000a0: dca8 8a3c 107f 143d 0296 cbbc 8cd7 c73d
000000b0: 1b5c 89bd 161f 583c f667 9b3c 96cc 333d
000000c0: 02ff 51bc 2998 53bd 7872 b63c 71ed 8f3d
000000d0: afcd 7ebd 29b7 793d e43f b6b9 f6d8 663d
000000e0: cce6 3abd 009b 2c3d 82ae ba3d b93b 273c
000000f0: 0703 8e3c 7b77 b33d 51a0 9d3c 8ff2 c93d
00000100: 88bb 853d 3dc1 723d f91f abbd b5ad 21bd
00000110: f464 adbb 8021 bc3d da39 703d 6126 16bd
00000120: 73f3 f83c 733b fa3b bf0f 3cbd 61fc 92bd
00000130: b467 153d 7d6f 14bd 1d50 4cbd 8a25 d83c
00000140: 3e97 a23d eec6 663d 3e7c 333d d83f a43d
00000150: 9f0f c33c 1457 1d3d 55d9 773c 71fb 88bd
00000160: e46b 98bd e862 9d3d e824 19bd 2d97 63bd
00000170: cfb7 2b3d bed7 9d3d 38af 72bd 5a6d 8e3d
00000180: 5f4b 09bb 2664 20bd ba7c 53bd 51ef 033d
00000190: 4fde 47bd 54ec afbb 9d03 1cbd 1259 7f3d
000001a0: 8c28 61bd 1528 af3d 227d 04bd a738 febc
000001b0: 4b96 863d 32b2 aa3d daec 9abc d708 8bbd
000001c0: abcc 8c3d 7bc3 80bd 8605 b3bd f678 803d
000001d0: 5c6e 35bd ac8d a63d 43d8 f1bb 1588 7dbd
000001e0: f5f8 21bd 9fe1 8e3d 1b5d 23bd 1aeb 98bd
000001f0: c65c 863d f693 763d 756d e4bc b7ee 26bb
00000200: 1d96 5c3a 1291 54bc a14a 2cbd 322f 2e3d
00000210: 9154 1bbc febc ee3c 7796 403a 6b5b c23d
00000220: f639 373d 066a 953c 347c 8b3d 39f7 c53b
00000230: 1390 bb3d 837f 273d 0088 96bc ed42 e33b
00000240: ec92 a93d a9eb 54bd 3b74 31bd 5d23 7d3d
00000250: 1288 abbd 2770 c73c 64c4 9bbd d865 26bd
00000260: c38a 243d a654 35bd 0f95 a3bd 5bb3 cfbb
00000270: 362f 13bd 113a 9dbd 5514 ae3d 3b06 aabc
00000280: e364 e4bc 8e88 53bd 7bb1 0bbc 9afa 98bd
00000290: 91d7 39bd 3273 b03d 60e0 3dbd c671 203c
000002a0: 0aea 75bc 8ea3 a4bd 5dd6 a63c 9cfe 11bd
000002b0: ec5b d53d 8ccd f33c 3edf 6fbd 57ad a93d
000002c0: b903 9fbd b540 8cbd 6371 fbbc 3aea f6bc
000002d0: d154 ba3d 66fd 25bd 2f35 8cbd 763b 1bbc
000002e0: ecda 173d dbe7 d9bb 79aa f43c 9b64 02bc
000002f0: 1f5b b33d f674 c9bb d40d b0bc 9a26 aebc
00000300: 6c91 8cbd 7ca9 07bd ba1a 95bc a872 b23c
00000310: 6e91 58bd 4179 833d 9f91 55bd 82a8 3ebc
00000320: 29dd 8dbd ba9f 58bc 61d8 a1bb a136 9dbd
00000330: e977 afbd c94d 56bd 2e5d a33d 001a 9cbd
00000340: b1d9 9e3c 21f9 11bd 068c 09bd 2f8f fa3c
00000350: 46d0 0f3d a9e7 dfbc 929d 343d aac9 3abd
00000360: 07d3 b13d 1e91 ac3d 58dc 8fbd 7643 673d
00000370: b0f8 efba 6454 4f3c 73d5 57bd 020e 143d
00000380: aac6 32bd 418e 3e3d 290b e53c c3c5 15bd
00000390: a9b5 8abd 1b0a 8ebd e3a3 013d a010 713c
000003a0: 0822 8fbd 3443 593d 9fc3 98ba 6738 1abd
000003b0: 544e 40bd b519 a73c ae43 8abd c09b 7dbd
000003c0: 3809 13bd 0101 953d 9463 543d 016b 033c
000003d0: ac97 18bd 2bee 243d d42c 383d c7e7 92bd
000003e0: fb50 b43d 7f54 843c 17cd 663d f434 b83b
000003f0: 21ba dd3c 44bf 753c 6ace 573c f872 98bd

layer3.bias f4 [4]
0.07062461 -0.05176105 -0.047042254 0.07321089
00000000: a3a3 903d 6503 54bd 61af 40bd 97ef 953d
