models/policy_net4.pth (torch, 75888 bytes, 6 tensors)

layer1.weight f4 [128, 9]
00000000: e945 a4be 8db3 47bd 3f3e 06be 758b 47bb
00000010: d535 83be fa42 a93e 37f2 9fbe 21b1 7c3d
00000020: abd2 7d3e 339d 99be 1701 933e c9db 633e
00000030: fea0 4c3d 689e 8abe 574c 0ebd 46e0 153e
00000040: c7c3 203e b768 113e 6b19 43be ba99 31be
00000050: e15c cabd b747 00be 5986 003d c04b 863e
00000060: 80ae 4b3e 577d 78be 0a9a 8ebe 714a 0cbc
00000070: a0cb 97be e95d 55be 1d11 40be c281 753e
00000080: aa0c 91bc 4965 603e 1148 2cbe 5d8a 90be
00000090: 366e 9cbe 8d44 ddbd 4016 84be ab8a 793e
000000a0: 7c4f 09be 9ea3 8fbd 0d12 83be 86ee 29be
000000b0: 2ab7 1b3e 6c9a 09be 066a 2cbe 54b2 8cbe
000000c0: 7346 8bbe f18e 023e ef83 89be 8184 623e
000000d0: 2754 e1bd 379c 38be 6572 c4bc d81d 113e
000000e0: 4133 8abd 3b6d 8abe 357f 45be 9858 8abe
000000f0: 444f 4b3e ec0f b83c 51d6 0abb e13e 293e
00000100: f890 86be aa11 39be d570 fcbd ba5b 31be
00000110: ae8b a8be fc9c 533e 9888 17be c6bd 75be
00000120: 4516 c43c 1ead 69be 4643 a33e 2cc4 8ebd
00000130: 216d 98be b516 fbbd 6616 a6be 6502 933e
00000140: a30e 88be 79c4 7abd e9ee 90be 4f7e 00be
00000150: 1ad9 6a3e c37a 6dbe 0ff7 a2be 9f83 78be
00000160: 9475 8cbe 7830 7fbd 66a2 a2be be16 cdbb
00000170: 4056 75be 4e4b 903d 9c4b 9e3e 2dec 243e
00000180: 84fd 96be 08a3 88be 4ee3 6d3e be69 d53b
00000190: 393a 0ebe 52d0 5bbe ada8 9ebe 099e febd
000001a0: 92aa 37be 3412 93be 5da3 5d3e ddd9 8cbe
000001b0: 1a52 593e 8afb 623d 2cc0 be3d 9e3c 3dbd
000001c0: bc26 97be ba55 3abd dc8f 353e 70f9 863e
000001d0: c9f2 04be e924 fe3d 4dc8 48bd ca15 a8be
000001e0: 912b 7bbd d830 8abe 15ca 3ebc f733 433e
000001f0: c00d 6ebe 288a 543e d9e4 4d3e cde1 93bd
00000200: e046 3b3e 8d04 d43c 47f6 953e 6e8a 3d3d
00000210: 729f 15be e3a9 dabd af1c 473d d065 93bd
00000220: be63 9c3e 5dd7 44be 83a6 6b3e adfc e33d
00000230: ac9a 4e3e f5fe f8bd cad9 113e a9ac 073e
00000240: 5c74 98be 4e9f 74be a476 9e3e 9c25 8cbe
00000250: 2494 38be 3a30 9cbd 4c16 2ebe b838 563e
00000260: 762c 26be de28 acbe ebc0 853e b82b 3fbd
00000270: 84be 013e 9240 623e 6bf2 81bd 0176 6ebc
00000280: 34f2 973e 39a1 9ebe b3c8 33bc 32b7 083e
00000290: 83ce 46be 7319 5abd b664 82be c9dc 9d3d
000002a0: 15b5 a23e 8775 093d dd75 88be baaf 873e
000002b0: 1eec 53be 8666 393e 0fea 9f3d 3591 8abe
000002c0: e30f 86be e9b2 4bbe f401 d5bd 05b2 fdbd
000002d0: 8c23 713e 2e21 97bd 37d5 14bd 8303 743d
000002e0: 3dbe 803e b7ab 8f3e 2008 e83b ff6c a0be
000002f0: 0d8e 2a3e c015 cbbd 095a 4cbe 7dbc a03e
00000300: 05f0 e2bc 4872 173e b1a4 a4be b489 663e
00000310: 865b 503e 07da 27be ae86 8a3e cbde 633e
00000320: 9e18 01be 4131 f13d 67dc d8bd e457 223e
00000330: 239c 843e d56f 9dbe 8da8 813e 044f 853e
00000340: 7d45 b3bd 4340 a03d 0291 583e 626c de3c
00000350: 208e 2c3e 82f2 043e fae4 a4be 0c84 733e
00000360: c897 8ebe 21ec a8bd fb88 2cbe 3d77 ccbd
00000370: 706b 18bc e30f 28bb a149 7a3e 9543 8b3e
00000380: 06e1 0bbe 4438 573e 22bb 9abd f31c c5bc
00000390: 48ac ba3c 19fb a63d a485 50be fa27 0c3e
000003a0: 27fb 083e d541 a4be 875c a2bd bed6 72be
000003b0: 201a 1cbe a29e 833e eb6f a6be 141a 2ebe
000003c0: 198e 24be 69d2 f9bc cbd2 3c3e a1b2 7cbe
000003d0: 5a30 cf3d f524 3fbe 1054 a83e 57d9 dfbd
000003e0: 1167 c33d 3d39 63be a3fd 22be 284d 133e
000003f0: d160 5f3e 7118 01bd db84 7b3e a126 a6be
-0.32084587 -0.048755217 -0.13109683 -0.0030448113 -0.25627008 0.33058912 -0.31239483 0.06169236
0.24787395 -0.30002746 0.2871177 0.2225181 0.04995822 -0.2707398 -0.034740772 0.14636335
0.15699683 0.14200102 -0.19052665 -0.17343798 -0.098809965 -0.12527357 0.031378124 0.26229668
0.19890785 -0.24266563 -0.27851897 -0.00856267 -0.2964754 -0.20836605 -0.18756528 0.2397528
-0.017706234 0.21913637 -0.16824366 -0.28230563 -0.30552834 -0.10804091 -0.25798225 0.24369304
-0.13409227 -0.070136294 -0.2559971 -0.16594896 0.1520659 -0.13437814 -0.1683732 -0.27479804
-0.27202186 0.1274984 -0.2685847 0.22120859 -0.11002379 -0.18028341 -0.023980329 0.1417154
-0.06748057 -0.2703646 -0.19286807 -0.27020717 0.19854456 0.02246853 -0.0021184871 0.16527893
-0.26282477 -0.18073145 -0.123262085 -0.17320147 -0.32919067 0.20665354 -0.147982 -0.23998174
0.0239364 -0.22819945 0.31887263 -0.069710106 -0.2977076 -0.122601904 -0.32438964 0.28712764
-0.26573667 -0.061222527 -0.28307274 -0.12548183 0.2293438 -0.23191361 -0.31829116 -0.2426896
-0.27433455 -0.062302083 -0.31764525 -0.0062588146 -0.23958683 0.07045613 0.3091706 0.16105719
-0.29490292 -0.26686883 0.23231241 0.0065128496 -0.13889398 -0.21466187 -0.30988064 -0.124324866
-0.17936161 -0.28724825 0.2164435 -0.27509966 0.21222726 0.055415668 0.093139976 -0.046200387
-0.2952174 -0.04549191 0.17730659 0.2636218 -0.1298324 0.12409384 -0.049019147 -0.32829124
-0.061320845 -0.2699039 -0.01164486 0.19062792 -0.23247433 0.20755827 0.2010683 -0.072208025
0.18288755 0.025881076 0.29289457 0.046274595 -0.14611605 -0.106769346 0.04861134 -0.071971536
0.30544847 -0.1922278 0.23012738 0.111321785 0.2017619 -0.12158004 0.14243236 0.13249458
-0.29776275 -0.23888895 0.3094989 -0.27372444 -0.18025261 -0.07626386 -0.17000693 0.20920074
-0.16227898 -0.3362493 0.26123747 -0.046672553 0.12670332 0.22094944 -0.06345066 -0.0145545015
0.29676974 -0.30982378 -0.010973143 0.13351133 -0.19414715 -0.053246927 -0.2546746 0.07708127
0.3177878 0.03355935 -0.26652423 0.26501256 -0.2069554 0.18105516 0.07808315 -0.2706391
-0.26183996 -0.19892468 -0.10400763 -0.1238747 0.23548716 -0.073793754 -0.03633615 0.05957366
0.2514514 0.28060696 0.0070810467 -0.31333157 0.1665575 -0.09916258 -0.1995622 0.31393805
-0.02770234 0.14789689 -0.321569 0.22513467 0.20347413 -0.16391765 0.27055877 0.22252958
-0.12607047 0.117769726 -0.105889134 0.1585384 0.25900373 -0.30749384 0.25323907 0.26036847
-0.08753488 0.07824757 0.21149066 0.02715129 0.16851091 0.12983134 -0.32205945 0.2378084
-0.27850175 -0.08248163 -0.16849129 -0.099836804 -0.009302959 -0.0025644235 0.2444215 0.27199998
-0.13660058 0.21017557 -0.07555224 -0.024061656 0.022787228 0.08153362 -0.2036348 0.13687125
0.13377057 -0.32081476 -0.079278044 -0.2371473 -0.15244341 0.25706965 -0.32507262 -0.17002136
-0.16069831 -0.03049584 0.18439786 -0.24677517 0.10116644 -0.18666442 0.32876635 -0.10930126
0.09541143 -0.22189803 -0.15917067 0.14384902 0.21814276 -0.03151745 0.24562399 -0.32451347

layer1.bias f4 [128]
00000000: 84fe 8dbe 450f ca3c b155 4fbe da75 92be
00000010: 9e59 29be 7237 693e 42e1 5abe 4143 a3be
00000020: a04f 873e 9873 82be 6081 0ebe cc11 32be
00000030: b4cc 7dbe 5230 b7bd a93a 1f3d 43b7 353e
00000040: 1a8a 143d 060f 963e e0a6 513b dc0c 783e
00000050: a75c f9bd d368 1e3e c16f 583e b566 0c3e
00000060: 31ac 593e c317 af3d 8843 b33d 49a1 1f3e
00000070: fe65 51bc 48a6 6bbe bd15 a23e 3144 9a3e
00000080: ac52 5dbe 1aa9 d0bd 757f 0fbe 9450 563e
00000090: 9d69 eb3d e08a 07be 8887 503e 76f8 a1be
000000a0: b5cc 63be 590a 053d 8d83 5d3e 7089 8d3e
000000b0: 4494 183e 0662 69be 10e1 543e 9fea 753d
000000c0: 7089 823e b91c 8bbe b2dd 9ebe 52b6 613e
000000d0: 218e 8abc 426c 3bbe acc1 893c 4fac f8bd
000000e0: ab2e 41be 8402 8dbe 8bdf a2be 799d 943e
000000f0: 8fbd 3a3d 8bc5 c6bd 35e2 b5bc b9ff c5bd
00000100: b11e 85be 610d 4ebe 2072 473e af33 89be
00000110: 80f6 e5bd 4c21 35bc b12a 773d ea09 473e
00000120: d8c3 00bc 73cc 883d c1bf 06be 850b c4bd
00000130: 11b1 a5be 1934 9d3e 746e 87be d364 d8bd
00000140: 7c1e 183e 8a18 a3bd a170 4fbe 0b12 5cbd
00000150: a6eb 6e3e 092f 003e acfd 373d 3c5b 463e
00000160: 99bf a23e 84d1 a13e 8bf0 7a3e 6220 1cbd
00000170: 7b44 3ebe ffa4 9dbb 4cb0 183d 2b55 0a3e
00000180: acfc f23d 3b16 6fbe d711 53bd 163b 383e
00000190: 9d11 223e e20f 6d3e 1488 d5bd b264 7fbe
000001a0: 97c4 c63d 4c09 8e3e 2303 10be c2e3 88be
000001b0: 1d72 8ebe 558f 263e 629f 8abd 4f21 7e3e
000001c0: 3f5c edbd 0801 ac3d 9de6 2abe bd87 e6bd
000001d0: 5ad1 5dbe da58 123c 1dc0 86bd 1001 8cbe
000001e0: 1e59 8fbd 1855 7b3e 2dc6 2b3e f908 2e3e
000001f0: 6a8d a63e cc55 a33e cf94 a2bd 097d 7fbe
-0.27733243 0.024665484 -0.20247532 -0.2860554 -0.16538092 0.22775057 -0.21374992 -0.31887248
0.26427937 -0.25478816 -0.1391654 -0.17389601 -0.2478512 -0.08944763 0.038874302 0.1774569
0.036264516 0.29308337 0.0031990334 0.24223655 -0.12175875 0.15469675 0.2113638 0.13711055
0.21257092 0.08549454 0.08753115 0.15588869 -0.0127806645 -0.2301265 0.3165721 0.3013015
-0.21613568 -0.101885036 -0.14013465 0.20929176 0.114947535 -0.1323657 0.20364201 -0.31634873
-0.22246058 0.03248057 0.21632214 0.2764392 0.14900309 -0.22791299 0.2078898 0.060038205
0.25495481 -0.2717035 -0.31028515 0.22042206 -0.016913475 -0.18303016 0.016815983 -0.1214224
-0.18865459 -0.27540982 -0.31811175 0.29026392 0.045590933 -0.09705647 -0.02220259 -0.09667916
-0.25999978 -0.20122291 0.19477129 -0.26797244 -0.11228657 -0.011055302 0.060343448 0.19437376
-0.007859193 0.066796206 -0.13159086 -0.0957251 -0.32361653 0.3070381 -0.26451457 -0.10566106
0.14855379 -0.07963665 -0.20257808 -0.053728145 0.2333208 0.12517942 0.044919655 0.1937074
0.31786802 0.3160516 0.24505822 -0.03811682 -0.1858081 -0.004810929 0.037277505 0.13509052
0.118645996 -0.23348324 -0.051530685 0.1799129 0.15827031 0.2315059 -0.104263455 -0.24940756
0.09705465 0.27741468 -0.14063697 -0.26736265 -0.27821437 0.16265614 -0.06768681 0.24817394
-0.1158986 0.08398634 -0.16689534 -0.11256359 -0.21661893 0.008932317 -0.065796115 -0.2734456
-0.0699942 0.2454418 0.16774817 0.1699561 0.32529765 0.31901395 -0.07938539 -0.24950041

layer2.weight f4 [128, 128]
00000000: c6ac a9bd 8fdb 9b3b b00c 853d f862 05bd
00000010: 9bbd 26bc cf2a e7bc 82bf a9bd 62c0 103c
00000020: 71b4 5e3d 50ac 803d 807b a7bd 085a 563d
00000030: da47 143d 5249 9cbd 5dd9 1cbd da5b aa3d
00000040: b5d9 c6bc fbd1 543d 0fd6 76bd 8bf5 b33d
00000050: 8396 743d c86a 8fbd cb67 773d 0f7f 733d
00000060: ec02 5abd db71 35bc 8b9a aabd f732 a9bd
00000070: b944 5f3d 8d71 1abd 6a01 19bd 02da e63c
00000080: bb24 e73c c48c 25bd e503 7dbd b867 b1bc
00000090: b2f6 983d 7a6b 2fbd 45e8 30bd d537 463b
000000a0: 2aa5 ff3b 1c4d aa3d 226e a3bd 38e8 0f3d
000000b0: 942c 3c3d 32f6 e93b f7ca 70bd f39a 203d
000000c0: f4c4 253d db76 0d3d c5f3 3bbd 7ad9 293d
000000d0: 53be 783d e2e8 d8bc f512 fc3b 27ba b2bd
000000e0: ee82 883d 2a59 a43d a982 2fbd 7368 b83d
000000f0: 9a8d b33d 1851 abbd 0985 8bbd ce2c 823d
00000100: e647 2abd d2bb 723c cd81 adbb f06a a53d
00000110: 9e6a 2bbd e19e 063d 634e 373d b424 c73c
00000120: fcd7 b23d c293 9cbd a1cc 8d3c ea7b d53c
00000130: 226a a0bd 63f1 2abb 11d4 8cbd 1115 213d
00000140: f5a8 963d 68ed a8bd ec70 4e3d e5df 9abd
00000150: 0634 393d 8abf 893d e5cd 253d 05e0 0b3d
00000160: 4e7d 80bd 279d 493d 3de2 0b3d bd72 c6bc
00000170: be5d a5bd 2b25 2abc f091 b93d e5be 73bc
00000180: 158a 82bd 3462 4e3d 164f 76bd 9208 a8bd
00000190: a36f 54bd 324a 98bc fb65 20bc 21cb 1fbb
000001a0: 6561 713d 27bf 943d 3241 a33d e5fc 9f3d
000001b0: dec8 d83c 316b 033d dab9 b23d 221e 863d
000001c0: 0319 5fbd 82bb bb3d d359 553d df86 4a3d
000001d0: 3383 86bd 93ff 8f3d 2cf3 b6bc a9a2 933d
000001e0: 59b7 6c3d b7da 523d 2c9c 553d 48f0 243d
000001f0: f04c 76bc 75fd 51bd 67db e73b 837e 94bd
00000200: c714 80bd ccc2 27bd 26a5 753d 7a8b 4abd
00000210: 9b19 16bd 515a 8f3d bffa 5ebd c6c1 6cbd
00000220: 17fc abbd e4dc 68bd dec6 0f3d f981 79bd
00000230: 66f2 823b 87af 86bd e26a 333c b867 8e3d
00000240: 55c9 a6bd a525 193d 45fb 38bb 7f99 93bd
00000250: 491c 5fbd 223e 963d 8f5b 31bc 3b13 2ebd
00000260: d245 fdbc 0342 413d 6467 b73c 5f42 403d
00000270: 9a4b 01bd fe0f 4e3b 5e4e 8ebd 2d67 41bd
00000280: cd30 62bc 349c 0c3c 3193 743d c100 87bd
00000290: 3881 5d3d f715 18bd 99fa e6bc 674a ae3d
000002a0: 1e35 773d 1454 4cbd 4f6d a0bc c607 4cbc
000002b0: 3d46 973d 7ef8 9bbd b405 1d3d 1f7c 253d
000002c0: 22f9 07bb 5325 943d 268b 41bd cd56 b8bd
000002d0: f341 7e3d 52cc 9cbc 9aa3 3b3d af0b 60bc
000002e0: 54fc 38bd 65e0 77bd 1935 53bc ef96 8fbd
000002f0: a45b 28bd 0716 403d 9063 f83c e78a 4ebd
00000300: 4619 a4bd b570 333c a89d 523d 5b5f 3c3d
00000310: 0fd4 8cbd 24ed 4e3d 00ad 3abd d37f a1bb
00000320: e1b1 19bd 5ac7 45bd 1cba b6bb b090 a33d
00000330: 6f73 e0bc c633 9cbd 3bc5 a0bd 2be4 513d
00000340: 9ba8 043d 691c 653d 46bb 893d 7ee0 1a3d
00000350: d3ae 0e3c d063 a2bd 8c09 4bba 70ba 883d
00000360: 3d62 a4bd e8d9 a43d 2125 1f3d 76af a4bd
00000370: 8ddc 913d 90a5 533d 7d40 633d e610 c43c
00000380: fcfe 2ebd beda 7cbd 87bd 1fbd 2b7d 053d
00000390: 3631 9bbd 3be8 b13d 948c 8a3d 9f52 9d3c
000003a0: 9808 7fbd 6518 a53d cd36 9bbd b118 aebd
000003b0: 26c5 91bd 21ab 663d f41f fc3c d552 c53b
000003c0: 3a61 0b3d 936c 643d e58e 063c 9608 d23c
000003d0: 7e22 5a3d 95cf 41bd 7891 1a3d b5e6 903d
000003e0: b534 363c fb19 4e3d 27e6 433d ad26 ad3d
000003f0: 3a47 26bd b7fd 923d 646d a3bd d912 7abd
-0.08284907 0.004756398 0.064965606 -0.032565087 -0.010177041 -0.028218655 -0.0828848 0.00883493
0.0543713 0.06282866 -0.08177853 0.052331954 0.036201335 -0.07631172 -0.03829323 0.083183005
-0.024273733 0.051958065 -0.060262736 0.08787068 0.05971385 -0.07002789 0.06040172 0.059447344
-0.053225443 -0.011074509 -0.08330258 -0.08261674 0.0545089 -0.037705947 -0.037354864 0.028180126
0.028215757 -0.040417448 -0.061771292 -0.021655902 0.074689284 -0.042827107 -0.04319026 0.003024568
0.0078016715 0.08315489 -0.079799905 0.03513357 0.04594095 0.0071399445 -0.058787312 0.03921027
0.040471032 0.034537178 -0.045886774 0.041467167 0.060728382 -0.026478235 0.0076926895 -0.08726912
0.06665598 0.08024819 -0.042849217 0.09004297 0.08767243 -0.08365077 -0.06812484 0.06356202
-0.041572474 0.014815288 -0.0052950145 0.08077037 -0.041849725 0.032866362 0.04475249 0.024309494
0.08732602 -0.0764537 0.017309489 0.026060063 -0.07832743 -0.002608382 -0.06876386 0.03932673
0.07356445 -0.08248407 0.05040066 -0.07562236 0.04521563 0.06725986 0.04047956 0.03414919
-0.062739 0.049222138 0.034151305 -0.024224633 -0.080745205 -0.010384838 0.090610385 -0.014877056
-0.06373993 0.050386623 -0.060134016 -0.0820476 -0.051864278 -0.018590067 -0.009789939 -0.002438255
0.058930773 0.07263022 0.079714194 0.07811908 0.026462968 0.032084648 0.087268546 0.06548716
-0.054467212 0.09166624 0.052087616 0.04944503 -0.06567993 0.07031169 -0.02233275 0.07208759
0.05779204 0.051478114 0.05215089 0.040268213 -0.015032992 -0.051267106 0.0070757153 -0.07250693
-0.06253963 -0.040957257 0.05997195 -0.04944942 -0.036645513 0.06999648 -0.05443835 -0.057801984
-0.08397692 -0.056851283 0.035101764 -0.060914967 0.0039961813 -0.06576448 0.010950776 0.069533765
-0.0814387 0.037389416 -0.002822594 -0.072070114 -0.054470334 0.0733607 -0.010825052 -0.04249881
-0.030917082 0.047182094 0.022388168 0.046938296 -0.03156624 0.0031442638 -0.06948541 -0.047217537
-0.01380558 0.008582164 0.059710685 -0.06591941 0.05407831 -0.037130322 -0.028195666 0.08510285
0.06035339 -0.04988487 -0.019583372 -0.012453025 0.07386444 -0.076157555 0.038335517 0.040401574
-0.002074786 0.072336815 -0.047251843 -0.09000931 0.062074613 -0.019140396 0.04581032 -0.013674661
-0.045162514 -0.060516734 -0.012891077 -0.0701121 -0.04110302 0.046896007 0.030320913 -0.050425436
-0.08012633 0.010952164 0.051419884 0.045989376 -0.068763845 0.050519124 -0.045575142 -0.004928568
-0.037523154 -0.04828582 -0.005576385 0.07986581 -0.027398793 -0.076270625 -0.07850119 0.05124299
0.032387357 0.055935297 0.06725173 0.03781175 0.0087086735 -0.07929194 -0.0007745258 0.06676185
-0.0802655 0.08049375 0.03885377 -0.08041279 0.07122145 0.051671565 0.055481423 0.023933839
-0.04272364 -0.061732046 -0.038999107 0.032590073 -0.075777456 0.086868726 0.067650944 0.019204436
-0.062264055 0.080612935 -0.07578812 -0.08500803 -0.07117681 0.056315545 0.030776955 0.0060218372
0.03402827 0.055767607 0.00821278 0.02563886 0.05325555 -0.047317106 0.037736386 0.07075254
0.011120965 0.050317746 0.047826912 0.084546424 -0.04059527 0.071772985 -0.07979849 -0.06105313

layer2.bias f4 [128]
00000000: 6ea3 8c3d 7b65 823d 6272 e63c 933e 7b3d
00000010: 4651 123d 3ebf 62bd f547 3bbd c019 1d3c
00000020: cb38 d93c 05db 853c 1c1e a03d 649c 38bc
00000030: 7ac9 c63c 6381 8abd a18d 293d faf1 a63d
00000040: 6c8f 62bd b264 edbc 95e4 9dbd 96bb 84bc
00000050: f7ce 77bb 1cdd bdbc e99c 223d ae38 6f3d
00000060: 2e4b 80bd d7ce 54bd e5b6 87bd 3efa 003d
00000070: 693f 9d3d ebad 4bbd 2cb4 4b3d d131 5f3d
00000080: 57f8 e3bb 8a4b a93b a86d 123d 2d2b 273d
00000090: 8e7b f4bc 11bd 473b ee23 573d f5f8 bc3c
000000a0: cedb 333d cea8 8ebc f306 75bd 88e4 a3bd
000000b0: de5e cfbc 7125 bfbc f827 7f3d 0ee5 a83d
000000c0: 21c7 87bc 36a7 a03d 843e babc 0701 82bd
000000d0: 768a 6b3d 5bde 163d 2c69 813d 9f44 ff3b
000000e0: 6ffc 903d e2ef 1dbd c997 84bd 6f83 5cbd
000000f0: 7d5d 49bc 7dae 48bd 181c 3d3d 4b90 073d
00000100: 32fa 663d e9d8 7abd 74c5 a63d f396 febb
00000110: 6729 6a3d 751a 4aba 7c7c fcbb ac22 aa3d
00000120: 85c3 ca3c 03cf 903d 818a 45bd f4b4 a03d
00000130: 9883 6dbd 16a9 1d3a b587 0d3d 3e9f 903d
00000140: 6f37 27bd 70ef ea3b 0c93 83bd 1171 01bd
00000150: d5b4 eabc 636f 203a 8f40 dabc c3a4 21bd
00000160: f0f3 e8bc afbf 3bbc a880 81bd 9a3c 333d
00000170: 9ac1 a53d 6322 213a 7cb5 153d 7513 483c
00000180: 81d7 a43d fa12 2e3d 06ca 72bd 0366 7dbb
00000190: f816 ef3c 3df9 31bd 5972 adbd 11cc 203d
000001a0: e6c3 553c 4188 c2bc 6cc2 273b e4f9 2bbd
000001b0: f9da 243d 0e5e 95bd b5b1 42bd 8081 16bd
000001c0: 6079 54bd bb7e af3d 62e0 0fbc 2168 a7bd
000001d0: 112b 08bd 65cd 863c 375c 6e3b 1bc6 ae3d
000001e0: 596d 643d 8ebd 113d 30db 17bc 3e41 9cbd
000001f0: 633f ac3a 3eba cf3a 7633 8b3d 6919 c13c
0.06867109 0.06367012 0.028130714 0.061338972 0.03572204 -0.055358164 -0.04572292 0.009588659
0.026516339 0.016339788 0.07818243 -0.011267755 0.024265993 -0.0676296 0.041394833 0.08151622
-0.05531256 -0.02897868 -0.07709614 -0.01620273 -0.003781257 -0.023176722 0.039700422 0.058403663
-0.062643394 -0.05195507 -0.06626681 0.03148865 0.0767811 -0.049726408 0.049732372 0.054490868
-0.0069570947 0.0051664757 0.035749108 0.04081266 -0.029844072 0.0030477683 0.0525245 0.02306793
0.043910794 -0.017414477 -0.05982108 -0.08002573 -0.02531379 -0.023333283 0.062293977 0.08246814
-0.016574444 0.07844393 -0.022734888 -0.06347852 0.057505094 0.03683315 0.06318888 0.0077901627
0.07079398 -0.03855885 -0.06474263 -0.053836282 -0.012290356 -0.04899453 0.04616937 0.033096593
0.05639095 -0.061242018 0.0814313 -0.0077694594 0.05716839 -0.0007709631 -0.0077052694 0.083073944
0.024751434 0.07070734 -0.04822779 0.07847014 -0.057986826 0.00060142705 0.03455325 0.07061623
-0.04082435 0.0071696565 -0.06424531 -0.03160197 -0.02865068 0.00061201135 -0.026642112 -0.03946377
-0.028436631 -0.011459275 -0.06323367 0.043758966 0.08093567 0.00061467866 0.03655003 0.01221167
0.080489166 0.042498566 -0.059274696 -0.003866554 0.029185757 -0.043450583 -0.08469076 0.039257113
0.013047194 -0.023746612 0.0025598062 -0.04198636 0.04024789 -0.0729333 -0.047532756 -0.036744595
-0.051873565 0.08569094 -0.008781524 -0.08174158 -0.033244196 0.016455362 0.0036370882 0.08533879
0.055768345 0.035581164 -0.009268567 -0.076296315 0.0013141449 0.0015848351 0.06796925 0.023571687

layer3.weight f4 [4, 128]
00000000: 51de f63c 3a1a 49bd 3032 3d3d 6432 23bd
00000010: 641b ab3d a13a 963d 04c2 a0bd c49f 98bc
00000020: 3bb3 703c 0a10 0ebc f0b8 6fbd 69d9 79bd
00000030: 3f49 7cbd e08a 8e3d 6f75 df3c 74a6 3a3c
00000040: 10d1 073d 95ce 80bd 951f 973d f30f 8ebd
00000050: d803 9a3d 150e 6fbd 2c86 0e3d cfe9 7c3d
00000060: 6102 22bd 85f2 5c3d 4a64 ac3d 4f7b 86bc
00000070: e831 753c 7aba 44bd 2658 a73d 630f 3c3d
00000080: 1031 5bbd 24e5 b7bd cf99 8dbc 34cc 4f3d
00000090: 2132 24bc 5ff8 1fbc df97 1f3d d869 67bd
000000a0: 6c07 44bd 69f7 8d3c 4fb7 01bd 36a7 883d
000000b0: a7bd 043d fddf 653d e785 6dbd ea6a 9b3d
000000c0: 41de c0bc 3680 45bd baa5 12bc cd30 5b3d
000000d0: 60b6 1dbd bef1 a9bd 0d8a 9bbd 0819 51bc
000000e0: c155 f13c 9468 2dbb a76b adbd a9df 873c
000000f0: 7a7e 47bd 2321 263c 5a71 4d3c 6f14 8cbd
00000100: dc01 1b3d dac4 943d d315 8dbd cfdd 963d
00000110: 646a 19bd 46c4 69bd 5258 9d3d 8c66 f33c
00000120: 55d9 f1bb 8a3c 4fbd 5feb 63bd 527d 13bc
00000130: 7a3f 15bc a675 33bd 1939 0b3d b840 173d
00000140: 965d 923c e8a8 6fbc 2cbb b83b 08ea 9dbd
00000150: 67a8 55bd 7180 9b3d 72f1 87bd f766 593c
00000160: 2b72 e1bc 2ee8 87bd e0e6 773d c4c7 ef3c
00000170: d995 c13c aba5 923d 494f 943d 964b 33bd
00000180: 285d e33c 3bdf a6bd 5d5e 84bd 8c4e 4ebd
00000190: c3fa a2bd 044e 8b3d eea5 b7bb 846b 7fbd
000001a0: afc9 0e3b 6341 983d dd70 933d 91b3 7cbd
000001b0: 00f0 6cbd 10e9 ad3c 07fe a23d ee70 d73b
000001c0: d599 503d e27d 51bd 4de7 913d b7c6 e0bb
000001d0: a172 a9bd 18c0 833d 1ea8 f73a 9524 b3bd
000001e0: 2346 62bd a590 80bc e0b1 503d 6d0d 4fbd
000001f0: 8117 fabc 5435 88bd f497 aabd 9f65 413d
00000200: fb44 b83d 1031 a5bd ba1e ff3b 6f2b 5bbd
00000210: a0b0 d43b ff0d debc fac4 2b3c 3a49 213d
00000220: c48b 5fbd d3b6 f0bc ee8d cb3c d501 c03c
00000230: 7c05 5cbd 6172 6c3d 21f9 24bd 3ab4 4a3d
00000240: 0572 9fbd 3878 90bd 1995 5b3d 8490 323d
00000250: 6e46 c83c 59eb 013d 0c44 2bbb 3ca0 ec3c
00000260: f920 233d 2dd9 95bd e8be 5fbd 2864 803c
00000270: 9554 c7bb 47d2 5b3c fe60 723d f324 993d
00000280: 6ed2 1d3d 12bb 12bd 342a 403d 37b0 7c3d
00000290: 8ca0 d43c 167e bbbb 6976 bcbc 5105 9a3d
000002a0: 47e9 de3b 7339 13bd b448 fc3c 0faf 883b
000002b0: 1f2e 61bc 5bcd b33d c7c6 29bc 0377 3bbd
000002c0: 1152 fd3c f926 013d 28d3 94bd 1bd1 1bbd
000002d0: 69f2 aebd 80f2 2c3d 5628 393d e6c7 083d
000002e0: b35f 4dbd 6898 583d f29e 753d 84a9 d9bc
000002f0: 1870 853d 9434 7fbd d39b 223d c2ee 2c3d
00000300: a14c 96bd 50e0 0d3c 3282 d33c 1383 4e3d
00000310: 94e2 873d e122 5cbd d707 243d 6a8b 37bd
00000320: 2c9a 2a3d f077 b3bc e84c 66bd 87ee e33a
00000330: 0c84 b13c 850e 293d 8d01 0fbd 790b 673d
00000340: dcb3 37bc 2acc 9f3d 7c7d b1bd 3376 9dbd
00000350: 25e9 8abd ed02 ae3d d1b3 293d 6d83 683d
00000360: ffbc aebd 6d69 79bd 1a7f 9cbb 960d 9dbd
00000370: 8374 e8bb 1515 c8bc 5d8b a5bd d975 023c
00000380: 3863 9f3d 7920 8dbc 1bc4 a83d 8362 513d
00000390: be6d 2cbd d742 9f3d 789a 97bb 42c1 a6bd
000003a0: 6efd 40bd 0cd8 813d 8418 77bc 5264 30bd
000003b0: ba06 13bd 6a7f 12bc e753 2dbd 82b4 7abd
000003c0: c184 83bd e6a5 9ebd 9a0b 143c 5e77 60bd
000003d0: 2c5d ddbc 439a 70bd 2524 2abd 106a 9e3d
000003e0: 4339 95bd deaa 6cbd 40db f1bc 09b2 d53b
000003f0: c4aa 1c3d 2c7c 2dbb ea2e ecbc 0803 2d3c
0.030135306 -0.049097277 0.04619044 -0.039842978 0.08354834 0.07335401 -0.078495055 -0.01863087
0.014691169 -0.008670816 -0.05852598 -0.060998354 -0.06159329 0.06960082 0.027277676 0.011392225
0.033158362 -0.062894024 0.07379071 -0.06936636 0.075202644 -0.05836304 0.034795925 0.061746415
-0.03955305 0.053942222 0.08417566 -0.01641622 0.014965512 -0.0480294 0.0817111 0.04591311
-0.053513587 -0.08979252 -0.017285256 0.050731853 -0.010021717 -0.009763806 0.038963195 -0.056497425
-0.04785864 0.017329888 -0.031668957 0.06672518 0.03240743 0.056121815 -0.057989027 0.075887516
-0.023543479 -0.048217975 -0.008950645 0.053513337 -0.038504004 -0.08298062 -0.075946905 -0.012762316
0.029459836 -0.0026460038 -0.08467799 0.016586142 -0.0487046 0.010139736 0.012539232 -0.06839835
0.03784357 0.07264109 -0.06888928 0.073665254 -0.037454978 -0.057071947 0.076828614 0.029711984
-0.0073806443 -0.050594844 -0.05564439 -0.009002047 -0.009109372 -0.04381337 0.03399 0.036926955
0.01786689 -0.014627673 0.005637547 -0.077106535 -0.052162554 0.07592858 -0.06637849 0.013269178
-0.02752026 -0.06636082 0.060522914 0.02927006 0.023631023 0.07160505 0.07241685 -0.043773256
0.027754381 -0.081480466 -0.06463311 -0.050367877 -0.07957985 0.0680199 -0.005604497 -0.062358394
0.0021787693 0.074343465 0.07199261 -0.061694685 -0.05784607 0.021229297 0.07958608 0.0065747416
0.050927956 -0.05114544 0.07124195 -0.006859626 -0.08273817 0.06433123 0.0018894707 -0.08747212
-0.05524267 -0.015693972 0.050950885 -0.050549913 -0.030528786 -0.066507965 -0.08329764 0.047216054
0.08997532 -0.080659986 0.0077856453 -0.05350822 0.006490782 -0.027106283 0.010483975 0.039376475
-0.05457665 -0.029384052 0.02484795 0.023438374 -0.053716168 0.057726268 -0.04027665 0.049488284
-0.077854194 -0.0705418 0.053608987 0.043594852 0.024447646 0.031718586 -0.0026133088 0.028885
0.039826367 -0.073168136 -0.05462542 0.015672758 -0.006083081 0.013416833 0.05917453 0.07477751
0.03853076 -0.035822935 0.046915248 0.06169149 0.025955461 -0.0057218177 -0.023005681 0.07520545
0.006802711 -0.03594346 0.030796386 0.0041712592 -0.013743906 0.08779403 -0.010362334 -0.045767795
0.030922921 0.031531308 -0.07266837 -0.038041215 -0.0854233 0.042223454 0.045204483 0.033393763
-0.050140094 0.05287972 0.059966035 -0.02657009 0.06515521 -0.062306 0.039699387 0.042219885
-0.073388346 0.008659437 0.025818918 0.05041797 0.06635013 -0.0537442 0.04004654 -0.04481069
0.041650936 -0.021907777 -0.056225687 0.0017389812 0.02166941 0.041273613 -0.03491359 0.056407426
-0.011212315 0.07802613 -0.08666512 -0.0768856 -0.0678275 0.08496652 0.041431252 0.056765962
-0.08532142 -0.060891557 -0.004775894 -0.07668607 -0.0070939674 -0.024424115 -0.08083222 0.007962667
0.07782596 -0.017227398 0.08240529 0.05111934 -0.042096846 0.077764206 -0.0046265684 -0.0814233
-0.04711669 0.06340036 -0.015081529 -0.043064423 -0.035895087 -0.008941511 -0.042316344 -0.061207302
-0.06421805 -0.07746486 0.009035969 -0.054801337 -0.027021967 -0.058740865 -0.041538376 0.077350736
-0.072863124 -0.05778014 -0.029523492 0.0065214676 0.038248792 -0.0026471717 -0.028830964 0.010559805

layer3.bias f4 [4]
00000000: fd32 aabd 3b6b ba3c f720 ce3c 9c87 b83d
-0.083105065 0.02275621 0.025162203 0.090102404
