models/policy_net7.pth (torch, 75888 bytes, 6 tensors)

layer1.weight f4 [128, 9]
000000 73 e0 43 3d ed 80 0d be af 6b 84 bb 02 f1 0a be
       0.047821473 -0.13818713 -0.004041157 -0.135685
000010 37 10 61 be f1 67 49 3e 5c 91 59 bd 61 04 3e be
       -0.21978842 0.19668557 -0.05311714 -0.18556358
000020 6f 79 80 bb 69 02 7b 3e 76 59 3b be b7 69 62 be
       -0.003920726 0.24512638 -0.18295845 -0.2211064
000030 2f 09 88 bb c0 11 f7 3d a2 27 33 be 32 a9 90 3d
       -0.0041514854 0.120639324 -0.17495587 0.070635214
000040 90 2d 9d be 61 8a 3d be 89 34 99 be 47 88 32 3e
       -0.30698824 -0.18509819 -0.29922894 0.17434798
000050 32 97 66 3e c4 1e 50 3e fd ab 79 3e b1 1a 99 be
       0.22518614 0.20324236 0.24382015 -0.29903176
000060 1b 8a 84 3d 8d cd 1a 3e f5 db d6 bd 34 db 1c be
       0.06471654 0.15117474 -0.10491172 -0.15317994
000070 3e 93 85 3e 68 0a 96 be 3e 7b 13 3e 72 81 53 be
       0.260889 -0.29304814 0.14402482 -0.20654848
000080 be f0 83 3e f2 0f 4b bd 7d 64 52 be bf d7 2a 3e
       0.2576961 -0.049575754 -0.20546146 0.16683863
000090 bb c9 c8 bc 17 f3 89 be fb 1b 1e 3d a1 cf 8e be
       -0.024510255 -0.26943275 0.038600903 -0.27892783
0000a0 f9 51 aa 3d e2 e7 01 be be 84 d1 3d d1 b9 7b 3e
       0.08316416 -0.12686113 0.10230397 0.24582602
0000b0 58 26 14 3e c7 f7 8a be 9e 46 18 3d 88 cc 8b 3e
       0.14467752 -0.27142164 0.03717672 0.27304482
0000c0 5c 53 87 3e ff ac 5d be c1 90 8e 3e 99 9b 5d be
       0.26430786 -0.21648024 0.27844813 -0.21641387
0000d0 a3 31 20 be 47 32 c7 bd 1a 33 b1 3c 9a 5c 1b 3e
       -0.15643935 -0.097263865 0.021630812 0.15172043
0000e0 af d6 33 be aa de 21 3e 91 f0 0e 3e 63 60 0b bd
       -0.17562364 0.15807596 0.13958956 -0.03402747
0000f0 cc ee a7 3d 1c e4 74 3e 5f fe 0d be e2 fc 54 be
       0.08199844 0.23915142 -0.13866566 -0.20799592
000100 f7 5c 5a 3e 63 eb 97 3e f6 15 9d bc 5a ff 8a be
       0.21324526 0.29671773 -0.01917551 -0.27147943
000110 42 74 a6 3e d2 af d8 3d a6 4b 1c bb 9c 2e 32 3d
       0.32510573 0.1058041 -0.00238488 0.04350148
000120 99 48 de bd 4a 1d 9e be 92 3e 06 be e3 46 2a 3e
       -0.10853691 -0.3088172 -0.13109806 0.16628604
000130 ea fc 4f bd f9 ed fe bd f7 5c a1 be 28 90 8f be
       -0.050778307 -0.124477334 -0.3151624 -0.2803967
000140 a0 b3 17 3e 88 40 55 3e fd 8f 20 3c e2 cc 57 be
       0.14814615 0.20825398 0.0097999545 -0.2107425
000150 47 d5 07 3d 25 62 95 be d3 15 94 3e 98 9a 53 be
       0.03316238 -0.2917644 0.289229 -0.20664442
000160 26 2f 35 3e 8b 6e c1 3b 0e e1 8e be 3e cd 9a be
       0.17693767 0.0059030703 -0.27906078 -0.30234712
000170 44 0b 15 3e 0d 2c cb 3d 79 a1 84 be 56 c8 32 3e
       0.14555079 0.099205114 -0.25904444 0.17459235
000180 04 ee 64 be 2a 61 98 bd 33 11 93 3e 0a 79 55 bd
       -0.22356421 -0.074404076 0.2872406 -0.052117385
000190 3a 13 f8 bc bd 1e 21 3c 87 d0 a7 be a7 d1 0c be
       -0.030282605 0.009833989 -0.3277628 -0.13751851
0001a0 27 0c 62 be e6 61 8f 3c 64 bd 52 3e d7 01 5e 3e
       -0.22074948 0.017502736 0.2058006 0.2168039
0001b0 72 55 58 3e 1b 9b 75 be 46 fd 6f be 41 a3 8f 3e
       0.21126345 -0.2398495 -0.2343646 0.2805424
0001c0 d4 f0 e8 bc dd d3 f2 bd b0 f4 bb bc df 35 5e bd
       -0.028435148 -0.11856816 -0.022943825 -0.054250594
0001d0 0a 5b 1c be 87 2e 95 3e 65 e2 32 be c6 af 68 3e
       -0.15269104 0.2913706 -0.17469175 0.22723302
0001e0 fb ca 55 3e 6d 3a 8c bd b1 5f 6d 3e 66 a0 4f 3e
       0.20878212 -0.06847081 0.23181035 0.20276031
0001f0 c5 a6 fd 3d c9 15 20 3d 14 a4 ae bc 9e 91 12 be
       0.123853244 0.039083276 -0.021318473 -0.14313361
000200 c1 87 bc bd ef 48 df bd b7 e9 0a be f1 bb 9b 3e
       -0.092055805 -0.10902583 -0.13565718 0.30416825
000210 6e ae cb 3d b9 fc 5b bb b5 b8 08 be 68 89 6b bd
       0.09945379 -0.0033567382 -0.1335171 -0.057504088
000220 13 e1 22 be cc ee 95 be 16 43 3b 3e dd a7 58 be
       -0.15906172 -0.2928375 0.1828731 -0.21157785
000230 cb 21 c8 bc 6d 56 9d be c7 b4 79 bd fd 0d e0 3d
       -0.024430176 -0.3073 -0.06096342 0.10940168
000240 49 7a e6 3c da 33 83 be 10 27 a0 be da 54 0e be
       0.028134482 -0.25625497 -0.31279802 -0.13899556
000250 b3 d5 77 3d 48 e7 6b bd 95 90 08 be 2c f4 83 3e
       0.060506534 -0.057593614 -0.13336404 0.25772226
000260 00 2d 27 be 94 df 35 be f7 8f c4 3d a6 a1 19 be
       -0.1632576 -0.1776107 0.095977716 -0.1500307
000270 2e 57 41 be 24 5e 87 3e 43 f2 f9 bd e2 e8 4f 3d
       -0.18880913 0.2643901 -0.12204411 0.050759204
000280 27 72 f9 bc 7f ef a1 be 0f 8e ca 3d 90 c8 62 3e
       -0.03044994 -0.31628034 0.09890377 0.22146821
000290 ec 24 92 3e 5e bd c7 bc 0b c8 0e be e7 93 d6 3d
       0.28543794 -0.02438229 -0.13943498 0.10477429
0002a0 26 3a 48 3e 27 b2 6f 3e 99 06 a4 3e ec 31 72 bd
       0.19553432 0.23407803 0.32036284 -0.05912964
0002b0 11 41 2e 3e 6d 37 3c 3e d6 1f 50 3d ec 01 06 3d
       0.17017008 0.18380518 0.05081161 0.032716677
0002c0 7e b7 91 bb 6d f5 1b be c1 2e 07 3e 95 0a 71 3e
       -0.004446923 -0.15230341 0.13201429 0.23539193
0002d0 c3 52 80 be 8c d2 8f be 55 6c 9c 3e 1f a6 8a bc
       -0.25063142 -0.28090322 0.305514 -0.016924916
0002e0 03 c7 1f 3e a6 12 1c 3c d9 71 1c be 16 d9 39 3e
       0.1560326 0.0095259305 -0.15277804 0.18149218
0002f0 88 ab 73 bd db 5d e9 bd 77 57 78 bd 9c cc 14 be
       -0.059489757 -0.11394855 -0.060630288 -0.14531177
000300 53 80 29 be 4c 3e 1c be 78 46 22 be b3 79 49 be
       -0.16552858 -0.1525814 -0.15847194 -0.19675331
000310 b0 ea ef 3c 76 8f a7 3e 94 ae 98 be 1f 56 bf 3d
       0.029286712 0.3272664 -0.29820693 0.09342598
000320 37 84 99 3e 87 3f 7b 3c ce ae 44 be fb c5 63 3e
       0.29983684 0.01533497 -0.19207308 0.22243492
000330 9d 6e a1 3d f6 b9 83 be bb 5e 8b 3d 5c c9 93 3d
       0.07882426 -0.25727814 0.06805178 0.07216141
000340 47 cc 08 3e 6f d0 8d 3e 17 8c 64 3d 70 4e 87 3e
       0.13359176 0.27698085 0.055797663 0.2642703
000350 80 31 6c 3e 36 de 14 be 45 99 58 3d 00 a8 3a 3e
       0.23065758 -0.14537892 0.052880544 0.1822815
000360 c3 37 a6 3e 36 4e 7e 3e 9d 47 74 bd 7c fc 9c be
       0.32464418 0.24834523 -0.05963861 -0.3066138
000370 a2 35 94 be 7f d9 0b 3e 49 40 90 3e 71 04 5a 3e
       -0.2894717 0.13657187 0.28174046 0.21290757
000380 2f b7 53 be e6 86 a0 3e bb 2d c2 bd da ca 81 be
       -0.20675348 0.3135292 -0.09481379 -0.25350076
000390 3a 85 0b be ea f4 87 be fc a6 85 3e d1 5c be bd
       -0.1362504 -0.26554042 0.2610396 -0.09295047
0003a0 1c 67 94 be 73 bd 41 3d f2 02 cd bc 1e 04 d0 3d
       -0.28984916 0.047299813 -0.025025818 0.10157035
0003b0 7f be 85 3c 0c 68 a1 be 4b 3f 4a 3b 7b e0 c7 bc
       0.016326187 -0.31524694 0.003086048 -0.024399033
0003c0 73 c2 88 be 0c 0b 31 bd ee c9 a6 3e d0 92 ea 3d
       -0.26710853 -0.043223426 0.32575935 0.114537835
0003d0 a3 3f 7f be 24 ce f5 3d a5 d8 8b be d4 30 78 be
       -0.24926619 0.12002209 -0.27313724 -0.24237376
0003e0 cc 78 84 3e 57 04 99 3e a6 80 90 be 98 95 95 be
       0.2587341 0.29886124 -0.2822315 -0.29215693
0003f0 c6 a8 df bd 45 2b d7 bd 3f cc af 3e 7f d7 e8 bd
       -0.10920863 -0.105063 0.34335515 -0.113692276

layer1.bias f4 [128]
000000 7b df 87 be 2f d4 8a bd 0f f0 2b bc ba 77 9f 3e
       -0.2653769 -0.06778752 -0.010494246 0.31146032
000010 26 1d 1b ba 84 2c eb 3d 7d d1 ee 3b a6 b0 8e 3e
       -0.0005917124 0.114831 0.0072881565 0.27869147
000020 34 4f f3 3d 01 60 00 3e af 7e 88 3d 01 ef 7e be
       0.11880341 0.12536623 0.06664788 -0.2489586
000030 1c 17 de bc f7 70 b3 3d 7a 3a b2 bd be 26 2e 3e
       -0.027110629 0.08761781 -0.0870256 0.17006966
000040 b9 01 a1 3d 81 4a a6 be 7b 80 18 3e 3b 11 6b be
       0.07861657 -0.32478717 0.14892761 -0.22955792
000050 cd c3 9f bd 8a eb 4f be 01 71 87 be a8 b3 83 be
       -0.07801018 -0.20304695 -0.26453403 -0.25723004
000060 93 96 a5 bc 30 ad ee bb 25 fa e7 bd cf 79 84 bd
       -0.020213401 -0.007283829 -0.11327008 -0.06468546
000070 d1 37 93 3e 12 33 d9 3d e3 36 2f 3e cf bd bd 3d
       0.28753522 0.10605444 0.17110781 0.09264719
000080 93 56 76 be 7f 7b 83 3c 45 eb b3 bd ea f2 36 be
       -0.24056463 0.016050098 -0.087851085 -0.17866102
000090 a0 39 1c bd df 90 e2 bd 90 92 0e 3d 0b f6 75 be
       -0.038140893 -0.11062788 0.03480774 -0.24019639
0000a0 cc 34 3c be c4 ad a7 be 48 98 68 3d a3 23 9d 3e
       -0.18379515 -0.3274976 0.05678585 0.3069125
0000b0 68 25 1b 3e e6 9e a0 be dd 83 67 be de 17 cf bd
       0.15150988 -0.3137123 -0.22608896 -0.10111974
0000c0 de a1 c3 bc 69 f0 46 be 08 48 9f 3e 43 dd f8 bd
       -0.023880895 -0.19427647 0.31109643 -0.12151577
0000d0 d9 66 1e bd 18 62 9e be 50 21 b8 3d 97 99 5e 3e
       -0.038672302 -0.30934215 0.08990729 0.21738277
0000e0 2b 28 88 3e 38 41 71 3d 32 2e 52 be f5 68 99 3e
       0.26593146 0.058900088 -0.20525435 0.29962888
0000f0 90 46 43 bd dd d5 11 3e 26 81 6a 3d eb ad 99 3e
       -0.047674716 0.14241739 0.05725207 0.300155
000100 25 0e 1f 3d 46 c4 49 be cf 6c 40 3e 26 f8 75 be
       0.03883185 -0.19703779 0.18791507 -0.24020442
000110 b7 03 0e bd e4 75 ae 3d 40 e4 90 3d d2 19 96 3d
       -0.03467151 0.085185796 0.07074785 0.073291436
000120 41 09 9b 3e 96 24 83 be a7 2a 9d 3e f9 2b 68 bd
       0.30280498 -0.2561385 0.30696604 -0.05668256
000130 73 38 63 3e 6e e6 70 be 2f 64 36 3e fe bd 18 3e
       0.22189502 -0.23525402 0.17811655 0.14916226
000140 01 e5 11 be ca 64 73 bd 06 4c cd 3d cf a8 80 3e
       -0.14247514 -0.05942229 0.10024266 0.2512879
000150 e2 4a d3 3d 1f 89 74 3d c4 1c ff bd 2e a4 71 be
       0.10317017 0.05970108 -0.124566585 -0.23597786
000160 df c6 95 3e 63 9b 27 be a7 04 31 be 1f 86 8b bd
       0.2925329 -0.16367869 -0.17286931 -0.06812691
000170 6c 3d d2 bd 7c 87 7f 3e bf 9d 5f 3e 0f 71 8c bd
       -0.102656215 0.24954027 0.21837519 -0.06857502
000180 41 dc eb bd 4f 1a 31 be b7 ad d5 3d c9 3a 93 3e
       -0.115166195 -0.17295192 0.10433524 0.28755787
000190 91 0b 42 be 4f 4a 77 be 5a 27 6f 3e 7c b8 f6 3d
       -0.18949725 -0.2414944 0.23354855 0.12046906
0001a0 c4 59 2a be b2 e9 a6 3e 34 3b 18 3e 01 63 09 3d
       -0.16635805 0.3260017 0.14866334 0.033541683
0001b0 1d 2c df 3d 4b 79 98 3e 50 9d 58 3e c2 59 8c 3e
       0.10897086 0.2978004 0.2115376 0.2741223
0001c0 3a d3 04 be 08 87 3a be 2b c4 1e be 25 68 90 3e
       -0.12971202 -0.18215573 -0.1550452 0.28204456
0001d0 42 e7 9b be d6 fd e8 3d 84 9a 67 be a3 83 89 3d
       -0.30449873 0.1137654 -0.22617537 0.06714561
0001e0 aa 0d 2f 3e a4 3b cf 3d ef f6 08 3b 63 55 9d 3e
       0.17095056 0.101187974 0.0020899137 0.30729207
0001f0 c2 f9 4e be 6c 43 12 be 92 e0 89 be 20 58 33 3e
       -0.20212463 -0.14283532 -0.26929146 0.17514086

layer2.weight f4 [128, 128]
000000 64 15 34 bc 8e f4 91 3c 19 04 3a 3a 20 cf a6 3d
       -0.010991428 0.017816808 0.00070959475 0.08144975
000010 27 d5 a0 bd 9f 50 7a bd b4 33 2a bd cf 17 c5 3c
       -0.078531556 -0.061112043 -0.041553214 0.024059204
000020 b0 27 f2 bb 27 36 c0 bc 89 16 92 3d 29 9b a7 3c
       -0.007389985 -0.023463322 0.071332045 0.020459728
000030 44 07 99 3d b5 e0 d6 3b bf d1 91 3d ea 9b 75 3d
       0.07472089 0.006557549 0.07120084 0.059963144
000040 9f c6 37 bd 89 98 db bb 03 18 89 bd b3 97 68 bd
       -0.044867154 -0.006701533 -0.06694033 -0.056785297
000050 91 3e 7f 3d 5f bf 82 3c f5 f0 06 3d af 4e 7c bd
       0.062315527 0.015960393 0.03294464 -0.061598476
000060 b6 97 09 3d 1a 19 85 3d 46 a4 74 3d e1 cb 3c 3d
       0.03359195 0.06498928 0.059726976 0.04609287
000070 b3 b0 c0 3c a7 c1 40 bd 71 2d 77 3d c1 c1 58 bd
       0.023521757 -0.04705968 0.06034607 -0.052919153
000080 20 3b 82 3c 3f 15 18 bd a2 22 89 bc 66 62 8b 3b
       0.015897334 -0.037129637 -0.016740147 0.0042536734
000090 4d 3d 89 bd bd 1f e5 bc f4 d7 9e 3d 6a cf 49 bd
       -0.06701145 -0.027969236 0.077560335 -0.04927007
0000a0 07 2b 2b 3d fb 61 3f bc f1 79 34 bc 4a 14 cc bc
       0.04178908 -0.011681075 -0.011015401 -0.024912018
0000b0 20 93 b0 bd 5e 06 09 3c 5a 06 14 bc b8 68 4d 3d
       -0.08621812 0.008363334 -0.009034717 0.050148696
0000c0 28 b0 93 3d b9 85 63 bd e6 2f 96 bb 24 a8 3a bc
       0.072113335 -0.05554745 -0.0045833467 -0.011392627
0000d0 37 be 02 3d 7f 2d 7e bd 13 97 9a 3d 3d 6c 3a bd
       0.031919684 -0.062055107 0.07548346 -0.04551338
0000e0 03 fc 98 3d 3f ae 28 3d a2 0e a6 3d b8 24 b3 bc
       0.074699424 0.0411818 0.0810826 -0.021868095
0000f0 7e 37 a2 3d cb 18 a3 3d de f8 82 3d a4 86 09 3c
       0.079207405 0.07963713 0.06395124 0.008393917
000100 bc 6c 28 3d 4b b3 bf bc 43 31 6f 3d 36 5e 9e 3d
       0.041119322 -0.023400923 0.05839659 0.07732813
000110 89 d2 99 3d fa a2 64 3d 66 3d b4 bd 39 53 7b bd
       0.075108595 0.05581949 -0.08800773 -0.061358664
000120 05 55 9e bc bd 04 b2 3d c2 ea 52 3b 43 2b 22 3d
       -0.01932765 0.0869231 0.0032183384 0.03959204
000130 cb ff 9b 3d 77 89 b1 3d 4c eb b9 3c c3 f6 1b bd
       0.07617148 0.086687975 0.022695206 -0.038077127
000140 0c 45 76 bd 3e 7c 9a 3d b8 00 14 3d 0e 01 a9 bd
       -0.060124442 0.075432286 0.036133498 -0.08252154
000150 3d 87 26 3b d5 8d 8f 3d af 2d 16 bd d4 0a b8 bb
       0.0025410198 0.07009474 -0.03666466 -0.005616525
000160 17 5e f9 3b 9c e1 9f bd d6 d5 4c bd 66 4f 13 3c
       0.0076100933 -0.078067034 -0.050008617 0.008991098
000170 9f 02 67 bc e9 ff 00 3d 1e ab 02 3d c3 90 c1 bc
       -0.014099746 0.031494055 0.03190147 -0.023628598
000180 1e 57 a9 3d 58 72 9e 3d b8 b4 0c bc 7c 00 b1 3c
       0.082685694 0.07736653 -0.008588009 0.021606676
000190 e8 f1 94 3c 5b 46 42 3c 39 3f 7a 3d 04 34 58 3d
       0.018181756 0.011857594 0.06109545 0.05278398
0001a0 55 d7 4d 3d f2 23 81 bc d1 33 97 3d ff f6 55 3c
       0.050254185 -0.01576421 0.0738293 0.013059377
0001b0 78 2c 33 bd c0 8b 85 3d 0a d7 85 3d 8e fe 9f 3c
       -0.04374358 0.06520796 0.06535156 0.01953056
0001c0 5d f3 a2 ba 18 85 8a bb a7 73 af 3b 6f ee d3 bb
       -0.0012432147 -0.004227292 0.005354363 -0.0064676325
0001d0 93 29 84 bd 02 b4 58 bb 46 d5 6f 3d 8f a8 9a bd
       -0.06453242 -0.0033066277 0.058553003 -0.07551681
0001e0 57 67 b3 3d 3a f8 92 3c ab 3a 49 bb 87 98 ae 3d
       0.08759945 0.01794063 -0.0030705135 0.08525186
0001f0 52 7a e9 bc 27 f3 78 3a 33 bf 97 bd f1 55 47 3d
       -0.02850071 0.0009496682 -0.07409515 0.048665944
000200 24 07 50 3d a9 7a 3f bd 05 e7 45 3d f7 31 c7 bc
       0.05078806 -0.046747837 0.04831602 -0.024315817
000210 87 4a 8d bd af 8c 5e 3d 7d ec a7 3b bf 9b 58 bd
       -0.068989806 0.054333385 0.005124627 -0.052882906
000220 0f 32 0e 3d 14 cd 58 bd 97 74 5a 3d 7e 0f 66 bd
       0.03471571 -0.052929953 0.053333845 -0.05616712
000230 9f a7 84 bb e2 4a d5 3b b5 f3 8d bd fd ca 90 3d
       -0.0040483023 0.006509171 -0.06931249 0.07069967
000240 03 d7 08 3d 08 f0 33 bd 89 53 3c 3d 5c e6 70 bd
       0.033408176 -0.043930084 0.045978103 -0.058813438
000250 b0 5f e8 bc bd a6 a3 3c 78 85 a8 3d d7 af ac 3d
       -0.02836594 0.019976968 0.08228582 0.08431976
000260 86 e0 ed bc d6 46 89 3d 59 ec 64 bb 50 3e 1b 3d
       -0.029037725 0.06702964 -0.0034930913 0.037901223
000270 e9 a2 41 3d 8e 1d 9b bd 1d 01 55 bd 7c 3e 58 3d
       0.047274504 -0.075739965 -0.052003015 0.052793965
000280 8e e3 43 bd 80 32 51 3d ae 50 62 bd db 3b c7 bc
       -0.047824435 0.05107355 -0.055252723 -0.024320533
000290 73 bf 7c bd 3f b8 5a 3d 51 b9 6e bd f6 2a 10 3d
       -0.061706018 0.053398367 -0.0582822 0.03519722
0002a0 1c 7f 84 3d 80 03 b4 3c a2 dc 92 bc 8e 3e 16 bc
       0.06469557 0.021974325 -0.017927472 -0.009170188
0002b0 f7 56 28 3d 5e 0f cb 3b 46 e9 75 3d 04 8a ae bd
       0.04109856 0.0061969003 0.06003692 -0.08522418
0002c0 8b 12 05 3d 81 89 0b 3d ef fe 8b 3b 12 39 70 3d
       0.032488387 0.03406668 0.004272334 0.058648176
0002d0 e2 0a 59 3c df d7 66 bd c9 5b 66 3c 74 38 2d 3b
       0.013247224 -0.056358214 0.014059969 0.0026431354
0002e0 06 64 6b 3d 40 e2 4c 3d c7 5e 94 bd 7c 74 b2 bc
       0.057468437 0.050020456 -0.0724464 -0.02178406
0002f0 a9 e7 a1 3c ab 52 82 3c 5b 03 60 3d a7 e3 00 bd
       0.019763784 0.01590856 0.0546907 -0.031467106
000300 72 2a 38 bd ff c8 88 3b e0 e1 5a bd 4b 18 8a 3c
       -0.044962354 0.004174351 -0.053438067 0.016857287
000310 f1 b8 44 3d ec 9a 99 bd 54 61 96 bd 26 6e 72 3d
       0.048027936 -0.07500252 -0.073427826 0.059187077
000320 25 f1 9c bd 43 cd bd 3c 04 f2 ac bb 8d 8c 7d bd
       -0.07663182 0.023169165 -0.005277874 -0.061901618
000330 af 53 05 3c d6 6a a5 bd a5 21 9e 3c d8 38 9e bd
       0.0081376275 -0.08077018 0.019303152 -0.07725686
000340 5c cd 86 3d 46 1b 9a bc d4 31 b0 ba 9c ed 1b 3d
       0.06582138 -0.018811833 -0.0013442584 0.0380684
000350 5f 9d 61 3d d2 56 34 3d 2a 53 ea bc 51 ce a2 bd
       0.05508172 0.04402811 -0.028604109 -0.07949508
000360 f2 02 a7 3d 87 61 15 bd 83 c7 9a bd 10 6a 54 3d
       0.08154859 -0.036469962 -0.07557585 0.05185896
000370 9f 02 8e 3b 05 56 46 3d 3e 01 cf 3c 09 32 7c bd
       0.0043338086 0.04842188 0.025269147 -0.061571155
000380 5b 2c 86 bc df 86 91 3d 2c 22 8a 3d 77 c5 b2 bd
       -0.016378572 0.07105803 0.06744799 -0.0872907
000390 de cd 11 3c 3e 9e 96 bd d4 a1 82 3d 78 80 b3 bc
       0.00889918 -0.07354401 0.063785225 -0.021911845
0003a0 09 15 5c bc a6 a4 39 bd 44 b5 ff bc 77 ae 4d bd
       -0.01343275 -0.045323037 -0.031214364 -0.05021521
0003b0 98 ed 18 3d 6b 32 61 3d 48 fe 43 bd e3 ad 22 bd
       0.037335962 0.054979723 -0.047849923 -0.039716613
0003c0 b6 5b 9d bc d1 b9 5b bc 5f 23 20 bd 68 d6 41 bd
       -0.01920877 -0.013411001 -0.039096233 -0.047323614
0003d0 0c 34 38 bd 93 7c aa bd 4e b7 9b 3c b1 e7 ac bc
       -0.04497151 -0.08324542 0.019008305 -0.021106573
0003e0 4b d8 51 bd 35 11 05 bd 3a 9f 75 bd df 4a 44 bd
       -0.051231664 -0.032487113 -0.059966303 -0.047922965
0003f0 92 1e 6c 3d 18 08 d3 bc 4e cd 8a 3d d1 57 3e bd
       0.05764634 -0.025760695 0.0677744 -0.046470467

layer2.bias f4 [128]
000000 75 f5 9b bd 4a 77 0f 3d ad 6d a6 3d 14 e4 39 ba
       -0.076151766 0.035025872 0.08126388 -0.0007091176
000010 29 5d a9 3d e6 57 08 3d cb fd a2 bc b4 1e 06 bd
       0.08269722 0.03328695 -0.019896409 -0.032744125
000020 eb b3 5b 3d c9 9b 87 bd 94 9a 3a 3d 28 06 f7 3c
       0.05363838 -0.066215105 0.045557573 0.030154303
000030 d4 1d 80 bd 6f f7 22 3d 44 77 a0 3d 24 79 8e 3d
       -0.06255689 0.039786752 0.07835248 0.069566995
000040 b9 9f de 3a dc 0a 55 bd 3f bb 45 bd 95 d4 af 3d
       0.0016984857 -0.05201231 -0.048274275 0.08585469
000050 f6 24 83 bd eb bd ac 3d 7b 4e 82 bd fd d1 27 3b
       -0.06403534 0.084346615 -0.06362625 0.002560734
000060 29 66 67 bc f7 a7 8a bc 20 68 bf 3d ea 80 ac bd
       -0.014123478 -0.016925795 0.09346032 -0.08423026
000070 09 3a a7 bd 03 f1 80 3c dc eb 9e bd 14 dc b6 bc
       -0.08165366 0.015739923 -0.0775983 -0.022321738
000080 bc 66 b5 bd 95 57 3c bd b2 84 a6 bd d6 fc 39 bd
       -0.08857486 -0.045981962 -0.08130778 -0.04540714
000090 16 3a 07 bd fe 6a 8a 3d b1 97 8a 3b b4 8e 81 bd
       -0.03301438 0.067586884 0.004229509 -0.063260466
0000a0 1d 6a 2d 3d 22 35 9c bd e0 96 d2 bc c0 98 13 bd
       0.042337526 -0.07627322 -0.025706708 -0.036034346
0000b0 72 b1 69 3c 78 c5 6d 3b 6b 27 44 3c 92 81 0f 3d
       0.014263498 0.003628103 0.011972289 0.035035677
0000c0 66 1e aa 3d 7d cc bc 3d d6 b7 8e bd ff 6d 57 bd
       0.08306579 0.092186905 -0.06968658 -0.052595135
0000d0 82 66 5e bd 67 61 16 bb 20 5b 8e 3d 3f 2c 24 bd
       -0.054296978 -0.002294624 0.069509745 -0.04008126
0000e0 3e 1d d8 bc b4 ea 84 bd 29 2d 8f 3d 40 5a 4d 3d
       -0.026381131 -0.064900786 0.069910355 0.050134897
0000f0 a1 0f f0 3c 25 24 a7 3c 91 45 69 3d 09 0e 68 bc
       0.029304327 0.020402977 0.05695111 -0.0141635025
000100 18 64 58 bd a4 53 33 3c 50 f5 02 39 4a 58 ce bc
       -0.05282983 0.010945234 0.00012489152 -0.025188584
000110 d4 9d 5e 3d 76 23 ad 3c 1d d7 de 3c d1 4e d4 3c
       0.054349735 0.021135073 0.027202183 0.025916489
000120 f9 a9 a6 bc 10 19 c1 bc 82 46 bb 3c c8 35 ba bc
       -0.020344721 -0.023571521 0.02286077 -0.022730723
000130 12 38 88 3d f1 86 d0 bc 23 cd 99 3d 4a 31 be bc
       0.066513196 -0.02545497 0.0750983 -0.023216862
000140 74 c6 ba 3b 8e ed 78 bc 55 cc 2c 3c ae 71 70 3d
       0.005699927 -0.015193356 0.010546763 0.058702163
000150 f4 32 7a bd 45 0e 69 3d d9 88 a5 bc de bf a7 3d
       -0.06108375 0.056898374 -0.020206856 0.08190893
000160 a3 bf ab 3c f7 13 95 3d 43 c4 10 bd 03 d1 b0 bd
       0.020965403 0.072791986 -0.03534342 -0.08633616
000170 dc 3f 44 3d a7 fd 00 bd d5 86 95 3d 09 ce dc bb
       0.047912464 -0.0314919 0.07301108 -0.0067384285
000180 6e 1d 3b 3d 72 05 a9 3d 57 62 f9 bb 15 73 2f bd
       0.045682363 0.08252992 -0.0076106 -0.04283436
000190 c1 68 2c bd 0a 45 a4 3d ef 60 83 bd d4 df 1d bd
       -0.04209209 0.08020981 -0.06414973 -0.038543537
0001a0 22 cb 99 bd 66 ec 97 3c 8c fd 53 3d 37 12 fc 3b
       -0.07509448 0.01854534 0.051755473 0.007692601
0001b0 fe d0 28 3d ea b3 04 bd 79 3a ab bd 1a 0f 0b bd
       0.041214935 -0.032398142 -0.08360762 -0.03394995
0001c0 76 f0 73 bd 64 5b 58 3d 83 b6 68 bd c4 fc ba 3c
       -0.059555493 0.052821532 -0.05681468 0.022825606
0001d0 ca fd 52 bd a7 23 a9 bd a5 60 49 3d 19 1f 49 bd
       -0.051511563 -0.08258753 0.049164433 -0.049101923
0001e0 c7 bc 66 bd 0e 6e 14 3c f4 d9 41 bd 44 ca 8a bd
       -0.056332376 0.009059442 -0.047326997 -0.0677686
0001f0 19 63 05 3d bb aa 1f 3d b9 59 dd 3c fc 43 41 3d
       0.03256521 0.03898118 0.027020322 0.047183976

layer3.weight f4 [4, 128]
000000 55 ea 90 bd 1f 3c 0d 3d 1b 8c 6a 3d 3e 27 ab 3d
       -0.07075945 0.034481164 0.05726252 0.08357094
000010 f3 90 eb 3c 2f 1e 39 3d e2 ca 58 3d b1 b8 53 bd
       0.02875564 0.0451948 0.05292786 -0.051689807
000020 d2 7e 92 bd a6 2b 9c ba 23 97 00 3d 82 74 08 bd
       -0.07153095 -0.0011914864 0.031394135 -0.033314236
000030 9a 6d 3a 3d 4b 86 5a 3d a2 a3 68 3d f6 b4 ad 3d
       0.04551468 0.053350728 0.056796677 0.08481781
000040 7e d8 4b bd 59 6a 63 bb dc f5 1c 3d d3 8d 9f bd
       -0.04976701 -0.003470084 0.038320407 -0.07790723
000050 da 1c 8d 3d be 1d b5 3d b1 da 8a 3c 78 32 15 3d
       0.068902686 0.088435635 0.016949983 0.036425084
000060 15 44 3c bd d0 22 52 3d f8 cc 9f 3d 22 d9 91 bd
       -0.045963366 0.05130273 0.078027666 -0.07121493
000070 4f f8 11 3d 63 ba 60 3d bf 39 34 3d 80 4b a8 3d
       0.035637196 0.054865252 0.044000383 0.082175255
000080 fb e5 d7 bc 10 a2 94 3d 1a 68 4e 3c f4 15 f7 3c
       -0.02635478 0.072574735 0.012598062 0.030161835
000090 a4 38 4a bd cf 7e 28 3d 67 8b 04 bd c5 fc 6e bd
       -0.049370423 0.04113656 -0.032359507 -0.05834653
0000a0 c4 ab a2 3d 15 b8 0b 3d f5 19 bd 3c 24 b1 7f 3d
       0.07942918 0.0341111 0.023083666 0.062424794
0000b0 f4 7d 1b bd 4e 14 81 bd 14 97 b9 bc 34 af 90 bc
       -0.037961915 -0.06302701 -0.022655047 -0.017661668
0000c0 b4 4f b9 bb eb 33 10 bd e0 9a b7 3c 30 de 1e 3d
       -0.0056552533 -0.035205763 0.022412717 0.038786113
0000d0 2a 24 96 3c 12 9f b5 3b 7c 3c 00 3c 08 29 77 bd
       0.018327791 0.0055426443 0.007826921 -0.060341865
0000e0 e0 1f f2 bc c3 ea b3 3d 85 65 84 bd c6 88 ed bc
       -0.029556215 0.087850116 -0.06464676 -0.028995883
0000f0 b5 66 b6 bb b7 08 29 bd 52 d3 44 bd 46 0f a9 3d
       -0.005566443 -0.041268077 -0.048053093 0.08254866
000100 b3 bd 16 bd d3 d3 5a bd 21 7c 0b bd f1 78 86 bd
       -0.036802005 -0.053424668 -0.034053925 -0.065660365
000110 99 96 4e bd f5 55 60 bd d7 a1 70 bd 77 f1 8b bd
       -0.05043659 -0.054769475 -0.058748093 -0.06833165
000120 fd 46 69 bd fb 74 49 bd bc c3 17 bd b3 12 93 3d
       -0.056952465 -0.049183827 -0.0370519 0.07181301
000130 3a f9 87 bd ee 61 c2 3d 18 c2 c7 3d 6d 1d a5 3b
       -0.06639333 0.09491335 0.09753817 0.005038908
000140 8e e2 03 bd cd 30 d7 3c 0b e9 8c 3d 75 60 42 bd
       -0.03219848 0.026268387 0.06880387 -0.04745527
000150 25 9d 46 3d 27 1b 8e bc 2a bd c6 3d 96 90 ad bd
       0.04848971 -0.017346932 0.09704049 -0.08474843
000160 4c 44 8f bd 58 01 a4 3d 39 a6 3b 3d ff 42 59 bd
       -0.069954485 0.08008069 0.04581282 -0.053042408
000170 16 4b 5c 3d 1d 56 e8 3c 82 43 8b bd 47 30 fd bb
       0.053782545 0.028361375 -0.067999855 -0.0077267024
000180 28 9a 9d 3d 39 74 55 bb 61 ff 08 3d 01 d0 7f bc
       0.076954186 -0.0032570495 0.033446673 -0.015613557
000190 aa 2f a8 bc 9d 27 8f 3d 20 eb a3 bd 9b df 8b 3c
       -0.02053054 0.069899775 -0.08003831 0.017074397
0001a0 88 75 90 bd b1 64 aa 3d 62 e4 a8 3d 21 36 67 3c
       -0.07053667 0.083199866 0.082466856 0.014112026
0001b0 6b f0 dc bc 50 99 71 3b 64 5b 75 bd 6f 65 86 3d
       -0.026970109 0.0036865063 -0.05990161 0.06562316
0001c0 e2 d2 8d bd 68 fd bd 3d a3 c0 27 3d d7 0c 20 3d
       -0.06924988 0.09276849 0.040955197 0.039074745
0001d0 62 ee d3 3b 42 1e ac bd ca 24 a6 3d b8 97 5b 3d
       0.0064676264 -0.08404209 0.08112486 0.053611487
0001e0 91 ae 92 3d d9 34 d7 bc c1 29 68 3c 11 c8 3a bd
       0.07162202 -0.026270317 0.014170111 -0.045600954
0001f0 a2 0f 0e bd 33 cd af 3d 18 ce aa 3d 92 82 9e bd
       -0.034682877 0.085840605 0.083400905 -0.07739748
000200 bb a0 90 3d ab e3 d9 3c bb ab cf bc 0c 3a 80 bd
       0.07061907 0.026597818 -0.025350442 -0.062610716
000210 b1 cf 5d bd 72 45 38 bd aa e3 7c bd 6c 24 14 3d
       -0.054153148 -0.044988103 -0.061740555 0.036167547
000220 fa 77 b3 bd 27 92 5d 3d a8 f8 c1 3d fe cc 2d 3d
       -0.08763118 0.05409446 0.094712555 0.042431824
000230 73 52 c9 bc 7e 50 71 bd 81 09 70 3d e3 c0 6a bd
       -0.024575448 -0.058914654 0.058602814 -0.057312857
000240 88 e7 83 3d 1f 47 3c bd 3f 40 ea 3c e6 bc 74 bd
       0.064406455 -0.045966264 0.028595088 -0.05975046
000250 22 6a 6e bd a3 6b ce 3b eb 7b 41 bd fa 7e 87 3d
       -0.058206685 0.0062994524 -0.047237318 0.06616016
000260 62 28 ce bb cf 47 fa 3c 87 aa 9d bb e8 e8 8a bc
       -0.006291435 0.03055182 -0.004811588 -0.016956761
000270 84 ab c6 bc 3a 8d 8a 3d 43 56 d2 3c 0c 5d 6d bd
       -0.024251707 0.06765218 0.025675898 -0.057950065
000280 ac 76 d2 3c a4 64 69 bd 5b dd 85 bd 37 80 29 3d
       0.025691353 -0.056980744 -0.06536361 0.04138204
000290 05 69 30 bd c1 2b 8d bd bd 9f 86 3d 30 89 2d bd
       -0.043068904 -0.06893111 0.065734364 -0.04236716
0002a0 11 4a 3f bd 4d ef 39 bd 31 6c f0 3c 9b 9b c4 3c
       -0.046701495 -0.04539423 0.029348465 0.02399998
0002b0 c7 d4 ae 3d 64 31 05 bc f7 79 f7 bc bc 22 1c 3d
       0.08536678 -0.008129451 -0.030209525 0.038119063
0002c0 01 02 80 bd 62 33 b7 3d e6 d8 18 bc 96 f0 81 3d
       -0.06250382 0.08945347 -0.009329056 0.06344716
0002d0 10 63 f6 3b 13 da 4a 3d 94 b5 1c bd 5c 23 b9 3c
       0.0075191334 0.049524378 -0.038259104 0.022599868
0002e0 8b 90 83 3c 72 58 9d 3d 2c 90 97 bd 02 d9 cc b9
       0.016060134 0.07682885 -0.074005455 -0.00039071596
0002f0 a3 55 77 3d f3 0b 9c 3d 43 e0 48 3d ef 0c fc 3c
       0.060384404 0.07619467 0.049041998 0.030767886
000300 f4 d4 79 bd 74 5a 8e 3d 08 2c ec bc 30 cb f2 3b
       -0.060994104 0.06950846 -0.02882959 0.0074094757
000310 f6 be 1a 3d 67 41 65 3d 67 87 ab bd d4 d8 9a bd
       0.03777977 0.055970576 -0.08375435 -0.07560888
000320 97 bf 00 3c 0b 55 38 3d 64 18 a3 bd 5c 73 74 bd
       0.007858179 0.04500298 -0.079636365 -0.059680328
000330 56 1e 7a 3c b2 a2 69 3d 61 32 62 3d 18 a7 1a bd
       0.015266022 0.057039924 0.055223826 -0.03775701
000340 26 2e 15 3a 8d 2e a6 3d 89 e5 1b bd 68 1b 1a 3d
       0.00056907756 0.081143476 -0.0380607 0.037623793
000350 87 09 0e 3d c8 cd ae 3c af 14 56 3d 96 f2 9c 3c
       0.034677055 0.021338359 0.05226582 0.019158643
000360 7f c7 a5 3d 3a 12 aa 3d 9b cc bc bc dd bb 09 3d
       0.080946915 0.08304258 -0.023046782 0.033626426
000370 8b 8b 58 3d 7a 29 1d 3c 8e 1f ae bd ef 96 78 3c
       0.052867454 0.009592408 -0.08502112 0.015172704
000380 35 7f a2 bd c9 f1 b8 3c f4 07 96 bd 7e db 19 bd
       -0.07934419 0.02257623 -0.07325736 -0.03756284
000390 ae 45 96 bb 90 f7 6e 3b bf 7d 72 3d be 1b 9d bc
       -0.004585943 0.0036463477 0.059201952 -0.019178268
0003a0 d2 94 b7 bc 5b 83 f9 3c 32 22 08 bd cd 05 8f bb
       -0.02240983 0.030458143 -0.033235736 -0.004364705
0003b0 97 02 b4 3d 4e 90 90 3c 0a 92 82 3d 60 47 b7 3d
       0.087895565 0.017646935 0.06375511 0.089491606
0003c0 82 8f 18 3d cd 0f aa 3d 6c db 68 bd b9 06 5b ba
       0.037246235 0.08303795 -0.056849882 -0.0008355189
0003d0 8e 67 39 3d fc 2a 2a bc d6 65 9c bc 74 12 68 3d
       0.045264773 -0.010386225 -0.019091528 0.056658223
0003e0 88 94 74 bc a5 22 16 bb 12 3f d2 3b 6d 5b 21 bd
       -0.014927991 -0.0022908833 0.00641621 -0.03939383
0003f0 f4 e4 35 3b 96 bd 4a 3c fa 85 d1 3c e0 b9 cd bc
       0.0027754875 0.012374302 0.02557658 -0.025113046

layer3.bias f4 [4]
000000 e4 21 93 3d 30 5d 59 3d 35 67 90 3d a0 4c 9e bd
       0.071841985 0.053067386 0.07050935 -0.07729459
