models/policy_net5.pth (torch, 75888 bytes, 6 tensors)

layer1.weight f4 [128, 9]
0.197569 0.12984045 -0.11766753 0.018218923 0.017822627 0.15875375 0.33244482 -0.16070418
0.060120504 -0.27656356 -0.0059939674 -0.01686257 -0.038531628 0.08309255 -0.08375413 0.11093042
-0.10111731 -0.04944945 0.13600372 -0.32572934 0.19554205 -0.15680528 -0.1803994 -0.22338301
-0.3117682 0.15034324 -0.24285074 -0.14288773 -0.2187627 -0.14856805 0.14068389 0.19021077
-0.13530572 -0.097156845 -0.31178138 0.10651561 0.2586061 0.2809652 -0.22534873 -0.14092948
0.21833901 -0.28925464 0.005675565 -0.10397718 0.15973778 -0.21886466 0.058089346 -0.2611604
0.16733693 -0.23806807 -0.23517168 -0.1183995 0.16097064 0.27956322 0.28427324 -0.29625547
0.09343391 -0.094984494 -0.15078987 -0.15036222 0.12953462 0.2506637 -0.09759129 -0.20788799
0.25351363 0.09687706 0.16669689 -0.17252694 -0.29407507 -0.16084208 0.035857767 -0.18211764
-0.06493267 -0.17977542 0.26958823 -0.31671205 -0.32639793 0.23522046 -0.09944676 0.101337776
0.14453551 -0.25426787 -0.06896316 -0.26565892 0.08049999 0.20087193 0.024067027 -0.22467713
0.25562057 -0.20763926 -0.32041433 -0.093390904 0.13565145 0.18905552 0.09115863 0.2634833
-0.15365812 -0.121721365 0.2985799 0.03460668 0.24399716 0.056714784 -0.13323283 0.15721993
0.10715879 0.06565305 -0.1791731 -0.2204402 -0.31733128 0.09522601 0.11376335 0.19365747
-0.11562678 -0.12590542 -0.25036076 -0.17757899 -0.30137244 -0.031533416 -0.25140682 -0.282947
-0.1649013 0.12666251 0.16286246 0.025015835 0.17083648 -0.32195553 0.25477868 0.21240304
-0.19902907 -0.13765693 -0.172873 -0.1558191 0.2903202 0.26052338 0.1879042 -0.07338999
0.043691494 0.20008956 0.19763593 -0.12257521 0.09611408 0.3322584 0.30975816 0.07940734
0.30479833 0.21922998 -0.0649546 -0.28615394 -0.2192592 -0.25580105 -0.29729813 -0.008810228
-0.18308856 0.2878029 0.100616716 0.061067972 0.23746108 -0.31739184 -0.22952025 0.124160916
-0.19741808 0.25774613 -0.039526362 -0.2745457 0.06097054 0.12489495 0.099287614 -0.04173835
-0.15662293 0.0851894 -0.27427396 -0.0018311812 -0.23136978 -0.17899896 0.25204656 -0.21896946
0.13451314 0.30559257 0.26483527 0.019020509 0.27224374 -0.0144223645 -0.1978905 -0.11195125
0.062284146 0.06194198 0.066296816 -0.14588766 -0.19385493 -0.17967008 0.16237949 0.09326499
0.02201683 0.06448122 -0.21749891 -0.1824457 -0.05660141 -0.29387075 0.14911662 -0.023628017
0.15810572 -0.042173192 0.015531572 0.18786821 -0.07313504 0.120222285 0.27856845 -0.10591704
0.0037664138 0.11434305 0.045581087 -0.10342544 -0.12474457 0.005660573 -0.22919676 0.11560801
0.0005492157 0.07182276 -0.27097768 0.25854558 -0.17487486 -0.18466976 0.023458082 0.34369335
0.2386213 -0.31789812 -0.14536192 0.30304345 -0.09949356 0.006128495 -0.21911488 0.30088183
0.009895173 -0.08970483 -0.05250726 0.16601066 -0.1933191 -0.19128288 0.1724625 -0.12115118
0.114068896 -0.2500911 -0.039145846 0.012082527 -0.19414367 0.16578682 -0.049822725 -0.09381879
0.060515847 -0.019232733 0.22649275 -0.26376322 -0.17632619 -0.016424892 0.026884662 0.23547986
00000000: 874f 4a3e e5f4 043e adfb f0bd da3f 953c
00000010: c200 923c 5890 223e 3536 aa3e a38f 24be
00000020: eb40 763d bd99 8dbe 0b69 c4bb 5f23 8abc
00000030: 57d3 1dbd 6d2c aa3d 4987 abbd 7d2f e33d
00000040: 9816 cfbd 828b 4abd 8f44 0b3e ffc5 a6be
00000050: 2d3c 483e 9091 20be 9fba 38be 84be 64be
00000060: 15a0 9fbe 94f3 193e ddad 78be 2951 12be
00000070: 5403 60be 3922 18be 700f 103e 9dc6 423e
00000080: 958d 0abe 2bfa c6bd cfa1 9fbe db24 da3d
00000090: 0568 843e acda 8f3e d1c1 66be d14f 10be
000000a0: 4394 5f3e 2f19 94be 17fa b93b fdf1 d4bd
000000b0: 4d92 233e 0f1e 60be 18ef 6d3d d1b6 85be
000000c0: 5f5a 2b3e 1ec8 73be d8d0 70be 707b f2bd
000000d0: 7dd5 243e e922 8f3e 438c 913e ccae 97be
000000e0: 475a bf3d 3b87 c2bd a968 1abe 8ef8 19be
000000f0: b9a4 043e fe56 803e f1dd c7bd 97e0 54be
00000100: 8acc 813e 7b67 c63d 97b2 2a3e e7aa 30be
00000110: 0291 96be c9b3 24be 98df 123d 0c7d 3abe
00000120: 6bfb 84bd 0c17 38be 7807 8a3e 1528 a2be
00000130: a11d a7be a2dd 703e beaa cbbd 2e8a cf3d
00000140: 1e01 143e 662f 82be 8f3c 8dbd 7204 88be
00000150: 2edd a43d 5fb1 4d3e 3728 c53c c311 66be
00000160: b3e0 823e 639f 54be 590d a4be bb43 bfbd
00000170: 37e8 0a3e c597 413e 60b1 ba3d 48e7 863e
00000180: 8e58 1dbe 0d49 f9bd 77df 983e bcbf 0d3d
00000190: 64da 793e c34d 683d 306e 08be 43fe 203e
000001a0: 1176 db3d 1b75 863d 2779 37be 13bb 61be
000001b0: 3f79 a2be db05 c33d c2fc e83d 254e 463e
000001c0: bccd ecbd 5aed 00be 492f 80be 44d7 35be
000001d0: 7d4d 9abe 2f29 01bd 65b8 80be 6ede 90be
000001e0: e3db 28be d1b3 013e 6bc5 263e 02ee cc3c
000001f0: c2ef 2e3e 5bd7 a4be 5a72 823e 2f80 593e
00000200: 47ce 4bbe f0f5 0cbe 9f05 31be 0b8f 1fbe
00000210: d9a4 943e 5263 853e f569 403e 7e4d 96bd
00000220: daf5 323d 47e4 4c3e 1361 4a3e b608 fbbd
00000230: 75d7 c43d c61d aa3e 9f98 9e3e 51a0 a23d
00000240: 870e 9c3e d37d 603e eb06 85bd c582 92be
00000250: 7c85 60be 5bf8 82be 7637 98be c658 10bc
00000260: 917b 3bbe e75a 933e 2310 ce3d 6922 7a3d
00000270: ff28 733e 2f81 a2be 5b07 6bbe 1448 fe3d
00000280: f727 4abe 4df7 833e 65e6 21bd 4191 8cbe
00000290: 3fbc 793d ecc8 ff3d 4e57 cb3d d5f5 2abd
000002a0: c361 20be c877 ae3d a36d 8cbe 3f04 f0ba
000002b0: 33ec 6cbe 814b 37be 3f0c 813e 8839 60be
000002c0: d0bd 093e a176 9c3e 7d98 873e e6d0 9b3c
000002d0: 8863 8b3e c84b 6cbc cfa3 4abe b246 e5bd
000002e0: a91d 7f3d e0b6 7d3d a0c6 873d 9363 15be
000002f0: e881 46be 6ffb 37be cf46 263e b701 bf3d
00000300: a45c b43c bb0e 843d 09b8 5ebe 0cd3 3abe
00000310: e1d6 67bd 3a76 96be 07b2 183e 8b8f c1bc
00000320: 77e6 213e ccbd 2cbd 2278 7e3c 8660 403e
00000330: d3c7 95bd 1a37 f63d 86a0 8e3e 08eb d8bd
00000340: f0d5 763b b02c ea3d 3cb3 3a3d b8d0 d3bd
00000350: 157a ffbd 547c b93b 8eb2 6abe e4c3 ec3d
00000360: 3ef9 0f3a d017 933d 96bd 8abe 1660 843e
00000370: 6512 33be 121a 3dbe 2a2b c03c 93f8 af3e
00000380: 2459 743e 8bc3 a2be c1d9 14be 8328 9b3e
00000390: 48c3 cbbd 8bd1 c83b a75f 60be 2f0d 9a3e
000003a0: 5d1f 223c 2ab7 b7bd da11 57bd b3fe 293e
000003b0: 71f5 45be a9df 43be 029a 303e 1c1e f8bd
000003c0: f49c e93d f10b 80be 6557 20bd cbf5 453c
000003d0: 99cd 46be 05c4 293e ea12 4cbd 1124 c0bd
000003e0: 77df 773d f78d 9dbc b7ed 673e f90b 87be
000003f0: da8e 34be 7f8d 86bc 393d dc3c a221 713e

layer1.bias f4 [128]
-0.16191545 -0.1282167 0.08521548 0.27530187 0.14095892 -0.056039784 0.26088673 0.10480606
-0.084304884 0.26884276 -0.27749118 -0.21771033 -0.0651541 -0.115451664 -0.03100799 0.21476589
0.25962144 -0.030416943 -0.054593895 0.19664812 0.32195204 0.22077756 -0.20964782 0.2691394
0.30351436 -0.18114327 -0.26857203 0.02114696 -0.16235848 -0.20804816 0.19629622 0.1126614
0.18928564 -0.03424656 -0.16889124 -0.042444035 0.22719742 -0.29681146 0.15225706 0.030425593
0.018014742 -0.09063265 0.119981796 0.14037848 0.24484783 -0.1750052 -0.104888335 0.16933295
0.14725946 -0.12359053 0.22525375 -0.32215396 0.18400425 -0.20333281 0.28699192 -0.0787772
0.09891497 0.27683902 -0.24901913 0.296357 0.08816133 -0.26461774 0.18065676 -0.21599898
0.21617727 -0.0854516 -0.27059963 -0.15585628 0.14799249 -0.22008266 0.09844314 -0.30843613
-0.2949856 0.3369306 -0.12193737 0.1474202 0.1797375 -0.13315557 0.18264353 -0.24874718
-0.013785296 -0.11125194 -0.07642667 -0.21200557 -0.24439469 0.30640712 -0.09429511 0.31060618
-0.14476776 0.27929702 -0.2983898 0.07430233 0.01761715 -0.03732287 -0.26240084 -0.08480409
-0.21370444 0.25123 -0.14264897 -0.19533138 -0.051309235 0.083033614 -0.1547312 0.0996293
-0.08765805 0.186359 -0.31463534 0.21484107 0.113090836 -0.3067323 -0.06926342 -0.2791967
0.29513854 -0.28994045 -0.09823447 -0.19961467 -0.036166944 -0.0080233775 0.15999006 -0.21069641
-0.23175043 0.23173144 -0.2913825 0.02419996 -0.15805668 0.26616538 0.28830466 -0.15517993
00000000: 2acd 25be 3d4b 03be 7485 ae3d 5ef4 8c3e
00000010: 8957 103e f989 65bd f292 853e 8fa4 d63d
00000020: 0aa8 acbd c2a5 893e 5313 8ebe 75ef 5ebe
00000030: 836f 85bd ec71 ecbd 7804 febc 97eb 5b3e
00000040: 1aed 843e f42c f9bc d99d 5fbd 205e 493e
00000050: e6d6 a43e 8313 623e ebad 56be a4cc 893e
00000060: 3c66 9b3e 9f7d 39be 4682 89be 643c ad3c
00000070: 4d41 26be 940a 55be e001 493e 05bb e63d
00000080: 18d4 413e 1f46 0cbd d3f1 2cbe ccd9 2dbd
00000090: 71a6 683e acf7 97be 46e9 1b3e 183f f93c
000000a0: a793 933c 9c9d b9bd 04b9 f53d 60bf 0f3e
000000b0: 64b9 7a3e 9034 33be b2cf d6bd 9e65 2d3e
000000c0: 2fcb 163e 081d fdbd eba8 663e 5df1 a4be
000000d0: 9c6b 3c3e 7a36 50be 9bf0 923e f155 a1bd
000000e0: ef93 ca3d d8bd 8d3e dffe 7ebe 1bbc 973e
000000f0: ed8d b43d fa7b 87be 16fe 383e d62e 5dbe
00000100: 935d 5d3e 4001 afbd 098c 8abe ca98 1fbe
00000110: 588b 173e 595d 61be 8f9c c93d 57eb 9dbe
00000120: 5a08 97be 2b82 ac3e 4dba f9bd 52f5 163e
00000130: 1b0d 383e ef59 08be e806 3b3e 95b7 7ebe
00000140: b9db 61bc 0fd8 e3bd 9685 9cbd fd17 59be
00000150: 9a42 7abe 65e1 9c3e cb1d c1bd c607 9f3e
00000160: 003e 14be 0500 8f3e 8cc6 98be d22b 983d
00000170: d751 903c dedf 18bd 6759 86be c4ad adbd
00000180: 56d5 5abe 38a1 803e 9212 12be f304 48be
00000190: a229 52bd 870d aa3d db71 1ebe 720a cc3d
000001a0: 1086 b3bd e5d4 3e3e e217 a1be 4cff 5b3e
000001b0: 2b9c e73d 040c 9dbe fbd9 8dbd dff2 8ebe
000001c0: 661c 973e 1373 94be 272f c9bd ca67 4cbe
000001d0: ca23 14bd 7c74 03bc 6fd4 233e cdc0 57be
000001e0: fc4f 6dbe 024b 6d3e 1630 95be ff3e c63c
000001f0: 9cd9 21be d446 883e ab9c 933e 7de7 1ebe

layer2.weight f4 [128, 128]
-0.04889781 -0.07477924 -0.008707255 -0.02462115 -0.03682116 0.0012461577 -0.027850563 -0.0049332962
0.04903399 0.0250195 0.08159974 -0.0062916363 0.007107113 -0.027006002 -0.06620332 0.0015555474
-0.03213111 0.08757881 -0.040475626 0.06834069 -0.079143435 0.079192966 0.07913247 0.05388641
0.03955951 0.030880911 -0.08272035 -0.070941895 0.022927884 -0.06421944 -0.015770352 0.031940807
-0.01204023 -0.013891646 -0.079990335 -0.039014723 -0.07599872 0.071653716 -0.08518465 0.064761534
0.02563646 -0.045155596 -0.07766862 -0.0133954 0.010593224 0.06637028 0.017021468 0.058776252
-0.027503734 -0.028515663 -0.040109728 0.07640343 -0.04411501 0.040050145 0.056234982 -0.06073629
-0.0599401 0.07268176 0.08254823 -0.05502358 -0.058348194 -0.034720454 0.0072740912 0.035563625
0.0022621392 -0.03058554 0.0043186317 0.010149066 0.041859638 0.00956214 -0.07980351 0.049192104
0.007299885 -0.050117407 -0.02508599 0.085966475 0.06863332 0.026258606 -0.08516905 -0.008832915
0.009424647 -0.060527578 -0.069668114 0.04079793 8.21722e-05 -0.06559128 -0.015261664 0.0027958723
-0.015286668 -0.028220652 -0.023298716 0.08561542 -0.04779687 0.037463248 -0.04863534 -0.069126025
0.08465283 0.07762161 -0.036083225 -0.084932484 -0.04386994 -0.0022365465 -0.001060618 -0.06927373
0.08770139 0.06283197 -0.055119917 0.020001302 0.07480509 -0.053452652 -0.06385528 0.07682679
0.030778406 -0.04035304 -0.083617374 0.0021742187 0.04396435 -0.03362026 -0.05668525 -0.050155297
0.008566103 -0.03618782 0.03699571 0.011111204 -0.073185824 -0.007844894 -0.061208125 -0.08097612
-0.024430243 0.021044647 0.056225102 -0.020088347 -0.039084136 0.035483018 -0.0061688996 0.045462735
0.07386341 0.05687165 0.034864064 -0.011663909 -0.011810194 -0.03839425 -0.06088452 -0.07262613
0.06805131 -0.08489071 0.034730244 -0.07955654 0.017419955 0.0029881846 0.024071692 -0.040471885
-0.0443645 0.012378352 0.012363269 0.0014143982 0.07259563 0.0031595905 -0.069118515 -0.069741674
0.059231214 0.053461444 0.02923233 0.007589053 0.049557026 0.052585274 0.05583502 -0.018307667
-0.06249977 0.026629562 -0.011480943 0.0122572435 -0.060619086 0.041824337 0.016599251 -0.06567324
0.00590009 -0.031735886 0.022623308 -0.0061773765 -0.060085107 -0.059469722 -0.044708744 0.014875464
-0.048618134 -0.03839797 0.03485498 0.0649049 0.08661554 -0.021228574 -0.015604881 -0.076351374
-0.05760088 0.07841122 0.07677751 -0.061483163 -0.023659801 -0.034831733 0.06323165 -0.015408567
0.02343182 -0.018610876 -0.07521177 -0.050518647 -0.0051025213 -0.086508274 -0.032875422 0.037883848
0.042469002 -0.059852466 0.06528075 -0.04163066 -0.06668461 -0.044330128 0.038115934 0.06477189
-0.026685549 -0.042468682 -0.06296603 0.05518004 -0.076501176 0.018421683 -0.0652688 -0.085782684
0.05510443 -0.013710299 0.07205234 -0.024704393 0.024979997 -0.049873766 0.048103873 -0.05001143
0.08418694 0.08361979 -0.056180626 -0.002093274 0.087101586 -0.052339863 0.04192954 0.085205145
-0.07634906 0.029490627 -0.0045270054 -0.029708438 0.003545482 0.0801463 -0.07764404 0.08311944
0.027706886 0.045590915 -0.033171702 -0.03416893 0.04117037 -0.045620583 -0.0035269468 0.0152012175
00000000: 1249 48bd dc25 99bd e0a8 0ebc 4bb2 c9bc
00000010: c9d1 16bd 1d56 a33a dd26 e4bc 7da7 a1bb
00000020: ddd7 483d b2f5 cc3c c41d a73d 122a cebb
00000030: c9e2 e83b b13b ddbc 9b95 87bd 82e3 cb3a
00000040: e99b 03bd 855c b33d c5c9 25bd 34f6 8b3d
00000050: f415 a2bd ec2f a23d 3410 a23d ffb7 5c3d
00000060: 2709 223d f7f9 fc3c 4969 a9bd fc49 91bd
00000070: 42d3 bb3c 7b85 83bd d330 81bc 5dd4 023d
00000080: 6344 45bc c999 63bc f9d1 a3bd e7cd 1fbd
00000090: 38a5 9bbd 2fbf 923d 4a75 aebd b2a1 843d
000000a0: 8e03 d23c 13f5 38bd ba10 9fbd 6178 5bbc
000000b0: 348f 2d3c 24ed 873d 9b70 8b3c 5ebf 703d
000000c0: 834f e1bc ae99 e9bc 194a 24bd 6779 9c3d
000000d0: f1b1 34bd 9f0b 243d a756 663d 9ec6 78bd
000000e0: c083 75bd 2dda 943d 0c0f a93d 6860 61bd
000000f0: 84fe 6ebd 0937 0ebd 805b ee3b 2aab 113d
00000100: 6640 143b 878e fabc 4f83 8d3b 4548 263c
00000110: 0375 2b3d 86aa 1c3c 0670 a3bd a97d 493d
00000120: e033 ef3b e947 4dbd 2281 cdbc 310f b03d
00000130: a08f 8c3d 4a1c d73c 1c6d aebd eeb7 10bc
00000140: d669 1a3c c4eb 77bd 28ae 8ebd bb1b 273d
00000150: dd53 ac38 b954 86bd 0f0c 7abc f43a 373b
00000160: ef74 7abc ff2e e7bc f3dc bebc 2357 af3d
00000170: a7c6 43bd 1073 193d da35 47bd f291 8dbd
00000180: 775e ad3d 14f8 9e3d 01cc 13bd 15f1 adbd
00000190: f7b0 33bd 0693 12bb 6f04 8bba 63df 8dbd
000001a0: c99c b33d 0cae 803d 6cc5 61bd c5d9 a33c
000001b0: 6933 993d 2bf1 5abd 8fc6 82bd 5d57 9d3d
000001c0: ff22 fc3c 3b49 25bd 963f abbd 567d 0e3b
000001d0: f613 343d 66b5 09bd cb2e 68bd a46f 4dbd
000001e0: d758 0c3c ae39 14bd d088 173d c40b 363c
000001f0: 73e2 95bd df87 00bc 5fb5 7abd cfd6 a5bd
00000200: ef21 c8bc d365 ac3c 4b4c 663d 5190 a4bc
00000210: b016 20bd a456 113d 7b24 cabb 2237 3a3d
00000220: b345 973d 3ff2 683d 9fcd 0e3d fb19 3fbc
00000230: 8b7f 41bc 4a43 1dbd 0c62 79bd 02bd 94bd
00000240: 7c5e 8b3d 2edb adbd 4d41 0e3d 8aee a2bd
00000250: 4bb4 8e3c 6bd5 433b ff31 c53c d9c5 25bd
00000260: 8db7 35bd 92ce 4a3c 4f8f 4a3c 5463 b93a
00000270: 05ad 943d 2211 4f3b 028e 8dbd b9d4 8ebd
00000280: 6e9c 723d 63fa 5a3d a478 ef3c 97ad f83b
00000290: 4ffc 4a3d a863 573d 43b3 643d f6f9 95bc
000002a0: c2ff 7fbd 3d26 da3c 911a 3cbc 9bd2 483c
000002b0: b84b 78bd ff4f 2b3d 27fb 873c b17f 86bd
000002c0: 8b55 c13b 7dfd 01bd 8454 b93c 976b cabb
000002d0: cd1b 76bd 8696 73bd 8420 37bd 38b8 733c
000002e0: cf23 47bd 3147 1dbd 18c4 0e3d dcec 843d
000002f0: 7d63 b13d 8ce7 adbc 9dab 7fbc 1c5e 9cbd
00000300: e6ee 6bbd 1096 a03d 873d 9d3d c5d5 7bbd
00000310: 33d2 c1bc b8ab 0ebd 987f 813d 3774 7cbc
00000320: 17f4 bf3c d675 98bc a108 9abd a4ec 4ebd
00000330: 0d33 a7bb 402b b1bd 61a8 06bd 182c 1b3d
00000340: faf3 2d3d dc27 75bd eab1 853d e984 2abd
00000350: f191 88bd 8293 35bd 741f 1c3d 20a7 843d
00000360: a79b dabc a4f3 2dbd 55f4 80bd 7704 623d
00000370: a6ac 9cbd 12e9 963c a6ab 85bd d5ae afbd
00000380: 2fb5 613d 29a1 60bc 2d90 933d de60 cabc
00000390: daa2 cc3c 6f48 4cbd 9108 453d c9d8 4cbd
000003a0: 346a ac3d da40 ab3d a81d 66bd 4f2f 09bb
000003b0: 5162 b23d 5362 56bd 4fbe 2b3d 0980 ae3d
000003c0: e55c 9cbd 5496 f13c 4657 94bb 1c5f f3bc
000003d0: 515b 683b be23 a43d d703 9fbd 863a aa3d
000003e0: 8df9 e23c 8abd 3a3d 0ddf 07bd b8f4 0bbd
000003f0: 43a2 283d a6dc 3abd 5924 67bb 870e 793c

layer2.bias f4 [128]
-0.0039333175 -0.0643911 0.032912344 -0.041745868 -0.036993396 0.023387458 0.058276378 -0.059821732
0.05500662 0.008582539 -0.005072894 -0.057322517 0.025696348 0.06828512 0.08023271 0.09003477
-0.009328714 0.06763232 0.030562988 -0.019940082 -0.07252842 -0.012538855 -0.03259095 0.08513451
-0.06562905 0.06305392 -0.006189843 0.0709875 0.0063904533 -0.06890507 -0.012381428 -0.01342626
-0.05956637 0.05240777 0.059317373 0.014387687 0.0013303618 -0.048152033 0.013116213 0.0751316
0.07830341 0.051872134 -0.08303438 -0.0052940417 0.10663031 0.052216873 -0.01699101 0.048167083
0.0009033592 -0.045778595 0.038306147 -0.07947515 0.033341836 0.01825386 -0.02094012 -0.035042185
0.03881125 -0.07287648 0.043252807 -0.055202305 -0.06533103 0.059016105 -0.010140113 0.043271765
0.06798972 0.018724184 0.036392502 0.08216706 -0.032822095 -0.033997305 -0.010313965 -0.061181877
0.04833566 -0.041117642 0.07940062 -0.039029185 -0.0641396 -0.008154187 -0.011751841 -0.06555001
-0.051431462 -0.0037206446 0.052019566 0.05860626 0.0550172 0.042672135 -0.01755252 -0.0348511
0.03519427 -0.09184167 -0.034141913 0.021649614 0.07977192 -0.008987283 0.05505815 -0.06141984
-0.06163465 -0.068413384 0.06124701 -0.031164825 0.0152686555 0.05981763 0.05774132 -0.026673758
0.024702102 -0.030796088 0.07466777 -0.06895878 0.017320292 -0.030783517 -0.070035726 0.027996343
0.073376454 -0.03277899 0.0040302435 -0.0042775604 -0.06997793 0.062852606 -0.059697635 0.05845838
0.056624636 0.033473823 0.002013955 -0.036945496 -0.028221508 -0.05035773 -0.058504723 0.026542222
00000000: 0fe3 80bb 7bdf 83bd 18cf 063d b7fd 2abd
00000010: 6386 17bd 0e97 bf3c 36b3 6e3d a207 75bd
00000020: 9f4e 613d c79d 0c3c 853a a6bb 04cb 6abd
00000030: 2681 d23c 12d9 8b3d 0c51 a43d 2664 b83d
00000040: 76d7 18bc d082 8a3d 3b5f fa3c 6259 a3bc
00000050: c889 94bd c56f 4dbc 177e 05bd 015b ae3d
00000060: 8668 86bd 6a22 813d 2bd4 cabb e561 913d
00000070: 0267 d13b 1a1e 8dbd 79db 4abc d1f9 5bbc
00000080: defb 73bd 88a9 563d c6f6 723d 55ba 6b3c
00000090: 895f ae3a 113b 45bd 62e5 563c 99de 993d
000000a0: 8a5d a03d e077 543d ee0d aabd a479 adbb
000000b0: fe60 da3d 5ce1 553d bb30 8bbc d94a 453d
000000c0: 69cf 6c3a 5682 3bbd e8e6 1c3d dec3 a2bd
000000d0: 7391 083d 1e89 953c 9d8a abbc 6588 0fbd
000000e0: 8cf8 1e3d 4440 95bd db29 313d d01b 62bd
000000f0: 46cc 85bd dfba 713d b722 26bc bc3d 313d
00000100: 323e 8b3d 7663 993c 4e10 153d 3447 a83d
00000110: 7670 06bd c240 0bbd e8fb 28bc d999 7abd
00000120: 9dfb 453d f96a 28bd cb9c a23d 11dd 1fbd
00000130: 9f5b 83bd 2499 05bc cb8a 40bc 153f 86bd
00000140: cca9 52bd 0fd6 73bb 7812 553d 1e0d 703d
00000150: b759 613d fac8 2e3d 4dca 8fbc 07c0 0ebd
00000160: de27 103d 7c17 bcbd 64d8 0bbd 885a b13c
00000170: 765f a33d 663f 13bc a884 613d 5f93 7bbd
00000180: 9d74 7cbd 511c 8cbd 25de 7a3d 604d ffbc
00000190: 6229 7a3c 5503 753d 2a82 6c3d ed82 dabc
000001a0: 105c ca3c 1448 fcbc 6aeb 983d 433a 8dbd
000001b0: 49e3 8d3c b72d fcbc e46e 8fbd 9658 e53c
000001c0: 6546 963d 4343 06bd 2210 843b c72a 8cbb
000001d0: 9750 8fbd deb8 803d 8285 74bd 0e72 6f3d
000001e0: 3cef 673d d91b 093d 8ffc 033b 2954 17bd
000001f0: cb30 e7bc e843 4ebd a6a2 6fbd 136f d93c

layer3.weight f4 [4, 128]
0.0058723367 -0.04598126 0.04924515 0.011434218 -0.04951804 -0.0166776 -0.021019207 -0.013484688
-0.028658055 -0.020581791 0.022921523 -0.033910632 -0.022849664 6.20227e-05 0.03653671 -0.015892774
-0.023286296 0.07956526 -0.055921413 0.028595379 0.07621568 0.069062725 -0.07902489 0.11343921
0.022018515 0.058477513 -0.02068227 0.059193607 0.08131331 -0.079907514 0.009836821 -0.058873586
-0.0013503456 -0.031225618 0.017235374 0.03251528 -0.060479987 -0.027927404 0.07572388 -0.065844335
0.05595126 -0.069835424 0.026559763 0.0003477378 0.022209955 0.0707021 -0.06644475 -0.056943968
0.003974965 -0.037317105 -0.053466108 -0.066421 -0.04046235 -0.04710231 -0.0017974582 -0.0038654
0.02827552 0.02656608 -0.010632206 0.058258824 0.023211 -0.05376845 -0.017087625 -0.008250134
0.03112096 0.032995056 0.04752392 0.07023472 0.03719172 0.026643377 -0.06572501 0.042005565
-0.049697045 0.093306385 0.020723607 0.05943688 -0.031164456 -0.051532898 -0.00016025403 -0.017040623
-0.011013065 0.000496667 -0.017015075 0.0022295355 -0.06677188 -0.044224795 0.008015012 -0.04103949
-0.07340841 0.0005231957 -0.07991149 0.013600119 -0.053767618 -0.047050282 -0.05128432 0.06865113
-0.016405286 -0.042160682 0.039669376 -0.07410843 0.025446652 -0.034059476 -0.020621689 -0.07727355
-0.07706706 0.0895164 0.051272556 0.059587292 -0.01002465 -0.058344748 0.036609523 0.107925914
0.006454685 0.00051430514 0.0061649596 -0.029485073 0.0136867175 0.06240208 0.10305179 -0.036025386
0.09397489 0.087161414 -0.08036382 0.08417226 0.034015093 -0.0013215881 0.048321176 -0.053641196
-0.062368408 0.024409613 0.0983972 -0.071598515 0.06222318 0.07402592 0.032606717 0.07154196
0.027059177 -0.05893942 0.03472201 -0.022126213 0.07063333 0.0065950416 0.005058116 0.01790666
-0.03485204 0.105879456 -0.054917127 0.057431757 0.04725701 0.022648286 0.07180657 0.008654609
-0.085558325 0.05125901 0.04672191 -0.053405307 -0.011564496 -0.067736305 0.028404005 -0.019550191
-0.035383165 0.07816683 0.037531108 -0.03271028 -0.027022583 -0.060029924 0.07167386 0.03241704
0.07238189 0.034392547 -0.039987314 0.061241258 0.034076314 0.042045888 0.066080004 0.035641506
0.078409 -0.0588497 0.061074276 -0.0062240083 -0.0367748 0.069458045 -0.08237137 0.02327781
-0.021633953 0.01177759 0.016385322 0.07155368 -0.046712294 -0.029562252 0.051656354 -0.062133517
-0.046999425 0.063149884 0.06937484 0.055637147 0.062667996 0.09616945 0.04481298 -0.07744854
-0.022117637 -0.013417111 0.07732234 0.015347247 -0.050170608 0.052013993 -0.059727535 0.08631521
-0.023140555 0.05592949 0.017196221 -0.020898545 0.0811955 -0.024443088 0.08283532 -0.048781727
0.062259786 -0.07300701 0.05027567 -0.011576484 0.058395363 -0.05831377 0.030616824 0.032726794
-0.0012846981 0.018345678 0.021656029 -0.015022717 -0.022613823 0.003459225 0.01627408 -0.060257096
-0.038688526 0.026299916 0.099059775 0.01653534 -0.043512456 0.07253584 0.107282184 -0.008208234
0.060548868 -0.0054976884 -0.052092712 0.04671574 0.040890124 -0.054970276 0.09545034 -0.0082748225
0.07095824 0.045012705 -0.009919693 -0.0588973 0.08548793 -0.018658573 -0.06654622 0.0029081728
00000000: bb6c c03b d856 3cbd 48b5 493d 9656 3b3c
00000010: 6ed3 4abd 769f 88bc 7930 acbc e1ee 5cbc
00000020: 4cc4 eabc 259b a8bc ebc5 bb3c e0e5 0abd
00000030: 382f bbbc 2f12 8238 84a7 153d 9031 82bc
00000040: e7c2 bebc 1cf3 a23d da0d 65bd db40 ea3c
00000050: f716 9c3d c270 8d3d cdd7 a1bd d152 e83d
00000060: 2c60 b43c 1e86 6f3d dd6d a9bc ff74 723d
00000070: 9887 a63d 8da6 a3bd 9e2a 213c 6e25 71bd
00000080: 14fe b0ba decc ffbc 3331 8d3c be2e 053d
00000090: ddb9 77bd 03c8 e4bc 1f15 9b3d 65d9 86bd
000000a0: 262d 653d e005 8fbd dc93 d93c 9450 b639
000000b0: a7f1 b53c 43cc 903d 2f14 88bd 143e 69bd
000000c0: 6c40 823b d2d9 18bd 47ff 5abd bc07 88bd
000000d0: d9bb 25bd 5aee 40bd b098 ebba a752 7dbb
000000e0: 10a2 e73c 1ca1 d93c b432 2ebc cea0 6e3d
000000f0: ff24 be3c 4e3c 5cbd 59fb 8bbc 922b 07bc
00000100: 62f1 fe3c d325 073d 71a8 423d 39d7 8f3d
00000110: 5856 183d 3643 da3c d69a 86bd 070e 2c3d
00000120: 218f 4bbd 6b17 bf3d 8ec4 a93c 1674 733d
00000130: 9a4c ffbc 2914 53bd dd09 28b9 c798 8bbc
00000140: 2570 34bc c232 023a 3363 8bbc 661d 123b
00000150: b2bf 88bd 0f25 35bd 6651 033c 0619 28bd
00000160: 2657 96bd 1227 093a a3a8 a3bd 09d3 5e3c
00000170: 6f3b 5cbd ccb7 40bd 820f 52bd f798 8c3d
00000180: 6164 86bc aeb0 2cbd 5b7c 223d 29c6 97bd
00000190: 7f75 d03c f381 0bbd d1ee a8bc 9841 9ebd
000001a0: 56d5 9dbd 6054 b73d 2c03 523d ce11 743d
000001b0: 6e3e 24bc e7fa 6ebd def3 153d 4308 dd3d
000001c0: d281 d33b 6fd2 063a 6e03 ca3b ae8a f1bc
000001d0: 413e 603c 5399 7f3d d10c d33d 5b8f 13bd
000001e0: e875 c03d af81 b23d c995 a4bd 8162 ac3d
000001f0: 6953 0b3d 2339 adba 6dec 453d dfb6 5bbd
00000200: 0476 7fbd abf6 c73c 7984 c93d 3ea2 92bd
00000210: bcdd 7e3d e79a 973d 9f8e 053d 9784 923d
00000220: 35ab dd3c 766a 71bd ab38 0e3d 0842 b5bc
00000230: 35a8 903d 381b d83b 8dbe a53b fdb0 923c
00000240: 03c1 0ebd 54d7 d83d c8f0 60bd 903d 6b3d
00000250: 9190 413d e688 b93c 530f 933d 10cc 0d3c
00000260: 3439 afbd f8f4 513d 795f 3f3d 86bf 5abd
00000270: 0379 3dbc 55b9 8abd 84af e83c b927 a0bc
00000280: f0ed 10bd ee15 a03d 38ba 193d 37fb 05bd
00000290: 775e ddbc f0e1 75bd bfc9 923d bbc7 043d
000002a0: f53c 943d 33df 0c3d bdc9 23bd 1dd8 7a3d
000002b0: 9b93 0b3d 4f38 2c3d f454 873d d4fc 113d
000002c0: e694 a03d 620c 71bd 0529 7a3d c4f2 cbbb
000002d0: 2ca1 16bd 0540 8e3d 52b2 a8bd 1bb1 be3c
000002e0: b039 b1bc cbf6 403c 833a 863c bc8a 923d
000002f0: 6455 3fbd 892c f2bc 9d95 533d b77f 7ebd
00000300: 7882 40bd ba54 813d 6514 8e3d c7e3 633d
00000310: 1458 803d 7df4 c43d d18d 373d 579d 9ebd
00000320: 0c30 b5bc 71d3 5bbc 2d5b 9e3d 0573 7b3c
00000330: b27f 4dbd a00c 553d dca4 74bd 07c6 b03d
00000340: 4391 bdbc 5216 653d 17df 8c3c 6d33 abbc
00000350: d449 a63d df3c c8bc 90a5 a93d 59cf 47bd
00000360: 1e04 7f3d b384 95bd dced 4d3d 4bab 3dbc
00000370: fa2f 6f3d 6bda 6ebd 22d0 fa3c 880c 063d
00000380: 5163 a8ba ad49 963c fc67 b13c d821 76bc
00000390: a040 b9bc 2ab4 623b 3851 853c 25d0 76bd
000003a0: dc77 1ebd ec72 d73c dadf ca3d 1f75 873c
000003b0: 1e3a 32bd ac8d 943d c3b6 db3d d47b 06bc
000003c0: 1702 783d f425 b4bb 2b5f 55bd 0159 3f3d
000003d0: 677c 273d 8328 61bd 787b c33d 1f93 07bc
000003e0: 8e52 913d 3e5f 383d 3586 22bc 4c3e 71bd
000003f0: 4c14 af3d ddd9 98bc 6249 88bd 0b97 3e3b

layer3.bias f4 [4]
0.100110956 0.0117086675 0.0759148 -0.015414838
00000000: f906 cd3d b6d5 3f3c 3879 9b3d 848e 7cbc
