models/policy_net3.pth (torch, 75888 bytes, 6 tensors)

layer1.weight f4 [128, 9]
00000000: 20b8 6c3e ba1f 293e d042 a93e 8e6a a43e
00000010: 11d5 88be 3284 8cbe e813 40bd 4f26 eb3d
00000020: 10ac 75be bd64 7d3e 4fa9 7d3e c9b4 283d
00000030: f139 31be 77d3 063e 6982 663e 0fab 0c3e
00000040: f4e4 853e c0a7 323d fd6a 1fbe ea75 68bd
00000050: 1796 4b3e 1fe3 8c3e 771c a0be 69c8 8b3d
00000060: 986a 2abe ca90 993e a97e 2cbe 16aa 023d
00000070: 8ced 07be 1dac a03e fa6e 193e 0b21 96be
00000080: f9c4 9c3e f28b 2bbd d07a 94be a81e ba3b
00000090: c2f9 e03d a22b 8ebe 1c13 4bbe e8de 483e
000000a0: 0e5e fe3c 5628 e23d ea53 4cbe 13f5 6bbe
000000b0: 6200 bfbd fc5a 95ba d328 a23e 0da0 333b
000000c0: c873 7a3e cbc6 71be 2873 80be a9d7 473e
000000d0: ca52 4b3e 9b43 b33d 5a3b 16be 7bbd eebd
000000e0: e3af 9dbe 9c78 003e be74 153e f020 c1bd
000000f0: ad7a 85bc 7568 893e e7e6 343e 8d34 a13e
00000100: a66a b1bd f0c3 b0bd 39bf 9a3e 848c 72bd
00000110: 84ed 80be edd0 e1bc 6d7e 923e 444e d0bd
00000120: 7476 283e 3604 45be b746 843e 124d 12be
00000130: ed7b 8e3e f37c 833e cc22 9f3e dacd 693e
00000140: c2c7 483b c9c5 d5bd 38c5 a13d ece2 94be
00000150: a691 5c3e 148b 9ebe b832 a53c 262f b73d
00000160: 7c3e 4d3e e71c 823e cc04 07be 785b ca3c
00000170: 5cee d13d de94 7cbd 6218 87bd e94b 123e
00000180: e3ee 8b3d 1bcd 5b3e 0be5 353e 0a79 6c3d
00000190: 0f39 05be d75e 85be 5668 043c 0c5e 71bd
000001a0: f743 8f3e b3b7 aa3e 27a7 013e 3a91 263e
000001b0: 5881 3abe b9d8 5ebd a261 6bbe 8d3a a93e
000001c0: f928 963c cd78 8abe 00c9 803e e8a0 f3bd
000001d0: d5f2 17bd f13d 09be 6897 70be 7618 07bd
000001e0: edac 3b3e 94f1 44be 7d77 5fbe a71e 51be
000001f0: 4ad9 113e f921 69be 40a1 6abc f953 9e3e
00000200: a295 e23b 906a 67be 7af9 17be a81c aebd
00000210: 0903 a3be 3650 9e3d 9aab a73c 94d7 10be
00000220: 1a60 9abe c184 983e b718 843e 3a42 893d
00000230: 5c5c 88be eefb fbbc 06c4 43bc 56a5 0abe
00000240: 24c1 30be f020 7a3d d1e8 48bb deda a53e
00000250: ae3a 6c3e 9877 9e3e 62df 99bd a7cc a8bb
00000260: fa80 d3bd dae1 503e 89eb a03e be9e 9c3e
00000270: df2b a53e 17ca b03d a7eb 01be 02f4 4dbe
00000280: 4519 66bd 8944 2bbe 4508 68be 929a 6f3e
00000290: 2c78 603e 60f8 eb3c 6a61 a6be 718f a93e
000002a0: 37a5 96be 0035 f53d 48b0 69be 2633 41b7
000002b0: 6cc9 c3bd e6ca 6f3e e774 9cbe 2d98 8ebe
000002c0: 03a1 4a3e 2010 cc3d 4a5e 8cbd 4655 44bd
000002d0: ac1d 6d3e 123f a03e 9e59 82be 227b 273e
000002e0: 5ce9 523d 8e62 4f3e ce90 1b3e 3fc7 f8bd
000002f0: 80d8 593e faad 66be 0ef8 093c 0230 713e
00000300: 986d b23c 606f 1ebe c417 543c ffa1 8c3e
00000310: 38b9 65be 42af 363e 1c47 173e 6cf6 b93d
00000320: 652b 5dbe 04bd f13d 8569 5cbe 5231 fd3d
00000330: ee9b 41bd f263 59be 445f bbbd c704 98be
00000340: fa1f f33c d5c5 7b3e 6839 8b3e 9426 533e
00000350: 227a 273e 00cb 0abe 1321 8bbe 416a 90be
00000360: c1bc 8d3e 499a e2bd 50a5 383d 6493 88be
00000370: 44eb 9f3e b0be cdbd 31c1 d33c fcc2 793e
00000380: 9b7b 223e 0dc0 4abe f532 7c3e 0a7e 26be
00000390: 7dbe 973e f98a 363e d4fb 8cbe fd2c 173c
000003a0: 8a41 0a3e 8ec7 293e 32b3 593c 60c1 cdbd
000003b0: f6ba 6b3e c476 2a3e d0e7 59be 10dd a2be
000003c0: d371 973e f4c8 8bbe af31 9abe 35c3 1e3e
000003d0: 6b5a eebd f25c 4a3e 72f1 793e 742c 12be
000003e0: 342e 87be 4626 0b3e 19c2 8a3c 6e3e ba3d
000003f0: 50d6 86be 86b7 463c 53ca 59bd dc7f 4f3d
0.23117113 0.16516009 0.33058786 0.32112545 -0.26725057 -0.27444607 -0.046893984 0.11481916
-0.23991418 0.2474546 0.24771617 0.041188035 -0.17307259 0.13166605 0.22510685 0.13737129
0.2615124 0.04361701 -0.15568157 -0.056753077 0.19881473 0.2751703 -0.31271717 0.068253346
-0.16642225 0.29993278 -0.16845192 0.031900488 -0.1327421 0.31381312 0.1498374 -0.29322085
0.30619028 -0.04188151 -0.28999949 0.005679924 0.109851375 -0.27767664 -0.19831508 0.19616282
0.031050708 0.1104285 -0.19953886 -0.23042707 -0.09326245 -0.0011394913 0.3167177 0.002740863
0.2445823 -0.2361099 -0.25087857 0.19515862 0.198558 0.08753129 -0.14671078 -0.11657234
-0.30798253 0.12546009 0.14595315 -0.094301105 -0.016293848 0.26837507 0.17666207 0.31485406
-0.0866292 -0.08631122 0.30224016 -0.059216037 -0.2518121 -0.027565444 0.2861208 -0.10171178
0.16451436 -0.19239888 0.258352 -0.14287212 0.27828923 0.25681266 0.31081235 0.22832432
0.0030636643 -0.10438115 0.078989446 -0.29079378 0.21539935 -0.30965483 0.020165786 0.0894454
0.20043367 0.25412676 -0.13185424 0.024701819 0.102505416 -0.06166541 -0.065964475 0.1428677
0.068326734 0.2146496 0.17763154 0.05773262 -0.13010047 -0.2604892 0.008081516 -0.05892758
0.2798154 0.33343276 0.1266142 0.16266337 -0.18213403 -0.0544059 -0.22986463 0.33052483
0.018330084 -0.2704529 0.2515335 -0.11895925 -0.037096817 -0.13402535 -0.23495257 -0.032982312
0.18327685 -0.1923278 -0.21822925 -0.20421849 0.14243045 -0.22766866 -0.014320672 0.3092344
0.0069148103 -0.22599244 -0.14841262 -0.085015595 -0.31838253 0.07730143 0.020467568 -0.14144737
-0.30151445 0.29788783 0.25800106 0.06702085 -0.26632965 -0.030759778 -0.011948591 -0.13539633
-0.17261177 0.061066568 -0.0030656348 0.32393545 0.2306926 0.30950618 -0.0751331 -0.0051513496
-0.10327335 0.20398656 0.314297 0.3058986 0.32260033 0.086322956 -0.1268755 -0.20112613
-0.056176443 -0.16725363 -0.22659405 0.23398808 0.21920842 0.028804958 -0.32496196 0.3311725
-0.29422924 0.119729996 -0.22821152 -1.1515605e-05 -0.095599025 0.23417243 -0.3055794 -0.27850476
0.19787984 0.09964013 -0.06853922 -0.047932886 0.2315585 0.3129812 -0.25458997 0.16355565
0.05149208 0.2025244 0.15191957 -0.12147378 0.21273994 -0.22527304 0.008420957 0.2355347
0.021780774 -0.15472174 0.012945119 0.27467343 -0.22433937 0.17840293 0.1477322 0.09080204
-0.21598585 0.1180363 -0.21524628 0.12362923 -0.047267847 -0.21229532 -0.0914903 -0.29691145
0.029678334 0.24587186 0.27192235 0.20620185 0.16355184 -0.13554001 -0.2717367 -0.28206065
0.2768307 -0.11064584 0.04507953 -0.2667495 0.3123418 -0.100461364 0.025848957 0.24390787
0.15867464 -0.19799824 0.24628814 -0.16259018 0.2963752 0.17826451 -0.2753588 0.009227035
0.13501564 0.1658003 0.013287352 -0.10046649 0.23020539 0.16646868 -0.21279836 -0.31809282
0.29579028 -0.27301753 -0.3011603 0.15504153 -0.116383396 0.19762018 0.2440851 -0.1427477
-0.26402438 0.13588819 0.016938256 0.09093939 -0.26335382 0.012128716 -0.053171467 0.050659046

layer1.bias f4 [128]
00000000: 7eff 583e 08b4 d73d f3fd 09be a719 bcbd
00000010: fe4b 85be 650f e13c 4209 1abe 7e0b 923e
00000020: 25e3 f13d 180b 0bbe 2955 683e 77ae 843e
00000030: 211c 8bbe c833 91be 7174 04be f092 093e
00000040: 6537 39be 6e74 a33e 06be bf3d 2624 dd3d
00000050: f742 e5bd 6212 4f3e f117 a9be a3f3 3dbe
00000060: 8d5f 0b3e 2961 4b3e 3cb1 b13d 9b53 49bc
00000070: 01cf 9a3e 6eb1 4e3e 94d4 953e 8776 463d
00000080: c23f 91be 8e27 203d 7010 993d 94a4 473e
00000090: 0eaa 6b3d 55c1 8ebe b4d2 f5bd 6a4e acbc
000000a0: bfee 7a3e be21 e3bd d669 0f3e 1279 6c3d
000000b0: 60e6 663e ee76 edbd d567 4abe 9ce3 d93d
000000c0: fa95 353b 8844 6ebe 3865 82bd cb5f debd
000000d0: 332f 9b3e eaaf 83be 3435 93be 8960 18be
000000e0: 8828 a83e c8fb 433e 85c5 8f3e d555 8e3e
000000f0: e43d 7b3d a9dd a93d 3d74 a2be e159 34be
00000100: de40 06be a8ae cd3d b2a0 633e b0af 5fbe
00000110: e832 afbb 6f9e 0dbd 4a43 103d 5b5c 9fbe
00000120: e896 8dbe cebf 443e 82f4 e03d 23e9 5abd
00000130: 36f4 523e e2a1 3dbe f43d 05be 9088 23bc
00000140: 62d3 de3d 2a7b 283e 565b 183d 7c44 39bd
00000150: 8959 82be ca40 6c3e dea9 3e3e 5f4c 8d3e
00000160: bc67 2c3e dfb3 05bd 09b4 7ebe 4285 36be
00000170: 0611 a1be dabc 90be e6e6 f43d 5ae7 383e
00000180: 3472 5d3e 70dd a3bd 1c31 7fbe 36ca 88be
00000190: ee2a 3fbe 02b4 5d3c c424 58be 0fb0 743d
000001a0: 7178 543e da92 fb3d 639c 5f3e aa4f ab3a
000001b0: eb29 a4bd b045 77be c0c2 88be e436 2a3e
000001c0: f8b0 463e 44f8 b1bd d2f2 17be 8a0f 9f3d
000001d0: 144a 81be 40a0 81be ff54 b8bd f1a8 29bd
000001e0: 8d72 62be 8c47 a8be 9ec7 a0bd 0e1e ab3d
000001f0: c7ee 6ebe 60b1 723b 64c1 7ebe 82b0 6e3e
0.21191213 0.10532385 -0.1347578 -0.0918458 -0.2603454 0.027473161 -0.15042594 0.28524393
0.118109025 -0.1357845 0.22688736 0.25914356 -0.27169898 -0.28359818 -0.12935044 0.13434958
-0.18087538 0.31924766 0.09362416 0.107979104 -0.11194413 0.20221856 -0.33026078 -0.18549971
0.13610668 0.19861282 0.08676383 -0.0122879995 0.30236056 0.20184872 0.29263747 0.04845288
-0.28368956 0.039100222 0.07473838 0.19496375 0.057535224 -0.27881876 -0.12003079 -0.021033484
0.24505137 -0.1109042 0.14005217 0.05773265 0.22548819 -0.1159495 -0.19766171 0.10639116
0.0027707801 -0.2326833 -0.06366962 -0.10858115 0.30309448 -0.2572015 -0.28751528 -0.14880575
0.32843423 0.19139016 0.28080383 0.2779986 0.06133832 0.082942314 -0.31729308 -0.17612411
-0.13110682 0.10043079 0.22229269 -0.21844363 -0.0053466447 -0.034574922 0.03522042 -0.3112515
-0.27654195 0.19213793 0.10984136 -0.053444993 0.20600972 -0.18518785 -0.13011914 -0.0099812895
0.10880162 0.16453233 0.03719648 -0.045231327 -0.25458935 0.2307159 0.18619487 0.2759733
0.16836447 -0.03264224 -0.24873365 -0.17824271 -0.314583 -0.28269082 0.11958103 0.18057004
0.21625596 -0.0800122 -0.24921077 -0.26716775 -0.1866872 0.013531687 -0.21107775 0.059738215
0.2074907 0.12283869 0.21837 0.0013070006 -0.08015808 -0.24147677 -0.26711082 0.16622502
0.19403446 -0.08689931 -0.14838722 0.07766636 -0.2525183 -0.25317574 -0.09000587 -0.04142088
-0.2211401 -0.32867086 -0.07850574 0.08355342 -0.23333274 0.0037031993 -0.2487846 0.2330952

layer2.weight f4 [128, 128]
00000000: 966f 05bc 426b 883c eab0 e23c 70b1 793d
00000010: 5932 ab3d d80c bc3a 9bd3 a23d da5d 8abc
00000020: 3205 593d 7e34 a0bc 9035 7e3d 03d2 b0bd
00000030: 6c71 89bd 09aa a0bd 4e7e 6a3d fcd5 cdbc
00000040: 207a ed3a 2dd5 65bd 6145 a13d 2b08 85bd
00000050: ca07 503d be24 03bd 9e9d 723d 57bd b3bd
00000060: 21e9 9ebd 8417 b1bd 857e 3dbd ca9e aabd
00000070: ba11 01bd 02d4 2b3c 254a 693c a295 2abc
00000080: d9e8 a5bd fc63 5c3d 5efe 113d dd2d a3bd
00000090: ae49 a8bd 4eff 8cbd 52d7 663c 28b7 253d
000000a0: 8ec2 debc a998 b03d f24f 60bc ac90 7e3d
000000b0: ed30 a53d 4064 5b3d 1cea 1ebd e840 d6bc
000000c0: 50f4 efbc e037 663d 704a eb3b be80 32bd
000000d0: 8251 08bd 4aa1 a7bc 63ba 833d c6aa c9bb
000000e0: 4db8 a73d 3e4d 12bd 1177 01bd d6dd a3bc
000000f0: 524d 193d 7b14 953d a859 b7bc 2990 1fbd
00000100: 6885 71bc 4509 96bd 0a06 123d 66be 573d
00000110: 742f ad3c 6710 8e3d a26c 22bd f12d 9b3d
00000120: 7f01 aa3d 5f00 42bd 1c7b 8fbd b807 81bd
00000130: 626f 8d3c f21d 8bbc b649 83bd 2537 953d
00000140: 64d5 3bbd a6fc 0d3d 1781 46bd 208e 96bc
00000150: 92cb 1bbd f4bc 3c3d 4df6 34bd c694 553d
00000160: 1b3a 90bd 74bd 683d 7b68 16bd 72f5 ddbc
00000170: 33ae 5abd e500 b1bd 14fe 993c 0c07 f8bc
00000180: aff8 a33d ee75 a4bc 2e1a 0d3b 811c 9b3d
00000190: 949a 38bd 718d 86bd 1028 b2bd 3a8c 78bd
000001a0: 9228 2e3d 8a97 e13c 42d6 703d 3dfe 9bbd
000001b0: 3083 f63c 00c2 6abd 9e27 8cbb 280f af3a
000001c0: abda 9f3d 356b 953d 4a11 503d 3cca 463d
000001d0: ea37 a53c 516a ae3d 8ea5 9fbc b8aa cb3c
000001e0: 0c00 d23c 847b d5bc a25e 64bb 97cc 843d
000001f0: d0bc a2bd c0a8 293d 9cc7 273d 082d 94bd
00000200: bb4c 40bd d82a afbc 2b6c 14bd fd53 8f3d
00000210: c2f3 aabc 60cd 6fba 405e 053d 5214 3dbd
00000220: 3c9c 44bd c868 323c 4d2b 1dbd 3c26 9dbd
00000230: 05ff b33d 561a 8abc d4d6 103c e018 b03c
00000240: 4201 593d a88a 38bc a796 afbd 6003 f23c
00000250: bdbd 9e3d 2acb c63c 6e9a 8d3b 7e49 acbd
00000260: 28e1 3f3d e04f f63c 9a1b 363d 9ada 05bd
00000270: 96b7 39bd fdf9 a23d 949f 8bbd 8423 b0bd
00000280: d617 c5bb a09e b2bd 5174 993d 85e6 43bd
00000290: 1749 9ebd acfb 2b3d a005 fabc 26ad a53c
000002a0: 8c2e b23c 6bc9 903d 5849 793d d689 73bd
000002b0: 68c2 94bc 6286 a8bc ae25 8e3c da08 93bd
000002c0: 9e89 e63c bbb0 b13d 6c5a eb3c 5e17 58bd
000002d0: b6e5 343d 5d2f 48bd aca4 8f3b 72f9 c03c
000002e0: 23c1 823d 61b5 953d f834 353c 591f 84bd
000002f0: 7ea4 87bb 1030 d83c 5816 f53c 6d75 3bbd
00000300: 05a1 843d 56fd 61bd 7c71 5f3d d54f b23d
00000310: 8572 863d 3a24 a13b b8e4 16bd b535 29bd
00000320: ec99 4ebc f1c1 983d d94e 3ebd e17b 9a3d
00000330: 5f0b b03d 22aa 763d 1604 c03b 00e8 6abb
00000340: 8200 1e3d d90a 8cbd 5606 053d 9c6a 163c
00000350: cb13 adbd ec4b 5c3d 32cf c4bc 3299 263c
00000360: 2c5a b9bc 0fff 813d 50fc ff3c a4b4 4bbb
00000370: 48d2 90bd b8ea 8abd c81c 94bd 904b 92bd
00000380: 8bdb 9b3d b79b 4ebd dcc6 80bd ce5d 013b
00000390: dc03 94bb c425 1f3d c099 473d 2685 9f3c
000003a0: ba4a a33b 5c31 9dbd e8ea 2e38 248b 4d3c
000003b0: f93a f83c 62a1 da3c afb5 9dbc 71b7 97bd
000003c0: 6a45 6d3d b0d1 36bc 66f7 a23c 8261 683c
000003d0: 5f7e 90bd d850 94bc 9ced 93bd 63a0 6fbd
000003e0: c157 2abd 10b1 213d 9c3f b13c 9df3 b0bd
000003f0: d29a 313d 0a28 1fbd a22b 243c 94be abbd
-0.00814428 0.016652707 0.02767225 0.060960233 0.083592124 0.001434709 0.07950517 -0.016890455
0.05298347 -0.01955628 0.0620628 -0.086338066 -0.06711087 -0.07844932 0.05724936 -0.02512645
0.0018118061 -0.056111503 0.07874561 -0.064956985 0.05078868 -0.032017462 0.059232347 -0.08776348
-0.077593096 -0.086470634 -0.046263237 -0.08331068 -0.031511046 0.010487558 0.014238869 -0.010411652
-0.08101053 0.05380629 0.035642974 -0.07967732 -0.08217178 -0.06884633 0.014089422 0.040457875
-0.02719238 0.086228676 -0.013690935 0.06214969 0.080659725 0.053562403 -0.038797483 -0.026153997
-0.029291302 0.05620563 0.0071805045 -0.04357981 -0.033280857 -0.02046265 0.06432035 -0.006154391
0.081894495 -0.035718195 -0.03160769 -0.02000324 0.037427254 0.07279297 -0.022381619 -0.03895584
-0.014741279 -0.07325987 0.03565029 0.052671812 0.021140791 0.06936722 -0.03965438 0.07577122
0.083010666 -0.047363635 -0.07005903 -0.063003 0.017265026 -0.016982052 -0.064105436 0.072859086
-0.045857802 0.034664772 -0.048462953 -0.018378317 -0.038035937 0.046078637 -0.044180203 0.052143835
-0.07042333 0.0568213 -0.036720734 -0.027094577 -0.053388786 -0.08642749 0.018797912 -0.030276798
0.08006417 -0.020075765 0.0021530497 0.07573796 -0.045069292 -0.065699466 -0.086990476 -0.060680605
0.04251916 0.02753808 0.058798082 -0.076168515 0.030091852 -0.05731392 -0.0042771837 0.0013355957
0.078053795 0.07295839 0.050797738 0.04853271 0.020168263 0.08516372 -0.019488122 0.024861678
0.025634788 -0.026059873 -0.0034846445 0.06484335 -0.079461694 0.0414207 0.040961847 -0.072351515
-0.046948176 -0.021382734 -0.03623597 0.06998441 -0.020868186 -0.000914773 0.032560587 -0.046161957
-0.04800056 0.01088924 -0.038371373 -0.07673308 0.087888755 -0.016858261 0.0088402815 0.021496236
0.052979715 -0.011263527 -0.085736565 0.029542625 0.077510335 0.024266798 0.004321388 -0.08412455
0.046845585 0.030067384 0.044459917 -0.032679178 -0.045341097 0.07957838 -0.068175465 -0.08600524
-0.0060148044 -0.087216616 0.07492889 -0.047827262 -0.077287845 0.04198806 -0.03052026 0.020224165
0.02175071 0.070696674 0.06086096 -0.059457622 -0.018159106 -0.020571891 0.017351951 -0.07179423
0.028141793 0.08676287 0.02872964 -0.05275666 0.044164382 -0.048873294 0.004383644 0.023556445
0.06384494 0.07309986 0.011059992 -0.064512916 -0.004139482 0.026390105 0.02991788 -0.045766283
0.064760245 -0.05517324 0.054551587 0.08706633 0.065648116 0.0049176486 -0.036839217 -0.041310985
-0.01260994 0.074588664 -0.046461914 0.07543159 0.08595919 0.060220845 0.005859862 -0.003584385
0.038574703 -0.068380065 0.032476746 0.009180691 -0.08451041 0.053783342 -0.02402458 0.010168361
-0.022626005 0.06347477 0.031248242 -0.0031083012 -0.07071358 -0.0678305 -0.07232052 -0.07143319
0.07610234 -0.05044147 -0.062879294 0.001973975 -0.0045170616 0.038854375 0.04873061 0.01947267
0.0049832733 -0.0767543 4.1703606e-05 0.012545381 0.030301558 0.026688281 -0.019251673 -0.074080355
0.057927527 -0.011158392 0.01989336 0.014183404 -0.070553534 -0.018104956 -0.07223055 -0.058502566
-0.041587595 0.0394755 0.021636777 -0.086402155 0.04336054 -0.038856544 0.0100201685 -0.08385959

layer2.bias f4 [128]
00000000: 641c 89bd 60e0 37bd 20c3 803d ccc5 1fbd
00000010: ef90 973d 26c9 fcbc 2a86 2abb 0e61 8abd
00000020: c4a4 8d3d 8bec a3bd 180d d9bc c81b ef3c
00000030: f446 f8bc b7a0 83bd 4896 5d3d dd20 2dbd
00000040: ecb4 953c ecb9 19bc 759b a0bd e839 bdbd
00000050: 6820 e6bc 4858 90bd 0a1a a43c 3b1a 943d
00000060: 9620 163d 9056 f23b 3e3b a2bd ba85 343d
00000070: 5682 c4bb ee5a 4abc dd25 883c 4697 b3bb
00000080: d59c 13bd 4414 98bd d599 06bd d889 313c
00000090: cf0e 9f3d 7013 d4bb 2089 b4bc ce89 44bc
000000a0: 947a babc 29e2 623c cc4a 983c d0d1 5b3d
000000b0: b5d7 763d ab61 c83d 8204 29bd 6bd9 173d
000000c0: 2c8c cdbc ff6f 9cbd 015b 33bb a1f9 943c
000000d0: ba20 883c a733 243c 10ee 34bc c3e1 8b3d
000000e0: 10ad 6abd df10 30bd 8be4 c93c d92b 823c
000000f0: 2530 253d e9a2 81bd 3396 8a3c 6053 6f3b
00000100: 7071 8ebc fe75 dc3c 629b a3bc 0c33 64bd
00000110: 3651 afbd 64c8 cb3b c6ca 87bd 2f93 0aba
00000120: 60ae abbd 507e 3abd 099d b0bc e480 b93d
00000130: b43c 613d 9893 44bd 61cf a03d d8fe bdbb
00000140: fcb5 84bd 5ec7 a5bd 6690 a4bc 6a86 8b3c
00000150: b707 89bd 6533 583d 030b 9b3d 9a14 263d
00000160: aeb9 0dbd 7dcc 143d 9ae4 e63c 1d40 88bd
00000170: cf77 89bd be94 8a3c bfa3 03bd 341c b43d
00000180: 99cf 8ebb 428d 8e3d 22b2 5bba aa06 c63c
00000190: 223a a4bd 3611 c03b 9cf0 483c a56b 823d
000001a0: 0a25 8f3d ba1a 4cbc 1bc1 013d 15f6 613d
000001b0: bdf3 0bbd 7070 ec3c a78c c0bc b07d b0bc
000001c0: 6cd9 4ebc f29d 57bd fb27 84bd bc14 34bd
000001d0: 9549 833d 609d 1fbc 8ab4 293c f461 25bd
000001e0: 6fd0 fe3c 1833 f1bc d551 a9bd 7b82 0f3d
000001f0: 96f7 723d 90cf 87bc be32 51bd 6a15 24bb
-0.06694868 -0.044891715 0.06287217 -0.039006993 0.07400691 -0.030857634 -0.002601991 -0.06756793
0.06916192 -0.08004101 -0.026495501 0.029188052 -0.03030727 -0.06427138 0.054098397 -0.04226767
0.018274747 -0.009382706 -0.07842151 -0.0923956 -0.028091624 -0.07048088 0.020031948 0.072315656
0.03665217 0.007395573 -0.07921456 0.044072844 -0.0059969826 -0.012350781 0.016619617 -0.0054806797
-0.03603824 -0.0742574 -0.03286155 0.010836087 0.077664964 -0.0064720437 -0.022038043 -0.011995746
-0.022763528 0.013847866 0.018590353 0.05366689 0.060264308 0.09784254 -0.041264065 0.03707258
-0.025091253 -0.07638549 -0.0027367475 0.018185439 0.016617168 0.0100220805 -0.011043087 0.0683017
-0.05729395 -0.04298484 0.02464511 0.015890049 0.040329117 -0.06329901 0.016917324 0.0036518201
-0.017388076 0.026911732 -0.019971553 -0.055712745 -0.08560412 0.006218957 -0.06630473 -0.00052862143
-0.08382869 -0.045530617 -0.021559255 0.09057787 0.05498953 -0.04799232 0.078520544 -0.005798202
-0.06480023 -0.08094667 -0.020088386 0.017031867 -0.066909246 0.05278339 0.0757046 0.04054699
-0.034600906 0.036327828 0.028185178 -0.06652854 -0.06712305 0.016916629 -0.032138582 0.08794442
-0.0043582437 0.069605365 -0.0008380731 0.0241731 -0.080189005 0.0058614267 0.012264397 0.06368188
0.069894865 -0.012457544 0.0316783 0.055166323 -0.034167994 0.028862208 -0.023504568 -0.021544307
-0.01262508 -0.052640863 -0.06452938 -0.043965086 0.06410519 -0.009742111 0.010357985 -0.04037662
0.031105248 -0.029443309 -0.08267561 0.035036545 0.059318148 -0.016578466 -0.051073782 -0.0025037178

layer3.weight f4 [4, 128]
00000000: bf24 783d 26e6 03bc c05a 2bbd 1576 373d
00000010: 418c 813d d256 19bd f231 5bbc 46ac 6e3d
00000020: bdaa e23c daf4 753d b8cb a0bd 297c 40bd
00000030: af65 9d3d 6fa6 813d e83b e9bb d019 7cbd
00000040: 9e84 a93c 42a8 84bd 3c79 043d 8db1 10bd
00000050: 9afc 283d 717c 96bd 4668 463c 1155 ab3d
00000060: ff18 a73d 7e3e 41bc 6ae5 33bd 1511 30bd
00000070: d988 533d 29db 083d ec5f 263d 9191 2d3c
00000080: a75a 56bd ee2e 61bd d08d f03b f746 923d
00000090: 2fb3 903d c866 b23d 1fed 0fbd e541 80bd
000000a0: d85c 12bd 1416 febc 3bee a03d 2079 aebc
000000b0: e06f 8a3c b1b7 d33d 0ee1 0abc c646 38bd
000000c0: 79c1 62bd 5259 61bd 5d46 34bd 35c5 35bd
000000d0: fabf 84bd ac20 563c 51cf 12bd b2da 82bd
000000e0: 5335 06bd 8bfb c53d 8ae6 f9bc a9c9 573d
000000f0: 4e4b 823d 5141 883d 804c f43b cce5 143b
00000100: f31d 4ebd 7f19 4bbd c9f0 e13b 931f 313d
00000110: 2e17 01ba ae59 54bd d280 15bd 0e37 18bd
00000120: b8cc d23c 7340 83bd ed55 ebba c2e6 143c
00000130: 7ced 71bd 0e83 e5bc 3732 ba3d a97d 9a3b
00000140: 5ecc a0bc b876 2d3b ce5d 2d3d 2ce5 d0bc
00000150: 2073 453d 93fd 4f3c ae98 83bc 446c b63d
00000160: 0988 933d 3393 17bd 98cf 403d 26ec 5c3d
00000170: e94c a93d 6ecd e8bc 45c2 c63b 4a8c 293d
00000180: 90fc 5e3d 303c 7f3c b4e3 423d 5e99 87bd
00000190: 2f8e 6b3d e4b7 ce3b 3bb0 debc f694 1b3d
000001a0: 5f08 953d 42e8 253d 83ae 513d ba09 57bc
000001b0: fe3a 8abd 9ef0 9cbd 1ef8 62bc 9a87 86bd
000001c0: 9c78 2ebd 1926 ec3c 6eb8 9f3c 6467 0e3d
000001d0: 3a72 4b3d 4cd4 9e3c 5c8b 15bc c8fb 4b39
000001e0: ac1b 29bc c1a5 80bd 919b 963d 9620 6c3d
000001f0: 605f 6c3c 4fd6 913c 969e d13c d867 17bd
00000200: 6ed5 c53c 98b8 b93c 9e12 a43d 3c52 7d3d
00000210: ff16 d63b 53c1 9fbd d668 06bc e654 773d
00000220: 00b3 39bd 8e61 86bd b26e ccbb 37d7 ad3d
00000230: 6a28 f5bc 0311 96bd e22e 30bd 8408 5e3d
00000240: 8471 e3bc dfd9 a93d 28f1 7c3d 7b73 47bd
00000250: f6b4 53bd 414b bb3d 4c17 273d 99fc a4bd
00000260: 1e93 1b3d 3244 5b3c 46d3 3dbc 47e0 69bd
00000270: 3d92 a8bd 33d7 843b 7f17 aa3c 2c2e 0f3d
00000280: 6a8c e63c c41b 9ebd bad0 653c 6d72 03bd
00000290: 2440 1a3c 2c22 e9bc e6f4 8fbd 1d65 a83d
000002a0: ee1f 443c eda4 213b 044e eb3c b2b0 c3bc
000002b0: a59c cb3c a4d4 14bd 0e1b 59bc 12e5 6ebd
000002c0: 7db0 ad3d bdef ac3d d50b 31bd ad96 2bbd
000002d0: 699d 533d fec5 a33b b941 3ebd e490 903d
000002e0: b02c 6fbc 1846 ea3b 76e7 e53b 6716 8d3d
000002f0: 11a2 083b a87c 7d3d 6b04 543d 4a46 253c
00000300: bc43 83bd 3451 03bd ac96 3ebb 22ff a23d
00000310: 62af cabc dac0 25bd cd62 743d c06d 2d3d
00000320: 5a17 9fbc 15bb 5d3d cf79 ed3c 117a 4cbd
00000330: 0e3d a83c 4435 b03c 7689 6aba 0148 aabd
00000340: 8249 3fbd 69d4 453d 89da a9bd 72ad 133d
00000350: 907d 6dbd 2a92 8c3d 1daa 8b3d 5a37 b8bb
00000360: 9acb 7dbd 4386 d93c 00e4 92bc fe94 5f3d
00000370: 41f3 ac3d 5efd 64bd fd25 51bd f7a1 f5bb
00000380: 38d5 adbb d5ea 59bd ecf2 b23c c9c1 a33d
00000390: 7ca2 9ebd 84fb 9a3c 75d3 9ebd 4892 81bd
000003a0: a8c3 a53c e0ae bc3d 46ce 473d d33d 373b
000003b0: 3a7d c0bc 9651 aebd fc68 2fbd 06c2 1c3d
000003c0: 16bf 4e3d 5834 a2bd 8f8f 053c e063 7fbd
000003d0: cb8d 6fbd 0cb3 15bc 8019 19bd 1a29 f63c
000003e0: 609e 35bd 1fcc 873d 1c63 4bbd 2958 9abd
000003f0: 7ab1 67bc c097 84bd 862b 0e3d 9675 8ebd
0.06058192 -0.008050477 -0.041834593 0.044790346 0.063255794 -0.037436314 -0.013378607 0.05826976
0.027669305 0.06004796 -0.07851356 -0.04699341 0.0768541 0.06330573 -0.007117737 -0.061548054
0.02069312 -0.06477405 0.03234218 -0.035325576 0.041256525 -0.07347954 0.012109822 0.083658345
0.081590645 -0.011794684 -0.04391996 -0.04298504 0.05164418 0.033412132 0.040618822 0.010593788
-0.052332547 -0.054976396 0.007341124 0.07142442 0.070654266 0.0871101 -0.035138246 -0.062625684
-0.035733074 -0.031016387 0.07857939 -0.021297991 0.01689905 0.10337771 -0.008476509 -0.04498937
-0.05536029 -0.055016823 -0.044012416 -0.044377524 -0.06481929 0.013069313 -0.035842244 -0.06389369
-0.032765698 0.09667119 -0.030505437 0.052682552 0.063620195 0.06653083 0.0074554086 0.0022719977
-0.05032153 -0.04958486 0.006895159 0.043243002 -0.00049244135 -0.051843338 -0.036499806 -0.03716188
0.025732383 -0.06408777 -0.0017954685 0.00908822 -0.059064373 -0.028016593 0.09091609 0.004714687
-0.0196287 0.0026468467 0.042325787 -0.025499903 0.048205495 0.012694734 -0.016064014 0.08907369
0.07203681 -0.037005614 0.047072977 0.053936146 0.082666226 -0.028418269 0.006065639 0.041393556
0.05444008 0.015578315 0.047580436 -0.06621049 0.057508644 0.0063085426 -0.027183643 0.037983857
0.07276987 0.0405047 0.051191818 -0.013124878 -0.06749533 -0.076630816 -0.013853101 -0.06568833
-0.04259549 0.02882676 0.019497123 0.03476657 0.04966948 0.01938834 -0.009127464 0.00019453384
-0.010321539 -0.06281615 0.07353891 0.057648264 0.014427036 0.017802386 0.025588315 -0.036964267
0.024149623 0.022671029 0.080113634 0.061846003 0.006533503 -0.078005455 -0.008203706 0.0603837
-0.045336723 -0.06561576 -0.006238782 0.084883146 -0.029926497 -0.073274635 -0.04301346 0.05420734
-0.02776409 0.08293509 0.061753422 -0.048694115 -0.05168625 0.09145213 0.040793702 -0.08055992
0.0379821 0.013382958 -0.011586016 -0.057098653 -0.08231018 0.004053974 0.020763157 0.034956142
0.028143127 -0.077201396 0.014026815 -0.032091547 0.009414706 -0.028458677 -0.070291325 0.08222411
0.011970503 0.0024664954 0.028723724 -0.023887966 0.024854967 -0.036335602 -0.013251079 -0.058323927
0.08480928 0.08444164 -0.043224175 -0.041891742 0.05166379 0.0049979677 -0.046449397 0.07058886
-0.014598057 0.007149469 0.0070161177 0.068890385 0.0020848552 0.06188646 0.051762026 0.010087559
-0.06409404 -0.032059863 -0.0029081507 0.07958819 -0.024741832 -0.04046712 0.059664536 0.042340994
-0.019420315 0.054133493 0.028988747 -0.0499211 0.020536926 0.021509774 -0.0008946875 -0.08314515
-0.046700962 0.048298273 -0.082936354 0.036054082 -0.057981074 0.06863816 0.06819556 -0.005621833
-0.061961748 0.026553279 -0.017930984 0.05458545 0.084448345 -0.055905692 -0.05106162 -0.0074961144
-0.0053049587 -0.05320247 0.02184435 0.07995946 -0.07745835 0.01891876 -0.07755176 -0.06326729
0.020234898 0.09213042 0.048780702 0.0027960434 -0.023497213 -0.08511655 -0.04282473 0.038270973
0.050475203 -0.0792014 0.008151903 -0.062351108 -0.058484834 -0.009136926 -0.037377834 0.030048896
-0.04434049 0.0663073 -0.049655065 -0.075363465 -0.014141435 -0.064742565 0.034709476 -0.069560215

layer3.bias f4 [4]
00000000: ff8f b2bc 3f8c a63d 2ff0 143d 1924 0e3d
-0.021797178 0.081322186 0.03636187 0.034702394
