models/policy_net.pth (torch, 75878 bytes, 6 tensors)

layer1.weight f4 [128, 9]
-0.03398277 -0.12528244 -0.11762695 -0.26988575 -0.031367913 0.07709926 0.2587544 -0.04315856
0.054944858 0.30337998 -0.07498019 -0.11316013 -0.052038737 0.3113186 -0.13934484 -0.03862702
-0.1473301 -0.32220572 -0.037578583 0.014509827 0.24070022 -0.086925834 0.07570264 -0.3244869
-0.25260362 0.28295806 -0.24833423 0.18398005 0.02224973 0.09674518 0.060427636 0.1444097
-0.092964575 0.13590257 0.04989506 -0.06904616 -0.16640407 0.12264311 0.2032288 -0.0014767624
-0.02733437 0.18204537 -0.30026898 -0.23808026 0.09506428 0.29900357 0.046651002 -0.33233577
-0.035069752 -0.039535925 -0.2370083 -0.28162572 0.12477797 0.27061048 -0.08030188 0.13400525
0.1997787 -0.11695497 -0.30305 0.19316295 0.03153558 -0.30443284 -0.32282007 0.2661735
0.13894257 -0.2156931 -0.22678226 -0.03425832 0.26580372 -0.3031349 0.11450383 0.08163875
-0.199051 0.024178557 -0.06039819 0.15046766 -0.31195372 -0.02245763 -0.25541875 0.26452997
-0.15274811 -0.1309358 0.052909218 0.2967246 0.145757 0.28241485 -0.14738367 -0.11793057
-0.006456063 0.08336308 -0.2827179 0.012701638 0.022621334 -0.07007107 0.18213502 -0.20650113
-0.061938062 0.013022192 -0.31088445 0.030627841 0.012346669 0.013980839 0.27814278 0.28634462
0.053025853 -0.33125904 -0.12506673 -0.15542442 -0.12010126 -0.30362746 0.17087075 -0.19363438
-0.19893484 -0.027844496 -0.06279752 -0.04094951 -0.28932554 0.26596594 0.23977102 -0.1960572
-0.22484036 -0.10107909 -0.19403522 -0.05875007 0.19844046 0.16090526 0.31025943 0.053856455
0.027995283 0.25137606 0.27566788 -0.2500379 -0.10758143 0.2771178 -0.11831856 -0.11270729
0.18359652 -0.13750349 -0.30117458 -0.30316496 -0.17240795 0.054399535 -0.29073 -0.23741326
0.16249588 -0.022056699 0.31729618 -0.14869706 -0.19173294 -0.15207331 -0.23165028 -0.32821828
-0.050819874 0.019032072 0.22830813 0.16628532 0.13043235 -0.09822258 0.0008528516 0.28061822
-0.32993686 0.31123036 0.12514757 0.03189248 0.3106727 0.15431231 0.24055961 -0.10838568
0.028516324 0.22417495 -0.06385803 -0.15340166 0.3146893 0.22313023 -0.09560287 0.24940374
0.15711063 -0.33067346 0.28397796 -0.24606302 0.25557 0.23144276 -0.22199605 0.19468522
-0.27984667 -0.22520536 0.23891675 -0.25890204 0.23144192 0.21373115 -0.1573728 0.2091743
0.32008094 0.12041275 -0.021531634 0.063040644 -0.10501479 0.19149074 0.13357262 -0.29075614
0.0460401 0.3174466 0.1483122 -0.09366759 -0.29259735 0.10857327 -0.08505341 -0.02545552
0.04945661 0.12729618 0.29127428 -0.20430803 0.09018612 -0.08956461 -0.31821722 -0.07419518
0.06019464 -0.3057366 -0.27714092 0.23609248 0.11681917 0.30601004 -0.31098327 -0.3101384
-0.107391 0.01521964 -0.18759981 -0.12739746 0.30695125 0.26307568 -0.21947543 -0.19717713
0.29216805 0.054271825 0.060201447 0.23318644 -0.26147506 0.03145829 0.09070432 0.17849989
0.2403303 0.32599616 -0.14710991 -0.17854278 0.1386452 -0.16937137 0.22768855 0.22356756
-0.09799881 -0.19320464 -0.11171926 3.489888e-05 -0.033574663 0.24839985 -0.08700852 0.20439523
00000000: 8431 0bbd 0a4a 00be 66e6 f0bd 772e 8abe
00000010: a47b 00bd 38e6 9d3d 757b 843e 08c7 30bd
00000020: dc0d 613d 9f54 9b3e 378f 99bd 80c0 e7bd
00000030: 9226 55bd 2765 9f3e 6ab0 0ebe 5e37 1ebd
00000040: b4dd 16be 26f8 a4be 00ec 19bd a0ba 6d3c
00000050: 1e7a 763e 2c06 b2bd fc09 9b3d 2623 a6be
00000060: 4355 81be e1df 903e 544b 7ebe 4465 3c3e
00000070: 1145 b63c 5622 c63d f882 773d 23e0 133e
00000080: 3664 bebd 0b2a 0b3e c35e 4c3d 1368 8dbd
00000090: d465 2abe 502c fb3d 361b 503e ec8f c1ba
000000a0: 54ec dfbc 1a6a 3a3e dbbc 99be 50cb 73be
000000b0: 10b1 c23d ff16 993e 1f15 3f3d ea27 aabe
000000c0: 4da5 0fbd 6cf0 21bd 4eb2 72be 3f31 90be
000000d0: 988b ff3d 758d 8a3e 5075 a4bd ac38 093e
000000e0: ca92 4c3e 1686 efbd 5f29 9bbe 82cc 453e
000000f0: 742b 013d 9fde 9bbe ac48 a5be e547 883e
00000100: f646 0e3e a7de 5cbe 9c39 68be 7452 0cbd
00000110: 6d17 883e 7f34 9bbe fc80 ea3d 3832 a73d
00000120: 06d4 4bbe 1c12 c63c 1864 77bd 3214 1a3e
00000130: 66b8 9fbe 10f9 b7bc 3fc6 82be 7970 873e
00000140: 006a 1cbe 0914 06be 56b7 583d 49ec 973e
00000150: 5341 153e ae98 903e bfeb 16be 9585 f1bd
00000160: 628d d3bb 43ba aa3d 67c0 90be 881a 503c
00000170: 6050 b93c 6c81 8fbd 9a81 3a3e 0875 53be
00000180: c4b2 7dbd 085b 553c 3f2c 9fbe 3de7 fa3c
00000190: af49 4a3c e40f 653c bb68 8e3e c39b 923e
000001a0: a331 593d c99a a9be 7e11 00be 9427 1fbe
000001b0: a6f7 f5bd 0f75 9bbe bef8 2e3e 1748 46be
000001c0: 93b5 4bbe 241a e4bc fc9b 80bd acba 27bd
000001d0: 7a22 94be b02c 883e 8986 753e 38c3 48be
000001e0: 8d3c 66be 8e02 cfbd 2bb1 46be eaa3 70bd
000001f0: fa33 4b3e 59c4 243e 53da 9e3e 9698 5c3d
00000200: 5d56 e53c 5db4 803e 5724 8d3e f804 80be
00000210: a753 dcbd 62e2 8d3e 0051 f2bd 14d3 e6bd
00000220: ba00 3c3e b7cd 0cbe 8e33 9abe 7038 9bbe
00000230: b68b 30be 0cd2 5e3d 90da 94be 761c 73be
00000240: 5265 263e 40b0 b4bc a574 a23e 0b44 18be
00000250: a455 44be 1bb9 1bbe bb35 6dbe 3a0c a8be
00000260: 8028 50bd 26e9 9b3c 9bc9 693e b346 2a3e
00000270: 0f90 053e ec28 c9bd e791 5f3a 31ad 8f3e
00000280: 7ced a8be 9659 9f3e af26 003e b0a1 023d
00000290: 7e10 9f3e 0c04 1e3e 4255 763e 50f9 ddbd
000002a0: 119b e93c 1e8e 653e 00c8 82bd 5315 1dbe
000002b0: f51e a13e 407c 643e 70cb c3bd b263 7f3e
000002c0: 9ce1 203e 084e a9be 8f65 913e f2f7 7bbe
000002d0: 12da 823e 55ff 6c3e ef52 63be 905b 473e
000002e0: 1048 8fbe 3c9c 66be 98a6 743e cf8e 84be
000002f0: 1cff 6c3e 57dc 5a3e 5626 21be ca31 563e
00000300: a6e1 a33e f69a f63d 1c63 b0bc 741b 813d
00000310: ff11 d7bd 2616 443e 43c7 083e fddd 94be
00000320: 8b94 3c3d 5c88 a23e 27df 173e cbd4 bfbd
00000330: 52cf 95be aa5b de3d 7b30 aebd 1888 d0bc
00000340: 0493 4a3d ee59 023e e721 953e 2036 51be
00000350: 80b3 b83d a66d b7bd 5eed a2be a4f3 97bd
00000360: a88e 763d 8289 9cbe 6ae5 8dbe 3ac2 713e
00000370: e43e ef3d 59ad 9c3e 3339 9fbe 76ca 9ebe
00000380: d0ef dbbd cc5b 793c 2a1a 40be 7b74 02be
00000390: b728 9d3e dbb1 863e 2bbe 60be cde8 49be
000003a0: 0d97 953e 224c 5e3d cb95 763d 6dc8 6e3e
000003b0: 0fe0 85be 68da 003d 30c3 b93d adc8 363e
000003c0: 2519 763e f8e8 a63e fba3 16be ebd3 36be
000003d0: 02f9 0d3e b06f 2dbe 3027 693e e5ee 643e
000003e0: 9ab3 c8bd 70d7 45be 11cd e4bd 6360 1238
000003f0: 9685 09bd 885c 7e3e 8631 b2bd fc4c 513e

layer1.bias f4 [128]
0.21215048 0.32923204 -0.09670259 -0.2330047 -0.21098194 0.30186883 -0.30456173 0.017029427
-0.31234646 0.2661235 0.011503588 0.029890839 0.040021405 0.04460408 0.047730133 0.06389344
0.27476218 -0.030840585 -0.13534501 0.084598504 -0.2512165 0.085337184 -0.3144265 -0.026431605
-0.2340868 -0.24053317 0.013663198 -0.055863056 0.23265706 0.0019579714 0.29751292 -0.07043486
-0.25701427 -0.21898697 -0.2655122 -0.1275771 -0.2378767 0.06337303 -0.0054250136 -0.242294
0.12946576 -0.15486723 0.09868562 -0.13550855 0.30613062 0.18406099 -0.10617092 -0.045419473
-0.13463965 -0.14578119 0.16900139 -0.1570752 -0.14564896 0.08975355 -0.09142314 0.21980056
-0.18616849 -0.26575214 -0.21164477 0.0072261095 0.25401676 0.106385976 0.1548912 -0.06836635
0.20179106 0.26932177 -0.13518272 -0.30208978 -0.07618052 -0.006245289 -0.08971928 -0.25175792
0.04239908 -0.094391 -0.107034214 -0.2019853 0.013166554 0.044538885 -0.20513797 -0.08883464
-0.1908212 0.0976783 -0.29048502 0.051202178 0.028524177 0.15401761 -0.22158132 -0.13624473
-0.22316283 -0.16796267 0.029733688 0.2820877 -0.237986 0.2936767 -0.092998594 -0.2985894
-0.16142374 -0.15068051 0.19968 0.11461284 0.0716446 0.3253577 0.06329898 -0.19194797
0.08019225 0.16378634 0.18036227 0.09845433 -0.20073202 0.022837937 0.17393741 0.038067758
0.25671837 0.323739 0.08646538 0.2707794 -0.022880852 0.25969744 -0.23775491 -0.15473509
0.07639714 0.24315551 -0.06439626 0.018539265 0.059929766 -0.32532543 -0.10160053 0.051969886
00000000: fa3d 593e 1a91 a83e 020c c6bd c998 6ebe
00000010: a60b 58be 8d8e 9a3e 84ef 9bbe 4c81 8b3c
00000020: e0eb 9fbe 5741 883e 8c79 3c3c a2dd f43c
00000030: 7ced 233d c5b2 363d ac80 433d 90da 823d
00000040: a1ad 8c3e 65a5 fcbc e297 0abe fb41 ad3d
00000050: 739f 80be 43c5 ae3d 83fc a0be 1887 d8bc
00000060: 73b4 6fbe 544e 76be 9bdb 5f3c a9d0 64bd
00000070: a73d 6e3e 4f51 003b 9d53 983e 2740 90bd
00000080: 6097 83be 1f3e 60be 37f1 87be 92a3 02be
00000090: f395 73be b8c9 813d 50c4 b1bb eb1b 78be
000000a0: ac92 043e 8495 1ebe b01b ca3d c1c2 0abe
000000b0: 27bd 9c3e 7c7a 3c3e 2470 d9bd c509 3abd
000000c0: fade 09be aa47 15be b30e 2d3e 52d8 20be
000000d0: 0025 15be b6d0 b73d 0e3c bbbd 6613 613e
000000e0: f4a2 3ebe aa10 88be 68b9 58be 00c9 ec3b
000000f0: 7c0e 823e e4e0 d93d cc9b 1e3e a803 8cbd
00000100: 51a2 4e3e 8be4 893e 576d 0abe 83ab 9abe
00000110: 8804 9cbd 48a5 ccbb bebe b7bd 6ae6 80be
00000120: a8aa 2d3d 1250 c1bd c134 dbbd 3cd5 4ebe
00000130: 88b8 573c 686e 363d b00f 52be f0ee b5bd
00000140: a266 43be 900b c83d 74ba 94be 60b9 513d
00000150: 89ab e93c cbb6 1d3e 37e6 62be bd83 0bbe
00000160: cc84 64be 68fe 2bbe 1094 f33c cd6d 903e
00000170: 9ab2 73be cb5c 963e 0c76 bebd b6e0 98be
00000180: 444c 25be fe4b 1abe ea78 4c3e 23ba ea3d
00000190: 67ba 923d 4995 a63e e5a2 813d 028e 44be
000001a0: d63b a43d 9bb7 273e e3b0 383e 6ca2 c93d
000001b0: b28c 4dbe a016 bb3c a61c 323e f0ec 1b3d
000001c0: 9770 833e 1ec1 a53e c314 b13d 99a3 8a3e
000001d0: a070 bbbc 10f7 843e 0676 73be e072 1ebe
000001e0: 1b76 9c3d c2fd 783e 30e2 83bd a8df 973c
000001f0: ea78 753d 0e91 a6be f013 d0bd 60de 543d

layer2.weight f4 [128, 128]
0.05692198 0.05414755 -0.087118864 -0.07472983 0.04984867 0.057256557 0.026098788 -0.05969181
-0.076235496 -0.039184373 0.05433788 -0.022218794 -0.019227326 0.064231016 -0.070458226 -0.014508322
-0.010988809 -0.07643919 0.029542692 -0.032252416 -0.007171698 0.01836007 0.023134701 0.036363587
0.006881306 -0.066000804 0.05423162 -0.06562794 -0.045340843 -0.0743521 -0.030799072 -0.005378686
0.061058663 -0.051704664 0.050369583 -0.048493963 -0.022686414 0.01135198 0.026314616 0.08235622
0.06280451 0.009107456 -0.0052560363 0.013319954 0.021326914 0.0449545 -0.035791535 0.07734322
0.04218342 -0.01094266 0.035269633 0.0015572766 -0.045658264 0.08183215 -0.05683728 0.06343009
-0.017966896 -0.08237047 -0.013864983 0.04675374 0.068843566 0.06879588 0.073163755 -0.0516652
0.008712802 0.06807744 0.08404944 -0.039365258 -0.044743538 -0.022293456 0.047163837 0.038543902
0.082352616 -0.062858805 -0.064114824 0.061609976 0.062477943 0.013100088 -0.019110687 -0.027632628
-0.015007012 0.081605084 0.019655727 0.06356043 -0.024752393 -0.039581332 -0.04720985 0.080172874
-0.02009672 0.0874506 -0.07383597 0.032457195 -0.086799525 0.027989231 0.07881502 0.037665807
-0.0852595 0.07022648 0.0030896096 0.008126814 0.025964059 0.0066787694 -0.07274916 -0.011292897
-0.05761359 0.019529365 -0.084562786 0.01695723 -0.083323635 -0.027198989 0.081455134 -0.029605947
-0.06494101 0.015265893 -0.07317321 0.0324258 -0.014462717 0.068059154 -0.034808423 0.03924308
-0.028119192 -0.085071355 0.0318975 -0.07900866 -0.0064864047 0.0657456 -0.0024919407 0.08784989
-0.042554516 -0.06539778 -0.039653722 -0.060540635 -0.046817854 0.05384041 0.03494031 0.059246026
0.041325472 -0.012851624 0.06532865 -0.023264887 -0.019490317 0.018498186 0.073811784 0.048719473
0.08011406 0.070273966 -0.03714643 -0.065872684 -0.0005910009 0.045089383 0.014992013 0.06383032
-0.013981443 -0.022713775 0.07742952 0.06560189 -3.9916446e-05 0.002636857 -0.08522788 0.04492517
-0.0037256468 -0.047631267 -0.00975649 0.059862398 0.041245423 -0.049449734 0.043878086 -0.064852156
0.035462677 -0.020962782 0.0030703708 -0.019869938 -0.02413293 0.07176615 -0.03714782 0.088745855
-0.08785043 0.071987815 -0.020226642 0.07849953 -0.08626427 0.051431503 0.029693265 0.030825458
-0.0028016306 -0.06269033 -0.06678885 -0.063998386 0.05155259 -0.06644893 0.07191315 -0.06779154
-0.04609999 -0.028308542 -0.029954702 0.0551121 0.024038717 -0.017663807 0.015040925 -0.04264317
0.018907618 -0.07747154 0.033735145 -0.06084612 -0.07290139 0.05760608 0.0840951 -0.083267264
0.08706308 -0.08637849 0.07720445 0.00710308 0.0029232465 0.076220766 0.03551443 0.016707914
-0.07341609 0.029730368 -0.058548257 -0.043153055 0.090068474 0.03512884 0.035332263 0.0032527912
0.052220576 -0.07230799 -0.019503854 -0.055462044 -0.0088796085 -0.068265535 0.089683786 0.052428834
-0.059606664 -0.024661282 0.07426375 0.06549587 -0.036698557 -0.020547159 0.06622747 0.005075963
0.08110034 -0.05766306 0.059759747 -0.060210068 -0.054889496 -0.012268039 -0.052695606 -0.04355247
-0.050359014 -0.062609166 -0.05683155 0.059854276 -0.0351131 -0.01016232 0.002737932 -0.009282544
00000000: 0627 693d d2c9 5d3d 606b b2bd f40b 99bd
00000010: 1e2e 4c3d da85 6a3d 20cd d53c 667f 74bd
00000020: 5b21 9cbd cb7f 20bd 6691 5e3d 3004 b6bc
00000030: a082 9dbc 8d8b 833d 674c 90bd 50b4 6dbc
00000040: 680a 34bc 268c 9cbd 8403 f23c 1c1b 04bd
00000050: 9000 ebbb dc67 963c fc84 bd3c fcf1 143d
00000060: 947c e13b 6e2b 87bd fa21 5e3d f167 86bd
00000070: 52b7 39bd ea45 98bd 564e fcbc b03f b0bb
00000080: a618 7a3d 45c8 53bd 5650 4e3d 9ba1 46bd
00000090: dcd8 b9bc a8fd 393c c091 d73c 61aa a83d
000000a0: a79f 803d 7037 153c d43a acbb f03b 5a3c
000000b0: c8b5 ae3c 3622 383d 259a 12bd 1f66 9e3d
000000c0: 86c8 2c3d d848 33bc e476 103d 881d cc3a
000000d0: 2904 3bbd 9d97 a73d 35ce 68bd a3e7 813d
000000e0: 502f 93bc d9b1 a8bd f429 63bc da80 3f3d
000000f0: dbfd 8c3d dbe4 8c3d e1d6 953d e49e 53bd
00000100: 24c0 0e3c 2f6c 8b3d 1d22 ac3d 773d 21bd
00000110: 0045 37bd c4a0 b6bc de2e 413d 36e0 1d3d
00000120: 7da8 a83d 1ebc 80bd a24e 83bd be5a 7c3d
00000130: dfe8 7f3d c0a1 563c 048e 9cbc d25d e2bc
00000140: f8df 75bc 9120 a73d 0c05 a13c f92b 823d
00000150: 88c5 cabc 0920 22bd 1e5f 41bd ad31 a43d
00000160: e0a1 a4bc 4d19 b33d 5037 97bd d6f1 043d
00000170: f3c3 b1bd ac49 e53c c569 a13d 7647 1a3d
00000180: 889c aebd e7d2 8f3d 0c7b 4a3b 5426 053c
00000190: 94b2 d43c 94d9 da3b 83fd 94bd d805 39bc
000001a0: 3afc 6bbd 0cfc 9f3c 412f adbd e4e9 8a3c
000001b0: 95a5 aabd 6ad0 debc f3d1 a63d 2c88 f2bc
000001c0: cbff 84bd cc1d 7a3c d6db 95bd ead0 043d
000001d0: 08f5 6cbc 9962 8b3d 4793 0ebd 5abd 203d
000001e0: 385a e6bc e439 aebd f4a6 023d 4bcf a1bd
000001f0: e88b d4bb a1a5 863d d44f 23bb a5ea b33d
00000200: a54d 2ebd 45ef 85bd f16b 22bd 75f9 77bd
00000210: 14c4 3fbd c387 5c3d 921d 0f3d f6ab 723d
00000220: e644 293d 9e8f 52bc 07cb 853d 0196 bebc
00000230: 28aa 9fbc 8289 973c a22a 973d 128e 473d
00000240: d712 a43d cceb 8f3d db26 18bd 42e8 86bd
00000250: 66ed 1aba a5af 383d 0fa1 753c 79b9 823d
00000260: 6c12 65bc 3d12 babc 5e93 9e3d 495a 863d
00000270: f56b 27b8 1fcf 2c3b f48b aebd 7403 383d
00000280: fb29 74bb 0119 43bd afd9 1fbc 4632 753d
00000290: f6f0 283d ce8b 4abd 82b9 333d 35d1 84bd
000002a0: 5041 113d 24ba abbc 4638 493b 48c6 a2bc
000002b0: 6cb2 c5bc 22fa 923d 5028 18bd 63c0 b53d
000002c0: edea b3bd 596e 933d 58b2 a5bc 5dc4 a03d
000002d0: 52ab b0bd d7a9 523d 4a3f f33c ac85 fc3c
000002e0: 909b 37bb ca63 80bd 98c8 88bd 9611 83bd
000002f0: cf28 533d 6016 88bd 3447 933d 4ad6 8abd
00000300: 58d3 3cbd 51e7 e7bc 9063 f5bc 3abd 613d
00000310: d8ec c43c b0b3 90bc 366e 763c 9baa 2ebd
00000320: 26e4 9a3c 66a9 9ebd dd2d 0a3d c839 79bd
00000330: 534d 95bd 5af4 6b3d 0d3a ac3d 0788 aabd
00000340: 214e b23d 35e7 b0bd 5e1d 9e3d f4c0 e83b
00000350: f093 3f3b a219 9c3d 9477 113d 09df 883c
00000360: 2d5b 96bd 1a8d f33c 4cd0 6fbd 42c1 30bd
00000370: d275 b83d 42e3 0f3d 90b8 103d c82c 553b
00000380: 3ee5 553d 3616 94bd 8cc6 9fbc 2b2c 63bd
00000390: c77b 11bc cdce 8bbd 22ac b73d 9ebf 563d
000003a0: 1e26 74bd 7506 cabc 9817 983d b322 863d
000003b0: 3a51 16bd 8452 a8bc 45a2 873d 4454 a63b
000003c0: ef17 a63d 1a30 6cbd a3c6 743d d59e 76bd
000003d0: cfd3 60bd e3ff 48bc 59d7 57bd 1364 32bd
000003e0: 4145 4ebd 3c39 80bd 33c8 68bd c229 753d
000003f0: c1d2 0fbd dc7f 26bc e06e 333b d015 18bc

layer2.bias f4 [128]
0.01810503 -0.03114198 -0.043230202 -0.080718026 -0.058829863 0.06843337 0.011436254 -0.047641393
0.0025937692 0.03735756 -0.009439625 0.0049271006 0.06460197 -0.015897602 0.081822164 0.031616524
-0.0007015182 0.08020698 -0.08608803 -0.09319014 -0.076226205 0.036329694 -0.022800185 0.083951265
-0.00055938354 -0.047477167 -0.04805481 -0.06431331 -0.008501816 0.07763277 -0.014879361 0.0055904835
0.04115584 -0.016205251 0.0038187443 0.08120783 -0.05524889 -0.07219768 -0.082664035 0.04840509
-0.032003496 0.0031229737 0.021413462 -0.024753258 0.082391866 0.06914644 -0.05634082 -0.021806346
-0.06035456 0.0751759 -0.06560367 0.013451997 -0.06676538 -0.061841987 -0.007165894 0.087194
-0.007899992 -0.005009124 0.07122621 0.060787573 -0.04089859 -0.07891121 -0.03914376 0.0077071246
-0.039412748 -0.07780755 -0.07435316 -0.051557105 0.06427794 -0.023275364 -0.08641234 0.07682944
0.02549924 0.036963396 0.062384896 -0.01436305 -0.030905573 -0.027395016 0.013172336 0.022188433
0.03952972 0.044697456 0.07396027 -0.024138406 -0.03147287 -0.04681341 -0.03631555 0.020847112
-0.024675637 -0.065403014 0.061153375 -0.0720461 0.061359033 -0.077029444 -0.05628376 0.066982396
0.02119801 -0.085312665 -0.067139 0.065711714 -0.06593666 -0.06405987 -0.022097351 -0.02225946
-0.06298037 0.035347044 -0.067589894 -0.06543211 -0.009189025 0.035786286 -0.06225632 0.037039034
-0.07952473 0.06890648 0.07777979 -0.022867128 -0.015200366 -0.04610591 0.0016712719 -0.002628279
-0.026366238 0.059696797 0.082731225 -0.059513558 -0.075967915 0.021808824 -0.043733068 0.020605152
00000000: 0051 943c 771d ffbc 2712 31bd 7e4f a5bd
00000010: 95f7 70bd cb26 8c3d 205f 3b3c 9f23 43bd
00000020: 3afc 293b 3e04 193d a8a8 1abc 8473 a13b
00000030: 0a4e 843d b03b 82bc 6192 a73d 5480 013d
00000040: 17e6 37ba 8f43 a43d ec4e b0bd 79da bebd
00000050: 7c1c 9cbd 72ce 143d 74c7 babc a4ee ab3d
00000060: 98a3 12ba 6b77 42bd 1fd5 44bd b2b6 83bd
00000070: 334b 0bbc eefd 9e3d 90c8 73bc 6030 b73b
00000080: 0793 283d e0c0 84bc e643 7a3b 4a50 a63d
00000090: a94c 62bd 61dc 93bd c34b a9bd 6a44 463d
000000a0: 1916 03bd ceaa 4c3b 496b af3c 58c7 cabc
000000b0: 11bd a83d a69c 8d3d a2c5 66bd 39a3 b2bc
000000c0: 5836 77bd d2f5 993d 385b 86bd c465 5c3c
000000d0: 4abc 88bd 064e 7dbd e0cf eabb c592 b23d
000000e0: f86e 01bc 9423 a4bb 0cdf 913d 64fc 783d
000000f0: 4885 27bd 339c a1bd 3555 20bd 0c8c fc3b
00000100: 436f 21bd 9159 9fbd 7846 98bd 8b2d 53bd
00000110: 27a4 833d faab bebc f4f8 b0bd c158 9d3d
00000120: c8e3 d03c ee66 173d 4e87 7f3d 0053 6bbc
00000130: af2d fdbc 836b e0bc c8d0 573c 84c4 b53c
00000140: eae9 213d ae14 373d 7b78 973d e8bd c5bc
00000150: b2e9 00bd 6bbf 3fbd 9dbf 14bd 90c7 aa3c
00000160: 9024 cabc 04f2 85bd f67b 7a3d e88c 93bd
00000170: 9c53 7b3d 9dc1 9dbd cd89 66bd 112e 893d
00000180: 73a7 ad3c 68b8 aebd 2c80 89bd dd93 863d
00000190: cd09 87bd d231 83bd 8105 b5bc 7959 b6bc
000001a0: dafb 80bd 10c8 103d 926c 8abd 4501 86bd
000001b0: 908d 16bc a494 123d 7c00 7fbd 3eb6 173d
000001c0: dddd a2bd d71e 8d3d 034b 9f3d d853 bbbc
000001d0: f50a 79bc 8dd9 3cbd 940e db3a 343f 2cbb
000001e0: 02fe d7bc a184 743d fd6e a93d 7dc4 73bd
000001f0: 1195 9bbd 6ba8 b23c 7221 33bd 23cc a83c

layer3.weight f4 [4, 128]
0.058896936 0.016213404 -0.08697097 0.032836854 -0.031240206 0.07210412 -0.08260003 0.024249822
0.028871074 0.030747145 0.022311985 0.0141988285 0.032400474 -0.07830743 0.050549075 -0.06570619
-0.032754533 -0.031925756 -0.080240786 0.026887992 -0.07912209 -0.04715424 0.078145616 -0.08033636
-0.001669195 -0.030207274 0.08453137 -0.04936309 -0.018024784 -0.04990577 0.0447639 0.0027863719
0.028964454 -0.040906888 0.04271838 0.033039425 -0.059948638 0.073742166 0.08564065 -0.045046017
0.0071647316 -0.038788415 0.027140686 -0.06539547 0.0072064884 0.05542253 0.08800734 -0.05395595
0.077730864 -0.057952743 -0.068685524 0.007030042 -0.011893686 0.050509952 -0.024803342 -0.06416468
-0.021277366 0.0039553163 0.062759094 -6.6721404e-05 -0.01741673 0.039138075 -0.07411574 -0.0030547706
0.010471936 -0.019417884 -0.05951578 -0.048964355 0.0605795 -0.03549059 0.062284954 0.055923782
0.058901303 0.027838558 0.084410615 0.08671459 0.07480698 0.039716695 -0.044221383 -0.07203194
0.07436191 0.0081345625 0.039677165 0.062369786 -0.021275511 -0.062326655 0.048929326 0.079682775
0.06023004 -0.046437863 -0.0440954 -0.0006073572 0.007644149 0.018408623 0.0743852 -0.0150367245
0.004916337 -0.05148651 0.06295916 0.091830954 0.03877018 0.044168375 0.0504198 -0.035667732
0.04852412 0.08083635 0.011800797 0.043317325 -0.07779168 -0.024341308 0.0008852205 0.0032468382
0.090237305 0.062022947 -0.021010429 0.034779362 0.03300273 0.08233606 -0.042295177 0.05356393
-0.025710255 -0.03652405 0.06721406 0.025193594 0.04489713 -0.032280255 0.055580087 0.084294245
-0.06985292 0.02452373 0.088194 -0.00678117 0.051808216 0.019938834 0.08711397 0.01359858
0.062284417 -0.08404411 -0.041491427 -0.072663054 -0.082867585 0.0012056062 -0.06610236 0.082758375
0.043183275 0.08341601 0.01782269 -0.011550621 0.07661519 -0.07097917 -0.05055144 0.073400825
-0.02592691 0.049759842 0.02424723 -0.0005288271 0.051575027 -0.08561145 0.040182374 -0.07587312
-0.00966949 0.039114516 0.08521008 0.07974566 0.08559329 -0.05479316 -0.06157346 -0.04760693
-0.06513417 -0.0034545083 -0.044378705 0.0129855275 0.021268249 -0.08073282 -0.081673875 -0.07735222
-0.0797698 -0.031790785 -0.049332455 -0.08458131 0.013161376 0.035975568 -0.041662958 -0.079847366
0.08385655 -0.06962071 0.08828063 0.010920678 0.026419133 0.07309112 -0.046665233 -0.056031715
0.06996497 0.06747971 -0.014762633 -0.020284083 -0.05282345 0.072789714 0.0599036 0.011218943
-0.036160473 0.07146507 -0.087830104 -0.006757656 0.038748544 -0.063624874 0.04038503 -0.011102356
0.006011447 0.0052584354 -0.018120416 -0.007096464 0.049299713 0.08668975 0.009358838 0.07073224
-0.08235826 -0.004916926 -0.043273035 -0.022991369 0.065341026 0.03265274 -0.06741683 -0.028095242
0.031281326 0.07243656 0.0724919 -0.07934296 0.088152885 -0.06522693 0.024818923 -0.06558752
-0.06004993 0.07136955 -0.073392846 -0.030028341 0.006880029 0.075926356 0.07424971 0.0076247584
-0.04483537 -0.050343268 0.033445004 0.08063517 0.058668666 0.08721756 0.03013624 0.03746084
0.048251636 -0.061944578 0.042291485 0.06599928 -0.012060929 -0.060210038 0.07108962 0.015894732
00000000: ea3d 713d f9d1 843c d61d b2bd f07f 063d
00000010: 76eb ffbc 53ab 933d 342a a9bd 90a7 c63c
00000020: 0883 ec3c 70e1 fb3c a0c7 b63c 34a2 683c
00000030: 5cb6 043d a55f a0bd 8c0c 4f3d f890 86bd
00000040: 9e29 06bd 95c4 02bd 4855 a4bd 3544 dc3c
00000050: c30a a2bd ce24 41bd cf0a a03d 6487 a4bd
00000060: e4c8 daba 3f75 f7bc c81e ad3d f430 4abd
00000070: b6a8 93bc fe69 4cbd 5a5a 373d 909b 363b
00000080: dd46 ed3c fb8d 27bd 78f9 2e3d 5954 073d
00000090: b48c 75bd 2206 973d 5d64 af3d 2c82 38bd
000000a0: 20c6 ea3b 9ae0 1ebd 2556 de3c 0fee 85bd
000000b0: 6824 ec3b bc02 633d 313d b43d ea00 5dbd
000000c0: 5c31 9f3d db5f 6dbd ffaa 8cbd 445c e63b
000000d0: bcdd 42bc 86e3 4e3d 6130 cbbc c668 83bd
000000e0: df4d aebc 999b 813b d787 803d c8ec 8bb8
000000f0: 88ad 8ebc 3f4f 203d fec9 97bd 8c32 48bb
00000100: 7c92 2b3c 4112 9fbc d2c6 73bd d98e 48bd
00000110: 3622 783d 955e 11bd 821e 7f3d 5610 653d
00000120: 7e42 713d b00d e43c 79df ac3d 6b97 b13d
00000130: 6734 993d f9ad 223d 7b21 35bd 7b85 93bd
00000140: 0f4b 983d d446 053c 8684 223d 7677 7f3d
00000150: fb49 aebc 3c4a 7fbd 1e6a 483d b930 a33d
00000160: c6b3 763d a135 3ebd 619d 34bd 0d37 1fba
00000170: c57b fa3b aecd 963c 4557 983d 985c 76bc
00000180: 3919 a13b 85e3 52bd bbf0 803d de11 bc3d
00000190: 7bcd 1e3d e6e9 343d fe84 4e3d 5418 12bd
000001a0: 3ac1 463d 878d a53d 2158 413c 826d 313d
000001b0: 3f51 9fbd 6c67 c7bc 240e 683a e8c8 543b
000001c0: 56ce b83d c60b 7e3d 101e acbc ce74 0e3d
000001d0: df2d 073d cf9f a83d b53d 2dbd da65 5b3d
000001e0: 509e d2bc 3e9a 15bd 86a7 893d cc62 ce3c
000001f0: 0ee6 373d 4d38 04bd f2a7 633d 76a2 ac3d
00000200: 0c0f 8fbd fde5 c83c 0e9f b43d 9434 debb
00000210: da34 543d c456 a33c cf68 b23d 94cc 5e3c
00000220: f21d 7f3d 511f acbd eaf2 29bd 5ed0 94bd
00000230: 7bb6 a9bd 6e05 9e3a ad60 87bd 397d a93d
00000240: f2e0 303d 03d6 aa3d e400 923c d13e 3dbc
00000250: 6de8 9c3d 875d 91bd 070f 4fbd 2c53 963d
00000260: ac64 d4bc fad0 4b3d 20a2 c63c fca0 0aba
00000270: 5640 533d 0e55 afbd 4696 243d 5e63 9bbd
00000280: c86c 1ebc 8b36 203d 9f82 ae3d b151 a33d
00000290: 894b af3d cb6e 60bd 7434 7cbd 7cff 42bd
000002a0: 1065 85bd 0865 62bb 72c6 35bd 40c1 543c
000002b0: c03a ae3c 4057 a5bd a244 a7bd d76a 9ebd
000002c0: 595e a3bd 0e37 02bd d410 4abd f738 adbd
000002d0: d0a2 573c 1e5b 133d c7a6 2abd 0487 a3bd
000002e0: fcbc ab3d 4e95 8ebd 7acc b43d a5ec 323c
000002f0: f06c d83c ccb0 953d 0b24 3fbd 8381 65bd
00000300: cb49 8f3d cd32 8a3d f8de 71bc ce2a a6bc
00000310: 675d 58bd c612 953d 7a5d 753d a8cf 373c
00000320: 011d 14bd 475c 923d 45e0 b3bd 546f ddbb
00000330: cbb6 1e3d c24d 82bd c66a 253d a8e6 35bc
00000340: acfb c43b f44e ac3b 4471 94bc 7489 e8bb
00000350: 7fee 493d 658a b13d d055 193c 11dc 903d
00000360: 73ab a8bd 2a1e a1bb 113f 31bd 6558 bcbc
00000370: 84d1 853d e1be 053d d611 8abd fe27 e6bc
00000380: d920 003d 9f59 943d a276 943d 907e a2bd
00000390: 8089 b43d b295 85bd 0e51 cb3c c052 86bd
000003a0: eaf6 75bd 332a 923d fd4e 96bd fffd f5bc
000003b0: de71 e13b 477f 9b3d 3b10 983d 1cd9 f93b
000003c0: 4ba5 37bd be34 4ebd a1fd 083d 0d24 a53d
000003d0: 8e4e 703d 1f9f b23d 47e0 f63c 8a70 193d
000003e0: 82a3 453d 99b9 7dbd d639 2d3d a12a 873d
000003f0: 349b 45bc cd9e 76bd 6f97 913d ab35 823c

layer3.bias f4 [4]
0.07579177 0.041238386 0.03393393 -0.07606862
00000000: b738 9b3d 95e9 283d 4efe 0a3d ddc9 9bbd
